Generator.pt (torch_old, 616401 bytes, 203 tensors)

weight f4 [20, 1, 9, 9]
000000 38 08 18 3c ff c7 de 3c 96 10 07 bc 72 ad 15 3d
       0.009279303 0.027194975 -0.0082437005 0.036542363
000010 49 e1 21 bc 3a c8 9d 3b 39 6a c7 ba 73 12 2f bd
       -0.009880372 0.0048151286 -0.0015214152 -0.042742204
000020 70 ac 06 3c c7 30 ce bb 41 cb 34 bc ad 76 8a bc
       0.008219823 -0.006292436 -0.011034788 -0.016902292
000030 04 ab 8b bb 9a d3 db bc 88 7e 16 3c 6c 15 06 3d
       -0.00426233 -0.026834298 0.009185441 0.032735273
000040 0d f2 c4 3a 38 3e ca bc 76 17 25 3c 8b 9a 64 3c
       0.001502575 -0.024687871 0.010076394 0.013952862
000050 f7 b6 b3 bb f4 d3 9c ba 9e 00 82 ba 33 b7 1e 3d
       -0.0054844576 -0.0011965022 -0.0009918397 0.03874893
000060 00 df 12 3c 57 f1 47 3a 0b d6 a0 bc b7 10 2b bb
       0.0089643 0.000762721 -0.019633314 -0.0026102492
000070 8c 09 c5 bb 13 f3 16 3d cc 7d a9 bb b2 7e 00 3c
       -0.006013101 0.036852907 -0.005172467 0.0078427065
000080 27 35 aa 3b 8f d0 14 3d 5f 30 27 3d f6 6e 6f 3c
       0.0051943245 0.03633171 0.040817615 0.0146138575
000090 5d d9 55 bb 71 54 a8 ba 47 4d 04 3b 3f b5 2b 3d
       -0.003263078 -0.0012842548 0.0020187662 0.041920897
0000a0 08 60 20 ba 28 5d c8 3c 6c 78 fa 3c 5f ee c2 3c
       -0.00061178254 0.024458483 0.030575 0.023795305
0000b0 77 fa 19 39 eb c6 ae bc 80 5d ab 3c 8a 45 ff bb
       0.00014684522 -0.021335086 0.020918608 -0.007790272
0000c0 f3 aa 17 bc ff ad 94 3b e3 e5 02 bd ef af 4c 3c
       -0.009257066 0.0045373435 -0.03195752 0.012493118
0000d0 62 2f 8d 3c 2e 7a f8 bc ad e5 11 bd 59 26 0a bc
       0.017234508 -0.030331697 -0.035619427 -0.008431994
0000e0 ec 6d 87 3c 6a 18 a9 bc 04 60 17 bc d4 a1 be bb
       0.016531907 -0.020641524 -0.0092392005 -0.0058176313
0000f0 6c ad d6 bc f4 d3 e4 bc 1c 30 9d 3c bf e2 03 3b
       -0.02620574 -0.027933098 0.01918798 0.0020124165
000100 7c 84 07 3c b3 f4 d6 3c 58 52 4a 3b 71 73 6b bd
       0.008271333 0.026239729 0.0030871835 -0.05748314
000110 b0 d1 f3 bb 63 8c 31 ba d0 fd f3 bc f1 6b 04 3d
       -0.007440768 -0.00067729334 -0.029784113 0.032329503
000120 16 7b ac bc 14 12 48 3c 7e 51 f0 3b b5 e6 51 3c
       -0.021054786 0.012211341 0.0073339334 0.0128113525
000130 61 6d ce bc 4e 7f 1c bc 9d 25 8a 3c 61 8b 6c bc
       -0.02519864 -0.009551836 0.016863639 -0.014437527
000140 00 cc c5 bc 81 8f 1c bd ae bb 7d bc 20 55 ad 3c
       -0.024145126 -0.038222793 -0.015486641 0.021158755
000150 02 8d db bc a0 40 b2 3c 17 46 81 bc 4a aa 97 ba
       -0.026800636 0.021759331 -0.015780492 -0.0011571136
000160 b7 0b 63 bc b3 7a 3c 3c b4 88 8e bc 19 9a b6 3b
       -0.0138577735 0.011503863 -0.01739917 0.005572569
000170 c5 29 d4 3c 14 eb ad bc 79 47 58 bb ce dd 07 3c
       0.025898824 -0.021230258 -0.0033001585 0.008292628
000180 89 3b 5d 3b 92 49 76 bb 5f 6e ed 3b 23 b6 e5 3c
       0.003375741 -0.0037580472 0.0072458233 0.028040951
000190 a5 4a ee bc 28 fa 7e bc 57 f0 60 bd e7 c9 78 bc
       -0.029088328 -0.015562572 -0.054916706 -0.015184856
0001a0 96 19 fd 3c 27 2f d6 bc e7 d2 60 3d 46 33 6e 3c
       0.03089599 -0.02614553 0.054888632 0.014538592
0001b0 5c ce 5e bc f2 ed b9 3c 87 19 15 bd 37 bf 0b bc
       -0.013599005 0.022696469 -0.036401298 -0.008529476
0001c0 c5 5b ae bc 4a c6 f2 bc bc 55 03 bd 05 c1 76 bd
       -0.021283993 -0.029635567 -0.032064185 -0.06024267
0001d0 9e 01 7f bc ec e0 1e 3c 05 18 5a 3c 62 6c 7a 3b
       -0.01556435 0.00969718 0.013311391 0.0038211574
0001e0 30 56 8c 3c 9a 10 88 bb 6c 02 b5 bb f5 62 31 3c
       0.017130941 -0.0041523697 -0.0055239704 0.010826816
0001f0 f5 7d 05 bc ad e8 8b 3a d2 ed 8d bc 6e 0c 25 bc
       -0.008147706 0.0010674201 -0.017325316 -0.010073764
000200 c4 04 45 bc b0 ac 2a 3b 57 d0 ff bb e8 0f a8 bb
       -0.012025062 0.0026042871 -0.0078068185 -0.0051288493
000210 78 ec e3 bc ac f1 a1 3c 28 36 a0 bc 1c 19 17 bd
       -0.027822718 0.019768558 -0.019557074 -0.03688918
000220 d4 e8 c9 bc 18 0e ba 3c 6a e3 79 bb 70 1a 8b bc
       -0.024647154 0.022711799 -0.0038129934 -0.01698038
000230 1e 8d 43 3c fe 2b 52 3c 53 18 de 3c 2d f7 92 bc
       0.0119355 0.012827871 0.027111208 -0.017940128
000240 20 99 bd 3c a5 e4 13 3c 4e 07 21 3d 74 69 0d bd
       0.023144305 0.009026681 0.039313607 -0.034524396
000250 aa bf 5b bc 42 b5 bf bc 46 31 88 3c eb 48 4a bc
       -0.0134123955 -0.02340186 0.016625058 -0.012346487
000260 e3 13 10 bd d1 59 c1 bc 72 40 99 bc 56 0c 56 bb
       -0.035175215 -0.023602398 -0.018707488 -0.0032661161
000270 52 c7 34 3c 81 4d 8c 3c 74 f1 3b bc 64 21 79 bc
       0.01103385 0.0171268 -0.011471141 -0.015205715
000280 5c a0 a6 bc eb ff 22 bd ba a7 77 bb cd 1f 45 bb
       -0.020340137 -0.039794844 -0.0037789182 -0.003007877
000290 67 ed 5a 3c d7 d3 cf 3b 6b 89 aa bc fd 5c a2 bb
       0.013362265 0.006342392 -0.02081748 -0.0049549327
0002a0 2e 5e 7c 3c ea 8d 60 bd 49 3a 6a bc 0c 70 c7 bc
       0.015403314 -0.05482284 -0.014296123 -0.02434542
0002b0 e0 9d 02 bc fc f7 88 3c 0b 89 f6 bb 69 e5 45 3c
       -0.007972211 0.01671981 -0.007523661 0.012078621
0002c0 7b 45 c1 bc 4a 4d 34 bb 5c 83 63 3c 3f da 6a bc
       -0.023592701 -0.0027511888 0.013886299 -0.0143342605
0002d0 58 1e ec bc a8 90 24 bc 9d b3 ec b7 9a ab 41 bd
       -0.028823063 -0.010044254 -2.8217031e-05 -0.047282793
0002e0 29 32 70 bc 08 d7 95 bc ec 3d dd bb 1c 68 94 3c
       -0.014660397 -0.018291011 -0.0067517664 0.01811605
0002f0 19 34 c6 3a 73 35 76 bb 0c 5b 64 bc c5 2a 9c 3b
       0.0015121727 -0.003756848 -0.013937723 0.0047658407
000300 d9 c0 c6 3a 55 85 aa bc 61 d8 0f bc 88 a4 7d bc
       0.0015163674 -0.02081553 -0.008779616 -0.015481122
000310 45 2c fa bc 2c 91 9b 3c f5 45 9a 3b 6b 01 15 3d
       -0.030538687 0.018990122 0.0047080466 0.036378305
000320 04 90 04 3d a8 98 e2 3a 40 92 0f bd be e4 29 bd
       0.032363907 0.0017287927 -0.035051584 -0.04147791
000330 19 e8 7f bd b4 9a 8c bc 10 45 32 bd 4d 6d 11 bc
       -0.062477205 -0.017163612 -0.043522894 -0.008876157
000340 4b db f5 bc 36 c1 c0 3b d5 97 93 bb 34 aa ac 3a
       -0.030011794 0.0058824075 -0.004504184 0.0013173283
000350 b7 12 9b 3c 84 dc f6 3b a5 50 43 3c 09 62 fb bc
       0.018929822 0.0075336117 0.011921083 -0.030686395
000360 24 1a bc bc 43 72 cb 3c 50 2d da 3a 13 2d f0 bc
       -0.022961684 0.024834758 0.0016645584 -0.029318368
000370 ba 04 bd bc 24 99 92 bc 2c 55 85 bb 0b b1 82 bc
       -0.023073543 -0.017895289 -0.004068991 -0.015953561
000380 ee a5 94 bb 1b 50 96 3a 6d d3 d1 bc 30 dd 60 bb
       -0.004536382 0.0011467965 -0.025613511 -0.0034311526
000390 38 29 c4 3b 1d 31 bb bb 3b 45 47 3b 46 9c 47 3d
       0.005986359 -0.005712642 0.0030406255 0.04873302
0003a0 0d 78 2c 3c 99 40 10 3d ea eb 4e bb 1c 5d e5 bc
       0.010526669 0.035217855 -0.0031573721 -0.0279985
0003b0 5d 33 05 bc 2e 0d 3a bb 53 ce 8e 3c 48 62 e2 bc
       -0.008129922 -0.0028389203 0.017432367 -0.027634755
0003c0 a1 05 76 bc d7 cd 97 bc 62 be 93 bc 93 16 4b bc
       -0.0150159905 -0.01853077 -0.018035118 -0.012395519
0003d0 b9 75 c5 bb 5b 62 34 bd fc ed 86 bc 3f b2 c3 bb
       -0.0060259965 -0.04403911 -0.016470902 -0.0059721763
0003e0 4b ce 13 bc 21 02 2e bc b5 f2 e1 3b 86 aa 25 ba
       -0.009021352 -0.010620625 0.006895388 -0.00063196605
0003f0 cb 12 4b bc 6d bc 7c 3c 65 1d 74 3d 3b b1 82 ba
       -0.012394617 0.015425784 0.059598345 -0.0009971032

bias f4 [20]
000000 21 17 ff 3c bc e7 e8 bd 20 e5 28 3c 0f 31 06 bd
       0.031138958 -0.11372325 0.010308534 -0.03276163
000010 1f e0 9a 3d bd 84 2c bd 3b 3c b2 bc 4b 35 4a bd
       0.07562279 -0.042118777 -0.021757236 -0.04936723
000020 66 b4 e6 3c 11 6f be bc 7e 6a c1 3d 1c a5 d5 bd
       0.028162193 -0.02324632 0.0944414 -0.10431883
000030 63 ff 9a bd a3 47 02 3d 73 2d 7c bd 6a ee 3b bc
       -0.075682424 0.0318066 -0.06156678 -0.011470417
000040 bd 35 ab 3d 10 20 d8 3d ff 0f d8 bd 13 8a ca 3d
       0.08359859 0.105529904 -0.10549926 0.09889617

weight f4 [20, 20, 3, 3]
000000 6d a5 2f bd d3 61 b3 bc 07 3a e7 bb 9b dc 94 ba
       -0.04288237 -0.021897232 -0.007056478 -0.001135725
000010 8a 1d 54 3a 66 c9 64 3b 21 b0 b7 bc be 57 4b 3c
       0.000809156 0.0034910082 -0.022422852 0.012411056
000020 64 27 b6 3c 8f 73 c7 3b 03 37 93 bc da 65 f2 3c
       0.02223558 0.0060867737 -0.017970568 0.029589582
000030 a6 22 e6 3c f0 bf 8c 3c f6 14 74 bc de 2f 40 3c
       0.028092694 0.017181367 -0.014897576 0.011730162
000040 d8 73 2d bc c7 f3 60 bc b8 a5 c9 3c df d6 e0 ba
       -0.010586701 -0.013729996 0.024615154 -0.001715388
000050 b2 fe e3 3c 1f 37 1d ba 6c 51 70 bc f4 a5 d5 3b
       0.02783141 -0.00059972884 -0.01466785 0.0065200273
000060 ce 21 de bb 69 b2 3f 3c 1b a8 8a b9 d2 a8 2d 3d
       -0.006778932 0.011700251 -0.0002644666 0.042397328
000070 86 05 a7 bc 2e f9 61 bc 08 91 e7 bb d9 ae 28 3c
       -0.020388376 -0.013792319 -0.0070668496 0.010295593
000080 e5 fb 97 bc 40 a2 a2 bc 0d e9 f4 bc f9 a8 b7 3c
       -0.01855273 -0.019852757 -0.029896284 0.02241944
000090 a4 12 0b bd 41 1c 9e 3c 06 5b 46 bc 8d c6 51 3c
       -0.033953324 0.019300582 -0.012106663 0.012803686
0000a0 0c b4 9c bc 00 62 86 bb 6c 3c f0 3c c5 1a c3 3b
       -0.019128822 -0.004101038 0.029325686 0.005954119
0000b0 f7 f3 0a bb 3b d6 76 bb 99 ce 42 bc 9f 86 a7 bb
       -0.0021202543 -0.0037664312 -0.011890077 -0.0051124836
0000c0 d8 c4 dc bb 53 13 cd bc 73 3c 07 bb 44 d0 45 3d
       -0.006737333 -0.025033629 -0.0020635396 0.04829432
0000d0 11 36 c1 3c 0f 89 db bc 5f de 55 bc 78 e1 28 3c
       0.023585351 -0.026798753 -0.013053506 0.010307662
0000e0 cc 54 1f ba 91 fc c0 3c 78 2d 43 bd 61 c6 9c bc
       -0.00060780044 0.023557933 -0.047650784 -0.019137563
0000f0 c1 f6 08 bd a1 1c 71 bc 42 27 b2 3b ac 85 09 bc
       -0.033438448 -0.014716298 0.005436809 -0.008393686
000100 13 15 0c bd 6b 79 6a bc 80 b9 75 bb 57 28 7c bc
       -0.034199785 -0.014311175 -0.00374946 -0.015390477
000110 2e db ca 3c 04 37 21 3d 9c 24 22 3c 53 b6 88 bc
       0.024762716 0.039359108 0.009896424 -0.016688501
000120 de 42 98 3b f8 e7 81 bc 0f 47 a2 bc 82 9e 16 3c
       0.004646643 -0.015857682 -0.019809274 0.009193065
000130 b4 3d 31 3b 69 2e 75 bc 7d f2 b1 ba 7d f1 8d bc
       0.0027044835 -0.014964678 -0.0013576295 -0.017327065
000140 2c bc 9d bb 4a b2 98 3b 85 b1 e1 bc 7a 4b 05 3c
       -0.0048136916 0.0046599256 -0.027550468 0.008135671
000150 4c 1b ac 3c 78 bd 5b 3c 2f 43 b8 3b 11 0e 1f bc
       0.02100911 0.013411872 0.0056232433 -0.009707944
000160 af ac 10 bb 9c f0 8b 3b ee ed 2d 3d f0 71 a8 3c
       -0.0022075584 0.004270626 0.042463236 0.020562142
000170 07 94 8a 3c b0 0b a5 3c 25 46 0a 3d fe e7 8a 3c
       0.016916288 0.020147175 0.0337583 0.016956326
000180 44 20 bf 3b 99 2e 97 3c 8e 26 0d 3b 68 32 56 3c
       0.005832704 0.018454837 0.0021537873 0.013073541
000190 7d e5 56 bc d7 2c 8b 3c 74 bb e5 3b 75 40 08 3b
       -0.013116238 0.016989155 0.0070108715 0.0020790373
0001a0 64 47 00 3d a1 22 ac 3c 76 2e 5e bc 3e 5a 39 3c
       0.031318083 0.021012606 -0.013560882 0.011313019
0001b0 12 a8 8e bc f9 e2 81 bb 13 b1 de bc d1 45 8c 3c
       -0.017414127 -0.003963825 -0.027184045 0.017123135
0001c0 5a 56 1b bc af e1 9e 3c e4 7a 21 3c c8 83 2e ba
       -0.009481037 0.019394724 0.00985596 -0.000665721
0001d0 02 f0 4c 3c e8 78 02 3c 8d ef 0f bd f1 51 10 3c
       0.012508394 0.007963397 -0.035140563 0.008808599
0001e0 38 00 08 3d 40 14 b7 bb f5 09 6d bd a1 1b 12 3b
       0.033203334 -0.005587131 -0.057870824 0.00222943
0001f0 6c b8 8c 3c a7 1f e6 bb 75 03 bc 3c 3b e5 7a bc
       0.017177783 -0.007022816 0.022950867 -0.015313442
000200 26 7c 6a 39 e7 0d f2 3b ae 2e 79 bb bb 3a 3a 3c
       0.00022362228 0.007386911 -0.0038022208 0.0113665415
000210 3c 3a b9 3c ec 27 26 3c a6 da 36 bd 25 d3 52 b9
       0.022610776 0.010141354 -0.044642113 -0.00020105818
000220 82 01 f7 3c 36 38 1c 3d 10 09 4d 3c aa 33 9c bc
       0.030152086 0.038139544 0.012514368 -0.019067604
000230 d1 2a 20 3b 23 11 69 bc e6 9d 26 bc 83 3d af bc
       0.0024439583 -0.014225277 -0.010169482 -0.021391636
000240 e1 6d ac bc 1a a9 cc 3c 8b c8 36 3c ab 81 83 bd
       -0.021048488 0.024982978 0.011156212 -0.064212166
000250 78 29 2d 3c ee ab fc bc 57 b9 41 bd f1 35 b2 3c
       0.010568969 -0.030843701 -0.047295894 0.021754237
000260 4a ca 0f bc 90 2d 24 bb 7d 2f a9 bc c2 ce 72 bb
       -0.008776257 -0.0025051571 -0.020652527 -0.0037049507
000270 bb e5 db bc c2 b5 23 ba 00 74 9e 3c 65 6f 97 bc
       -0.026842942 -0.00062450406 0.019342422 -0.018485734
000280 94 cf 81 bc e1 41 91 bb 60 8f 7b 3c c9 67 01 3d
       -0.015846051 -0.004432902 0.0153540075 0.031593118
000290 c0 77 51 3c cd 9b 07 bc 42 78 c9 3b 04 3e 08 bd
       0.012784898 -0.008276892 0.006148369 -0.033262268
0002a0 82 70 12 3d c4 07 fa 3b 58 f7 36 bc c6 8b 8f 3c
       0.035751827 0.0076303203 -0.01116737 0.017522704
0002b0 3a 18 28 3c 71 07 34 3c be 98 f2 bb 32 17 21 3d
       0.010259682 0.010988102 -0.007403462 0.03932876
0002c0 65 60 fb 3c a3 95 1a bd 97 4d a4 bb 88 06 df bb
       0.030685613 -0.03774036 -0.0050141322 -0.0068061985
0002d0 22 94 a8 bb 44 25 86 ba d0 14 2d 3c 11 a3 7c 3c
       -0.005144612 -0.0010234495 0.010564044 0.015419737
0002e0 13 3d c6 bb fe a4 0d bc 9f dc 93 bb 6a 06 09 3d
       -0.006049761 -0.008645294 -0.004512384 0.033453383
0002f0 05 84 12 3c 9c 37 96 bc 07 1e c6 bc 04 11 44 bc
       0.008942609 -0.018337063 -0.02418424 -0.0119669475
000300 1b ad 18 3c 0f 7a f1 bc 1b 49 c0 3c 06 2b ae bc
       0.009318615 -0.029477147 0.02347236 -0.02126075
000310 f3 42 09 3d ae 30 05 3c d3 26 a2 bc 3b 80 9d bb
       0.033511113 0.008129282 -0.019793903 -0.004806546
000320 6d 87 2f 3d 56 6a 07 3b d4 28 30 3c df ae 5e 3b
       0.04285376 0.0020662746 0.010751922 0.0033978743
000330 11 75 77 3b cd 86 40 bb 89 6b a5 3c 2b 7f 00 3c
       0.0037758986 -0.0029377223 0.020192878 0.007842819
000340 01 f1 56 bc c4 7e 72 bc c4 f0 1c 3c 19 b8 ce 3c
       -0.013118983 -0.014800731 0.009578887 0.025234269
000350 bb 8a 09 bd d1 51 8d bb a6 4f 33 bb 0e 12 64 bc
       -0.03357957 -0.004312732 -0.0027360707 -0.01392032
000360 8f 79 38 3c 0e 04 7e 3c 68 66 ad 3c 77 58 2b bc
       0.011259451 0.015503896 0.021166995 -0.010458103
000370 4f 08 9e 3c d6 2b b3 3b ca 17 46 bb 82 64 bb 3c
       0.019291071 0.005467872 -0.0030226582 0.022875074
000380 8f 0b 5a bb e6 b2 38 3c 6c 4e 50 3c da c4 e2 3a
       -0.003327105 0.011273121 0.01271401 0.0017301098
000390 2c 89 b6 bb 8c 89 d8 3c f4 39 e3 3c cc 15 c1 bb
       -0.0055705514 0.026432775 0.027737595 -0.005892491
0003a0 c9 ff a5 3c 5a 31 79 bc 6c a0 38 3b 29 ed a8 bc
       0.02026357 -0.01520952 0.002817179 -0.0206209
0003b0 7c ee 9b bb 7e 2b 64 3c 8b 15 51 bc c8 05 3e bc
       -0.004758654 0.013926385 -0.012761484 -0.011598058
0003c0 7d 9c 35 bc 01 ba ca bb 5b c3 d9 bc ca 76 6c 3b
       -0.011084673 -0.006186724 -0.02658241 0.0036081546
0003d0 9e 94 61 b9 24 42 18 3d c0 8f 9b 3b cf 26 ba 3c
       -0.00021513036 0.03717245 0.004747361 0.022723584
0003e0 17 4e 40 3c 64 59 0c 3d 80 5b 24 3c 57 f1 fe 3b
       0.011737368 0.034264937 0.010031581 0.007780235
0003f0 70 f8 12 bd aa c6 91 3c 7f 73 ee 3b f5 64 c4 bc
       -0.03588146 0.017794926 0.007276952 -0.023973921

bias f4 [20]
000000 3f 69 e5 bc 7a 7d 8b bd 84 87 54 bc 87 a9 8c 3d
       -0.028004287 -0.06811042 -0.012971763 0.06868272
000010 61 73 7c bd 0a ea 73 3d 1b 95 61 3d 3c 9d 84 bd
       -0.06163347 0.05954937 0.05507384 -0.064753026
000020 22 51 8f bd 6f 85 2d 3c ab ad 17 3d 76 53 b9 bc
       -0.06997897 0.010590895 0.037030857 -0.022622805
000030 f7 0e 75 3d 5a 2b 8b bd 0f 82 a0 bc 6b e6 47 3c
       0.059828725 -0.06795378 -0.019593267 0.012200932
000040 16 09 19 bc d4 cc 7c 3d 13 c4 12 bb d5 9f 88 3d
       -0.009340545 0.061718777 -0.0022394701 0.066711105

running_mean f4 [20]
000000 5e 6f 2e bd 85 7e 87 bd d0 3f ae bb 4f af 7a 3d
       -0.042586677 -0.066159286 -0.0053176656 0.061202344
000010 84 0a 6a bd e9 bf 3a 3d ed 3d 61 3d 1b 22 a1 bd
       -0.057138935 0.045593176 0.054990698 -0.07867833
000020 30 db a3 bd 53 9d 16 3d 34 65 e0 3c f6 5e 1d bd
       -0.08000791 0.03677113 0.027392007 -0.03842064
000030 7a 26 6e 3d 75 27 c9 bd a4 71 95 3c fd c1 9f 39
       0.058142163 -0.09821979 0.018242665 0.00030471376
000040 28 65 36 bc ff 56 61 3d 1d 09 80 bc a6 9e bc 3d
       -0.011132516 0.055014607 -0.015629346 0.09209947

running_var f4 [20]
000000 66 8d 88 38 77 25 a3 37 dc b2 54 39 59 50 15 39
       6.511323e-05 1.944856e-05 0.00020284526 0.00014239679
000010 1e 84 e8 38 0b 22 11 39 ea ed 1a 39 0b a1 04 37
       0.00011087231 0.0001384096 0.00014775214 7.905309e-06
000020 5a b3 18 38 0c 29 01 39 65 fb 07 39 bc e4 9e 38
       3.640666e-05 0.0001231769 0.00012968255 7.576632e-05
000030 69 f1 63 37 a9 67 8f 39 3c cf 87 39 59 7c a3 37
       1.3586462e-05 0.00027352318 0.00025903608 1.9489018e-05
000040 91 20 6e 37 0a 7e 5d 38 8f 1d 9d 37 05 7c 09 39
       1.4193488e-05 5.280789e-05 1.8729623e-05 0.00013111539

weight f4 [20]
000000 d5 99 80 3f b2 d0 7d 3f d2 87 70 3f dd a3 86 3f
       1.0046946 0.9914657 0.93957245 1.0518757
000010 d5 5a 82 3f 7a ee 7f 3f c1 bb 7d 3f 7b b6 82 3f
       1.018397 0.9997326 0.99114615 1.0211939
000020 45 76 75 3f 3d 16 80 3f 7e 85 81 3f a8 59 7f 3f
       0.9588359 1.0006787 1.0118864 0.9974618
000030 e6 50 80 3f 5a c4 81 3f 4c e9 7d 3f 4c 8d 80 3f
       1.0024688 1.0138047 0.9918411 1.004312
000040 df bb 80 3f 3d 04 81 3f 37 a2 78 3f 78 4d 83 3f
       1.0057334 1.0079418 0.9712252 1.0258017

bias f4 [20]
000000 97 23 b7 3b d6 6d 9d 3b b4 16 a8 3b b3 10 49 3a
       0.0055889594 0.004804353 0.0051296595 0.000767003
000010 50 25 83 3b b6 70 4a 3b 59 71 26 3b df ad 92 3c
       0.0040022507 0.0030889935 0.002539715 0.017905174
000020 ab 9b 57 3a 4b b3 6f 3c 30 6a 4f 39 e2 3d 0a 3b
       0.00082247955 0.014630149 0.00019780616 0.0021094014
000030 85 3e 13 3c 32 39 8e 3a 4c 79 6c 3b 45 c8 e4 3b
       0.008987074 0.0010850786 0.003608304 0.006981882
000040 20 12 86 3c 0a de a4 3c e2 18 59 3b 7d 25 43 3b
       0.016366065 0.020125408 0.0033126404 0.0029776983

weight f4 [20, 20, 3, 3]
000000 11 ef 3c bc 7e 28 02 bc 6f ea 53 3c a0 6d 68 3c
       -0.011531607 -0.007944224 0.012934311 0.014186293
000010 fa 75 9d bc e0 52 71 bc 1c cb 02 bd cc 51 5c bc
       -0.019221295 -0.014729232 -0.03193198 -0.013447236
000020 a6 31 cb bc 0a 16 e3 3c 1b 76 a0 bb 2b e1 0d 3c
       -0.024803948 0.02772047 -0.004896892 0.008659641
000030 53 5e 46 3d 06 c1 82 3a 20 84 8c bc 26 b6 ec bc
       0.0484298 0.0009975738 -0.017152846 -0.028895449
000040 1b 22 4a 3c d4 81 3a ba fa b2 f8 bb 1d af d0 3c
       0.012337233 -0.0007114683 -0.007589695 0.025474126
000050 fa bd 76 3c 9a c0 73 3c 63 31 10 bd 52 12 b8 bb
       0.015059942 0.014877463 -0.03520335 -0.0056174183
000060 d0 78 f3 3b 04 80 38 bc 80 3a a1 3c e4 c9 a2 bc
       0.0074301735 -0.01126099 0.019681215 -0.01987166
000070 f8 06 f6 b9 44 ca 6f bc 40 41 51 bc d3 7f ab bc
       -0.00046925968 -0.014635626 -0.0127719045 -0.020934975
000080 d0 40 dc 3c 26 f9 18 bc 03 85 06 3c 94 aa 32 3c
       0.026886374 -0.009336745 0.008210423 0.010904927
000090 f4 af 77 3c 59 69 ca 3c cd a1 6b 3b 33 21 19 bc
       0.015117634 0.024708437 0.0035954595 -0.009346294
0000a0 98 f0 84 bc 56 d6 f6 bc 05 5d 69 bc 42 26 15 3c
       -0.016228005 -0.0301315 -0.014243369 0.00910336
0000b0 91 e0 ff bc a8 cd 83 3a ce 42 6c 3c d3 2c e8 bb
       -0.031235011 0.0010055797 0.014420224 -0.0070854216
0000c0 b8 a2 a2 bc 11 1f ab bc c8 82 17 bc e1 18 ee 3b
       -0.019852981 -0.020888837 -0.009247489 0.0072661494
0000d0 c2 a0 df 3a 8f a3 12 bd 92 c5 0b bd fa 9b 8e 3c
       0.0017061459 -0.035800513 -0.034123965 0.01740836
0000e0 dd 34 13 3c 86 9b 69 39 6f ad 97 bb fc 2a a2 bc
       0.008984772 0.00022278549 -0.004628829 -0.019795887
0000f0 45 83 e6 3b ab f3 7c bc d7 b0 aa 3c 61 2e 80 bc
       0.0070346915 -0.015438954 0.020836277 -0.015647115
000100 44 46 e2 bc 1b e0 a0 bb 01 16 28 3b 78 c5 69 3c
       -0.027621396 -0.004909528 0.002564788 0.014268272
000110 61 3b e0 3c 12 9c 23 3c cf 5f 28 bb 33 71 70 3c
       0.027372064 0.0099859405 -0.0025691872 0.014675426
000120 78 eb 06 bd 0a 19 84 3b 3d 7b f3 bc 7f 88 aa ba
       -0.032939404 0.004031305 -0.02972185 -0.001301065
000130 aa 38 53 3c e5 3d e2 b9 76 57 a7 bc 0b c6 af bc
       0.012891928 -0.00043152194 -0.020427447 -0.021456739
000140 97 e7 01 bc 6e 89 e8 3c b6 43 b5 ba 45 b6 89 ba
       -0.0079287505 0.028385844 -0.0013829384 -0.0010506591
000150 37 a1 d6 bb 86 15 8f 3c 42 a9 3d bd 07 e0 a6 bc
       -0.00654998 0.017466318 -0.046303995 -0.020370496
000160 6c ca a9 bc 1d 01 25 3c ec 02 19 bc d8 02 42 bc
       -0.020726405 0.010071066 -0.009339076 -0.011841498
000170 bf e3 1c bd f3 07 06 3d b8 88 af bb 44 4b 4a bc
       -0.038303133 0.032722425 -0.0053568743 -0.012347046
000180 65 21 c7 3b 18 f5 d1 3a bc 6d 51 3c e2 88 a4 3c
       0.006076979 0.0016018478 0.01278251 0.020084802
000190 35 3f 5e bc 9d 24 89 bb 84 52 dc 3c f9 3a 6c bd
       -0.013564874 -0.004185273 0.026894815 -0.05767343
0001a0 f7 7f e5 ba a2 05 c3 bc f6 16 3d 3c 0f 98 bd bc
       -0.001750945 -0.023806397 0.011541119 -0.023143796
0001b0 35 84 06 bc 2e 0e 31 3c 67 57 93 3c 56 66 43 3b
       -0.008210232 0.010806603 0.017986013 0.0029815636
0001c0 6e 77 d2 ba 6a 7d cc 3b 98 fe 66 3c d4 cb 9b 3c
       -0.0016057321 0.0062405365 0.014098786 0.019018091
0001d0 f4 00 65 bc 34 52 a3 3c ed 38 32 3c 0d 8d 52 bb
       -0.013977278 0.019936658 0.01087783 -0.003212753
0001e0 9f fa cf bb d8 c2 a3 3a 11 f8 45 3c f7 98 ee bb
       -0.006347015 0.0012493981 0.012083069 -0.0072814184
0001f0 ae d5 a3 3c 9e 3f 0e 3c 34 20 bf bc 84 b2 11 bb
       0.019999351 0.00868216 -0.023330785 -0.0022231648
000200 bb 2b 55 3c 69 fa db 3b 8e 38 5d bc 58 7d ac bb
       0.013010914 0.006713201 -0.013502253 -0.0052639656
000210 35 8b 1d b9 e1 1e 4a bb c9 33 46 3c 53 6c 36 3c
       -0.00015024545 -0.003084116 0.0120973075 0.011134225
000220 09 2a 14 bd 90 f5 24 3d 17 da de bc 7c 21 81 3c
       -0.0361729 0.04027325 -0.027203603 0.015763037
000230 eb 59 d8 3b 76 31 0d bc 85 57 18 bd dc f4 2f 3c
       0.006602516 -0.008617749 -0.03719284 0.010739531
000240 a5 a2 e0 bc d0 fa fb bc 19 2c a8 3c f9 ec 2f bd
       -0.027421305 -0.030759245 0.02052884 -0.042950604
000250 8f 65 d2 3a a1 19 b8 bc 9f 09 62 bc 3b 0e 80 bc
       0.0016051995 -0.022473158 -0.013796239 -0.015631786
000260 7b 79 0d bc 97 70 69 3c 30 37 8f 3b 35 a4 4b 3c
       -0.00863492 0.014248035 0.0043705925 0.012429287
000270 da 6c 27 bc 64 cc 2d 3d 11 49 f1 ba 28 da eb bb
       -0.010218823 0.04243125 -0.0018408616 -0.007197637
000280 a8 6a 00 bd 7d 27 52 3c 24 f6 03 3c 4a 25 bf ba
       -0.031351715 0.012826798 0.00805429 -0.0014583257
000290 72 fe 09 bc 9d d1 3e bc c9 a7 85 bc 4f ef 90 3c
       -0.008422481 -0.011646655 -0.016315358 0.017692236
0002a0 60 64 97 3c 2d 89 b9 bc 62 c6 b1 3c dc a1 83 3b
       0.01848048 -0.022648418 0.021701042 0.004017098
0002b0 5b fc 6d 3b 4c c7 a8 3c 66 d4 ae 3c 87 a8 d1 3b
       0.0036313746 0.020602845 0.021341514 0.006398264
0002c0 77 03 95 3b d6 ec 74 3c 2b ff cd bc 36 98 4a bc
       0.004547532 0.014949044 -0.025146088 -0.0123653915
0002d0 25 d3 de bc 35 cf 35 bc 30 3e da 3a f7 4e 9a bc
       -0.027200291 -0.011096765 0.0016650613 -0.018836481
0002e0 16 f2 8d 3c 17 5b b7 b9 2d e9 8e ba 0e cf 97 3c
       0.01732735 -0.00034972347 -0.0010903232 0.018531349
0002f0 ac 14 b5 bb 7b 06 55 3c 34 98 69 3b 8b f6 93 3c
       -0.005526146 0.013002033 0.0035643699 0.018061897
000300 28 2e 05 bc 50 61 97 3c 21 09 a1 bb 6b fb 2a 3d
       -0.00812868 0.01847902 -0.0049144183 0.041743677
000310 5b 1f 80 bc f1 7c 31 3b 08 c5 80 bb cb f1 13 3c
       -0.015639951 0.0027082528 -0.003929738 0.009029816
000320 23 af fa 3b bc de a8 bb c3 d7 04 3c 93 61 f8 3c
       0.0076502725 -0.005153505 0.008108082 0.030319965
000330 b9 4d 85 bc 20 d1 1c 3d c5 97 ee bc c9 9e bc bc
       -0.016272413 0.038285375 -0.029125104 -0.023024933
000340 d9 3f 28 bc 07 1a 48 ba cd 24 55 bb 22 c5 1d bc
       -0.010269129 -0.0007633273 -0.0032523156 -0.00962952
000350 78 73 8d 3c c7 d9 0e ba 14 e9 db 3c 28 26 c1 3b
       0.017266974 -0.00054493215 0.026844539 0.005894441
000360 1f b3 1a 3c 70 5d 8e bb 85 58 21 3c a1 c6 8f 3c
       0.00944212 -0.0043446347 0.009847765 0.017550768
000370 0f 6a cb bb 76 68 11 3d 23 a6 ae bc 71 96 01 bc
       -0.0062077115 0.035500012 -0.021319455 -0.007909403
000380 0a e6 bf 3c 42 0b f9 3b ee e0 ed bc ac 44 9b bc
       0.02342512 0.007600219 -0.029037919 -0.018953644
000390 c7 7d 94 3b cb db c5 ba dc ae 07 bd 75 97 ce bc
       0.0045315954 -0.0015095411 -0.033125743 -0.025218705
0003a0 64 ba f5 bc 28 f5 24 3b 67 3c d1 3b 89 c5 04 3d
       -0.029996105 0.0025170539 0.0063853743 0.032414947
0003b0 a2 b8 38 bc d4 60 33 bd c5 fb 90 3c 86 8d 7a bc
       -0.011274489 -0.043793514 0.017698178 -0.015292531
0003c0 99 22 86 3b 54 f1 69 bb 78 67 71 bc e3 69 20 bc
       0.00409348 -0.0035696821 -0.0147341415 -0.00979087
0003d0 63 b0 73 3c 10 56 b7 bc a1 09 6c bc c3 da 82 3c
       0.014873597 -0.022379905 -0.014406593 0.015973454
0003e0 91 43 4d 3c eb 21 42 3c 08 c1 8c bc 9f d2 d9 3b
       0.012528316 0.011848907 -0.017181888 0.0066474224
0003f0 a1 b0 1b 3c ec 94 c8 bb a0 8b d5 bb ae 47 4e bc
       0.009502561 -0.0061212685 -0.0065168887 -0.012590332

bias f4 [20]
000000 f1 49 01 3c ae f2 28 bd 1d 20 ab bc ad c1 7e bd
       0.007891164 -0.041247062 -0.020889336 -0.062196422
000010 04 21 87 3b ea ad 83 bb f1 95 b7 3c c7 d4 13 bd
       0.004123809 -0.004018535 0.022410365 -0.036091592
000020 68 fd 5a 3b 99 e1 42 bd 99 6f 4a bd 27 60 a9 bc
       0.0033415202 -0.047578428 -0.049422834 -0.020675732
000030 f7 50 df 3c ec 7a b9 3c 38 00 3d bc 86 5b a2 bc
       0.027260287 0.022641622 -0.011535697 -0.019819032
000040 ed 10 88 3d dc b7 31 bd ac 1e 4c 3c af db 70 3d
       0.06643853 -0.043388233 0.012458485 0.058803257

running_mean f4 [20]
000000 1d b0 8b bd a9 0c b0 bd a4 87 f9 bd 3b ab 0f be
       -0.068207 -0.08596165 -0.121840745 -0.14030163
000010 6c 9e 72 bd 45 bf ec bc 20 ee f4 bb 2a d4 13 bd
       -0.059233114 -0.028899798 -0.007474676 -0.036091007
000020 4d 11 5d bd f4 47 ee bd fb f8 88 bd 33 95 d2 bc
       -0.053971577 -0.11634818 -0.06688114 -0.02570591
000030 34 b0 19 3d ca 44 1d bd 25 5b 5c bd 67 4e 2d 3d
       0.037521556 -0.03839568 -0.05379786 0.0423111
000040 af 57 0d bc ad a5 1f bc 5f 69 61 bd 7b 27 ab 3d
       -0.008626862 -0.00974409 -0.05503213 0.0835714

running_var f4 [20]
000000 5e 9f 53 3c c4 2a b4 3c e0 ec b3 3c 02 f5 d4 3c
       0.012916414 0.021993048 0.021963537 0.025995735
000010 2f 20 95 3c 3c 71 b6 3b 38 86 6b 3c eb 0c 01 3c
       0.018203823 0.005567698 0.014375262 0.007876615
000020 07 60 11 3d 7f 53 b1 3d fa 7b c1 3c 18 b0 99 3c
       0.03549197 0.08658504 0.023618687 0.018760726
000030 cc 48 65 3c b5 54 bb 3c 11 d9 8b 3d b4 19 d0 3c
       0.013994407 0.02286754 0.068285115 0.025402881
000040 6e c5 05 3d a6 f6 05 3d 08 e7 0c 3c 4f 2d db 3c
       0.032658987 0.032705925 0.008600004 0.026755003

weight f4 [20]
000000 74 ac 77 3f 60 a1 82 3f b5 70 83 3f a4 db 85 3f
       0.9674752 1.0205498 1.026877 1.0457654
000010 54 a5 84 3f a3 01 80 3f 0d 60 7c 3f 7d a9 7e 3f
       1.0362954 1.00005 0.9858406 0.9947737
000020 0f ff 7f 3f 16 49 82 3f 2d d8 82 3f 55 0a 7b 3f
       0.99998564 1.0178554 1.0222222 0.9806264
000030 e6 b7 82 3f d2 7e 86 3f ee fa 7f 3f 83 7f 7b 3f
       1.0212371 1.0507452 0.99992263 0.9824144
000040 79 5f 84 3f 15 ba 80 3f f4 f6 7f 3f 8b cb 82 3f
       1.0341636 1.0056788 0.99986196 1.0218366

bias f4 [20]
000000 cc df 83 bb 9e 5a 7d 3c 21 be 2e bb df 71 8a bb
       -0.0040244814 0.015463499 -0.0026663619 -0.0042250003
000010 d5 c8 94 3a 9f f4 87 b9 3a bd 08 bc b1 89 64 3b
       0.0011351357 -0.00025931463 -0.008345896 0.003487211
000020 e9 1d 63 3c b4 2d d9 bb fd 54 dc 3a 24 2f 91 3a
       0.013862112 -0.0066277627 0.0016809996 0.0011076671
000030 ec 45 4e bb 2b 61 18 3a 10 9b 6a bb 29 71 cc 3b
       -0.0031474782 0.0005812819 -0.003579799 0.0062390757
000040 0c 83 8f 3b b8 9e 44 bb dc 66 22 bc 21 e0 0e bc
       0.0043796357 -0.003000183 -0.009912219 -0.008720429

weight f4 [20, 20, 3, 3]
000000 04 92 22 bd f9 b2 13 3b 56 8b 65 bc d2 7b 36 bb
       -0.039690033 0.0022537096 -0.014010271 -0.0027844799
000010 d1 64 ab bb 43 f3 41 bd ba 4d 4a 3a 59 ee 91 b9
       -0.005230524 -0.047351133 0.00077172706 -0.00027834138
000020 b3 da 11 3b 87 01 e6 bb 7d 9b b2 3c 65 15 ca bc
       0.00222556 -0.007019225 0.021802658 -0.024668405
000030 f6 f0 4f b9 0b 2a 5f bc 4d 9f d7 3c 59 ae 51 bc
       -0.00019830823 -0.013620864 0.026321078 -0.012797915
000040 66 d2 c0 3c c3 00 a8 bc f2 01 88 bc c5 ce 82 3c
       0.023537826 -0.020508176 -0.01660249 0.015967736
000050 45 61 f9 3c 8e 5b 63 3c 34 58 05 bb e0 a0 bf b9
       0.03044189 0.013876809 -0.0020346763 -0.0003655022
000060 58 4d c7 bc 8a 24 a5 3c d4 28 ba bb f3 97 b9 bc
       -0.024328873 0.020159025 -0.0056811366 -0.022655463
000070 88 ad 8c 3b 31 48 72 bc c9 80 c3 3c fa ca 04 bd
       0.0042931475 -0.01478772 0.02386512 -0.032420136
000080 a2 5a b2 3b dc 69 14 bd 75 5c 59 bc d5 2f cc bc
       0.005442933 -0.036233768 -0.013266672 -0.024925152
000090 6f 73 1d bc 81 48 ad 3c ca 32 87 3b 12 66 54 3a
       -0.009610041 0.021152737 0.0041259276 0.0008102368
0000a0 9c cd 97 3b f0 f5 35 3c ae a4 a0 3c a9 cd 52 bc
       0.004632665 0.011105999 0.019609775 -0.012866416
0000b0 a3 69 db 3b 65 d2 81 bd 8d 68 39 3b ec f5 48 3c
       0.0066959425 -0.06338958 0.0028291077 0.012265664
0000c0 84 56 83 bc 67 a2 c7 bc 51 60 9f bc cf f0 a4 bb
       -0.016032465 -0.024369432 -0.019455107 -0.0050335894
0000d0 0d 2b b2 3b a7 6b c0 39 fb 70 b4 bc 64 76 85 3c
       0.005437261 0.000367013 -0.02202653 0.016291805
0000e0 63 01 d9 3c 4c b2 0c bc cd b8 55 3c 79 b4 8f bc
       0.026489919 -0.008587431 0.013044548 -0.01754211
0000f0 fd 2f 03 3d be 67 93 bc e3 64 3e bc 98 c9 c7 bc
       0.032028187 -0.017993804 -0.011620733 -0.02438812
000100 41 be 7c 3c 84 c1 93 3c 7a 75 f1 3a 12 34 14 3d
       0.015426219 0.018036611 0.0018421852 0.03618247
000110 99 28 53 bc 23 1d c6 bb 43 bf a5 3c 6d 05 ae 3b
       -0.012888097 -0.006045954 0.020232802 0.0053107054
000120 c2 20 8b 3b 40 39 71 3c f7 33 c6 bc a8 b3 00 3d
       0.0042458484 0.014723122 -0.0241947 0.031421334
000130 ff da 0a 3c c1 5b c9 3c 6d 2b 1c bd 2b 95 90 3c
       0.008475064 0.024579884 -0.03812735 0.017649254
000140 0a 2f fc 3b db 04 79 3c 45 5b 79 bc ac 90 d5 3c
       0.007696037 0.015198912 -0.015219514 0.026069961
000150 45 58 a5 3c b2 67 01 3d 88 07 b5 3b 64 37 4c bc
       0.020183692 0.031593032 0.0055245794 -0.012464378
000160 b6 13 ad 3b 77 52 b3 3c 19 0e ea bb ae fb 4c 3c
       0.0052818907 0.021889908 -0.007142794 0.012511177
000170 98 2b 52 bb 62 78 f2 bb 2b b9 07 3d 50 45 56 3c
       -0.003206944 -0.0073996047 0.033135574 0.013078049
000180 35 3e e6 bc 2b 26 02 3c 89 b4 f0 3b 0c aa 4b 3c
       -0.028105834 0.00794367 0.00734574 0.012430679
000190 92 aa 64 3c ac 6d 2e bb 49 a1 6e 3c e7 1e 26 b9
       0.013956683 -0.0026615663 0.014564821 -0.00015842506
0001a0 af bc 3b bc 1d 5a 56 3d 54 90 f1 3c 2f bf 71 3a
       -0.01145856 0.052332032 0.029487766 0.0009221909
0001b0 db dc 2b bc 53 37 0f 3d e9 07 ab 3c 5c 63 34 39
       -0.010489668 0.03496487 0.020877795 0.00017203152
0001c0 66 e9 80 bc a1 91 5c 3c d6 a9 b0 3a 92 cb 75 3c
       -0.015736293 0.013462455 0.001347835 0.015002148
0001d0 f6 12 89 bc b4 55 27 3d 62 aa e2 3c 95 58 b9 bb
       -0.016732674 0.040853217 0.027669135 -0.0056563118
0001e0 6f 59 08 bc 65 ab c1 39 a0 84 06 3c 94 0b dd bc
       -0.008322104 0.00036939527 0.008210331 -0.02698306
0001f0 f5 d8 fc 3a 3f 11 2e 3d 19 77 ab 3b ed 0d 5b 3c
       0.0019290732 0.042496916 0.0052327034 0.013370019
000200 62 51 ec bb 58 29 ae 3c 4f 53 2b 3c 15 27 13 bc
       -0.00721185 0.021259949 0.010456874 -0.008981486
000210 5a de 08 3d 8c b5 b3 bb b1 9d 79 bd 26 3b c7 bb
       0.033415176 -0.0054842886 -0.060941402 -0.006080049
000220 2a 74 9e bc c5 f6 2e 3b ea 27 12 bc 08 69 6c bc
       -0.0193425 0.002669738 -0.008920649 -0.014429338
000230 e7 42 bd bc 0d 7f c8 3c 28 0b 76 bc 7b 12 ca 3c
       -0.02310319 0.024474645 -0.015017308 0.024667015
000240 1e 12 da 3c 4f e1 0b bc da 27 da 3c bc ff 2e 3b
       0.026619967 -0.0085376045 0.02663033 0.0026702723
000250 f4 3d e1 3c 05 80 44 bd 88 9f f0 3b 07 c1 fc 3b
       0.027495362 -0.04797365 0.0073432364 0.0077134403
000260 45 c5 59 bc cb 82 8b bc a6 b6 47 3c 0a ce bc bb
       -0.013291662 -0.01703014 0.012189543 -0.0057618665
000270 c8 2b 6b 3c a9 9c 88 bb 21 b2 d1 3c ac 79 38 bc
       0.0143537 -0.004169066 0.025597634 -0.011259478
000280 ea 71 6b bc af 85 ed bc a7 95 e6 3c 59 9e 91 3c
       -0.014370421 -0.02899441 0.028147532 0.017775701
000290 86 13 02 3d de c7 44 bd 5e 16 d1 bc 59 1f a2 bc
       0.0317569 -0.04804217 -0.02552336 -0.019790338
0002a0 12 fe 44 3c e2 a6 65 3c 30 2b 88 3b 50 5e 05 3c
       0.012023466 0.014016839 0.004155539 0.008140162
0002b0 41 2b 44 bb 3a ac f5 bc 17 28 23 3c bf 10 c4 3b
       -0.0029933008 -0.02998935 0.009958289 0.0059834416
0002c0 e2 71 fa bc ab 83 74 3d 59 66 a3 bc 45 30 0c 3c
       -0.030571882 0.05969588 -0.019946264 0.00855643
0002d0 e6 f5 68 bc 39 85 7d bb 3d 0b 06 3c 65 ea 8e bc
       -0.014218783 -0.0038684143 0.00818139 -0.017445752
0002e0 44 39 ee bc 1b 7d 55 3c 4e 16 7c ba 70 54 2a 3b
       -0.02908004 0.013030316 -0.0009616361 0.002599027
0002f0 aa a9 ae 3c 4b bd 85 bc 19 a4 a7 3c a1 f1 30 bc
       0.021321137 -0.016325613 0.02046399 -0.010799796
000300 a1 4a 2b 3c cc 32 38 3c a4 9a 3a 3b fd 5b 36 bd
       0.010454805 0.01124258 0.002847352 -0.04452132
000310 78 30 26 bb 68 28 d8 3a a4 c8 f6 3c 1d c0 50 bc
       -0.002535848 0.0016491534 0.03012497 -0.012741116
000320 3a e7 dc bc 07 8d 90 3a bf 35 0a bd 29 6f 72 3b
       -0.026965726 0.0011028358 -0.033742663 0.0036992526
000330 ed ba e7 39 10 2d 0a 3b c0 2c 4f 3c f8 b0 93 3c
       0.00044199024 0.0021083988 0.012644947 0.018028721
000340 49 a4 20 bc c3 8d 3b 3c 89 eb c7 bb c4 e1 fe 3c
       -0.009804794 0.011447373 -0.006101076 0.031113513
000350 86 3a 30 3d 96 ab 62 3c 01 8f b7 bc a5 53 22 bc
       0.043024562 0.013834855 -0.022407057 -0.009907638
000360 88 e7 6a 3c fd 52 ca bb 41 6f 32 bc 2b 96 06 bb
       0.014337428 -0.0061744438 -0.010890783 -0.0020536284
000370 b7 66 df 3b 37 b8 9c 3b 53 8e a2 bc 6e 90 bc 3b
       0.0068176645 0.0047827023 -0.019843256 0.005754522
000380 0c dc b7 bc a7 6f fc bc dd 76 66 bb bd 5c 7d 3b
       -0.022443794 -0.030814959 -0.0035166063 0.0038660013
000390 a2 cf b1 3c e1 4e 21 bd 14 5b a5 bc e1 52 aa 3b
       0.021705452 -0.039381865 -0.020185031 0.005197868
0003a0 8b 81 d7 bc 1e 27 67 bc 26 66 e9 3c 9c 49 da bb
       -0.026306888 -0.014108447 0.028491091 -0.006661607
0003b0 1b 50 0c 3d c1 28 d7 bc b2 f9 7d bc 6d f4 fb bb
       0.034256082 -0.02626455 -0.0155014265 -0.00768905
0003c0 e3 92 36 bc e2 7b 90 bb 37 72 b6 bc 56 e9 f1 b9
       -0.011143419 -0.004409299 -0.022271259 -0.0004614095
0003d0 fb 15 4b 3c 8e b2 f8 bb 58 ab 01 bd 8a e2 bf b8
       0.012395377 -0.0075896448 -0.031657547 -9.149786e-05
0003e0 ae 34 d5 bc 67 58 bd 3a 0b 0f 48 ba 70 9d 86 bc
       -0.026026096 0.0014445902 -0.0007631636 -0.016432494
0003f0 c4 fd dc 3c e9 3f 7a 3c e1 aa c2 3c f6 19 3e bc
       0.026976474 0.015274026 0.023763122 -0.011602869

bias f4 [20]
000000 a6 6e 43 bc 4d 50 1c bd fa 1f b6 3c d3 14 62 3c
       -0.011928236 -0.03816252 0.022232044 0.01379891
000010 85 4a 83 3c 49 9a 22 3d 83 fb ed bc 23 d5 90 bd
       0.016026745 0.03969792 -0.029050594 -0.070719026
000020 84 0d e1 bb 8e 74 75 bd 4a 28 03 3d d2 ce 39 3d
       -0.0068680663 -0.05992561 0.032020845 0.045363255
000030 93 6c b6 bc b8 0e 2b 3c 92 2b cf bc d9 13 0b 3d
       -0.02226857 0.010440521 -0.02528933 0.033954475
000040 92 bb 8a 3d 44 af 8c bd dc ed fa 3c 00 65 17 bc
       0.067740574 -0.06869367 0.030630998 -0.009240389

running_mean f4 [20]
000000 b8 00 85 bc 32 e0 14 bd 41 e1 a6 3c fa bc 79 ba
       -0.016235694 -0.03634662 0.020371081 -0.0009526756
000010 d1 10 e8 bb 07 e0 84 3c e7 fc 2d bd 50 06 7b bd
       -0.007082083 0.016220106 -0.042477515 -0.061285317
000020 bc 77 25 bd e8 85 8d bd e5 00 ee 3c 79 5c 00 3d
       -0.04039739 -0.06910306 0.02905316 0.03133819
000030 e6 4b 9d bc e6 44 ad 3b ef bc 18 bc 62 bd e9 3c
       -0.01920123 0.0052877543 -0.009322389 0.028532688
000040 96 6d 96 3d a6 31 7b bd d1 d8 81 3d 63 9b 18 bc
       0.073451206 -0.061326645 0.063401826 -0.009314391

running_var f4 [20]
000000 b8 9f 6d 3e 3e 9a 8b 3d 86 72 3a 3e d8 e2 70 3e
       0.23205459 0.06816529 0.1820775 0.23524034
000010 4f 5c 02 3e f5 8f 19 3e 20 50 25 3e 36 27 e6 3e
       0.12730525 0.14996321 0.16143847 0.4495179
000020 5f 1b 81 3e ed ba 0d 3e 4f 29 92 3d 7e 88 87 3d
       0.25216195 0.13840838 0.07136785 0.06617831
000030 f2 c3 aa 3c e8 1b 3f 3d ee 9b 30 3e 96 9f 80 3d
       0.020845387 0.046657473 0.17246982 0.062804386
000040 85 8b af 3d d8 dc 8e 3e b6 f5 42 3d f1 24 2c 3e
       0.08571533 0.27902865 0.04759761 0.16810967

weight f4 [20]
000000 09 f7 74 3f 21 4b 76 3f 50 c8 7b 3f 73 78 7d 3f
       0.95689446 0.9620839 0.9835253 0.99011916
000010 4b a1 7a 3f 65 49 7c 3f d9 7d 75 3f 78 82 82 3f
       0.97902364 0.9854949 0.95895153 1.0196066
000020 de 8a 7a 3f df 07 7d 3f 4f 54 7d 3f f1 4b 7d 3f
       0.97868145 0.98840135 0.9895677 0.98944
000030 8d 29 7d 3f 72 e3 81 3f 2b 74 7d 3f 60 b6 7a 3f
       0.98891526 1.0147536 0.99005383 0.9793453
000040 f3 37 80 3f 5f 14 7d 3f bc 6a 77 3f 85 71 81 3f
       1.0017074 0.9885921 0.9664724 1.0112768

bias f4 [20]
000000 34 02 bc 3a 11 20 08 3c 37 4a b7 3a d5 dd d7 3a
       0.0014343918 0.0083084265 0.001398391 0.0016469309
000010 2a 84 07 3c 84 98 1f 3b db 3b c7 ba 88 d2 f3 3a
       0.008271256 0.002435238 -0.0015200333 0.0018602172
000020 21 03 61 ba 49 10 83 3a 88 3d 0f 3b 25 e7 88 3b
       -0.0008583535 0.000999936 0.0021856744 0.004177945
000030 94 fa 33 3c 46 a2 95 3b d9 18 85 3a b6 5f 98 ba
       0.010985035 0.0045664636 0.00101545 -0.0011625204
000040 61 c5 a8 3b fc b9 cb 39 1b 5c 15 3c 9f df 73 ba
       0.0051504825 0.00038857746 0.009116198 -0.00093030365

weight f4 [20, 20, 3, 3]
000000 29 fe b7 bb c7 8d d5 3b d5 76 9d bc b7 10 1c 3d
       -0.005615015 0.0065171453 -0.019221703 0.038101878
000010 60 a0 4c bc df 1f 92 3c e5 91 dd bc ec 78 03 bd
       -0.012489408 0.017837463 -0.027047107 -0.032097742
000020 e4 9b 8d 3c 40 5d 77 bb 8e 21 11 bc b9 0f 0c bd
       0.017286249 -0.003774479 -0.008858098 -0.03419468
000030 91 9f 90 bc 3f 23 5d 3c 60 6a 12 3d be 44 1e ba
       -0.017654212 0.013497173 0.03574598 -0.0006037465
000040 1b 93 f8 bb 11 1e 91 bc f5 33 01 3d df c7 c8 bc
       -0.0075858957 -0.017714532 0.03154369 -0.024509368
000050 f3 f5 d3 ba c8 5a ee bc 09 86 54 bc 4c 4b 1b 3d
       -0.0016171321 -0.029096022 -0.01297141 0.037913606
000060 96 ac ee bc c2 34 c7 bc 0a 48 c0 3c 5a e1 47 bc
       -0.02913503 -0.02431715 0.02347185 -0.012199724
000070 0d 7a 18 3d 23 e7 55 3c 4c c7 5b bc d2 ae d5 3b
       0.03722577 0.013055596 -0.013414215 0.0065210843
000080 93 67 5f bb 4f 04 b9 ba bf f8 d6 3c d5 1d d9 3b
       -0.0034088835 -0.0014115664 0.026241658 0.0066258707
000090 6f ce 66 3c 00 90 a0 bc af a7 d9 3b aa a3 95 bc
       0.014087304 -0.019599915 0.006642304 -0.018266518
0000a0 7c fc 85 3c 28 3d 0c 3d e9 10 85 3c cf 40 5e bc
       0.016355745 0.03423801 0.016243415 -0.013565256
0000b0 66 02 3f 3c b6 5e d6 bb 3c 7c 7e 3c 0e d0 ed 3b
       0.011658287 -0.006542052 0.0155325495 0.007257468
0000c0 c8 00 5a 3c c9 4a 89 bc 10 1d fc bc c4 e8 00 bd
       0.01330585 -0.016759293 -0.030775577 -0.031471983
0000d0 ba 00 d1 bb db e8 11 bd 8c 31 17 bb 98 ff 19 3c
       -0.0063782604 -0.03562246 -0.0023070304 0.009399317
0000e0 e8 77 54 bc 37 14 05 3c 06 5b 64 3c be 3c 68 ba
       -0.012968041 0.008122495 0.013937717 -0.0008859149
0000f0 79 56 b8 bc b1 fe 9e 3b f9 91 aa bc 45 22 ab 3c
       -0.02250217 0.004852139 -0.020821558 0.020890364
000100 4d 3c 8e 3c 79 34 17 bd 68 ec 3a bc 25 17 05 3d
       0.017362738 -0.036915276 -0.011408903 0.032492775
000110 d0 44 08 bd f1 c1 b8 3c 2b 74 08 bc 04 70 a8 3c
       -0.03326875 0.022553416 -0.008328478 0.020561226
000120 d8 de 38 3c aa b6 0c 3d 32 fd 26 3c c8 66 be 3c
       0.011283599 0.03435389 0.010192202 0.02324237
000130 3b 31 28 bd 8f 47 52 bc dd d5 c4 bb 02 23 6e 3b
       -0.041062575 -0.012834444 -0.00600694 0.0036336784
000140 65 c2 b4 3b a0 0d 14 bb 23 ed 7e bc 6a ef 9e bc
       0.0055163377 -0.002259113 -0.0155594675 -0.01940127
000150 d5 3a b5 3c 57 a1 82 3c 42 a3 fa bc 00 b0 20 bc
       0.02212278 0.015946073 -0.030595426 -0.009807587
000160 54 df 71 3c 60 57 6c 3c 83 6b d0 3c a6 64 40 3c
       0.014762718 0.014425129 0.02544189 0.011742746
000170 c9 65 10 bc 25 2e 66 3c 3f 59 af bc 25 a1 ef 3c
       -0.00881333 0.014049088 -0.02140486 0.029251644
000180 95 e4 12 3c 8f 7d cd 3b e6 8e c5 bc e3 58 66 bb
       0.008965631 0.0062710713 -0.02411599 -0.0035148195
000190 d4 cb 36 bc 9a 6b 50 3d 25 e8 ec 3c 3a 63 61 3b
       -0.011156995 0.050883867 0.028919289 0.003439142
0001a0 e3 84 88 3b 86 b2 98 bc e5 a4 82 bb 3e 9f a4 3b
       0.004166232 -0.018639814 -0.003986942 0.005023866
0001b0 82 d7 99 3b 90 7f 85 39 dc c3 8c bc 3e a1 b3 b9
       0.00469488 0.00025462778 -0.017183237 -0.00034261675
0001c0 5e 31 f3 bc 69 14 1d 3d 16 1b 0a 3d 9a 11 13 3c
       -0.029686626 0.038349543 0.033717237 0.0089763645
0001d0 0b c0 3f 3c d9 07 cd 3c 73 fd 77 3b 0f 76 2d bc
       0.011703501 0.025028156 0.0037840276 -0.010587229
0001e0 97 69 bd bc 47 3e bd 3c 9a ca 12 bd c6 8f 05 bc
       -0.023121638 0.023100985 -0.035837747 -0.008151954
0001f0 f6 df ba 3b 89 68 c8 3c 64 1b 61 bb a9 ea 9f 3c
       0.0057029678 0.024463909 -0.0034348601 0.019521074
000200 8d d5 0a bd 49 dd ba bb f9 8d 4b bc f5 0a 05 38
       -0.033895064 -0.005702649 -0.012423986 3.1719876e-05
000210 ee 92 aa 3b f6 a8 25 3c 0f 11 62 bc 65 33 50 bc
       0.0052055037 0.010111084 -0.013798012 -0.012707566
000220 cd 77 11 3c fd 12 f7 3c 3e c9 cf bb 28 08 f1 3c
       0.00887866 0.030160422 -0.0063411286 0.029422835
000230 b6 52 9f bb 48 5b e0 bc 02 48 b1 bc 55 65 c7 bc
       -0.004862155 -0.027387276 -0.021640781 -0.024340311
000240 c9 92 09 bc ba 95 b4 bb bf 09 b7 3b b4 b7 34 3c
       -0.008396813 -0.005511013 0.0055858786 0.011030126
000250 84 66 2a bb 75 bb 9c bc aa 11 0c 3d 79 5a 05 3c
       -0.0026001045 -0.019132355 0.034196533 0.008139246
000260 d9 67 1f 3c ec 58 f5 b9 5e be 1c bc 6c 81 79 bc
       0.009729349 -0.00046796293 -0.009566871 -0.0152286105
000270 0a 85 82 bc a6 82 0a bd ae cf 92 bc 67 ec 07 bd
       -0.015932579 -0.033816002 -0.017921295 -0.033184435
000280 24 e1 1a bd c1 ac d3 bb cb d1 cf 3c cf b1 43 bc
       -0.037812367 -0.006459803 0.025368592 -0.011944248
000290 21 9a 71 3c 93 2f 38 3c 56 04 e4 bb bb c8 fe 3c
       0.01474622 0.011241811 -0.0069585247 0.031101575
0002a0 35 47 3a 3d 69 8d 75 bb 9a 22 b5 bc 86 01 26 bd
       0.045478065 -0.003746832 -0.022111226 -0.040528797
0002b0 75 92 de 38 d8 0c 94 bc 13 49 58 bc 87 56 2d 3d
       0.00010613065 -0.01807253 -0.013201016 0.042318847
0002c0 7e 57 94 bc 9d b3 0d bd 35 56 94 bc 78 2a 62 bd
       -0.018108126 -0.03459512 -0.018107513 -0.055216283
0002d0 44 76 ef 3b aa 8c 76 3c 80 a9 4f bc 51 a2 a1 ba
       0.0073077995 0.015048185 -0.012674689 -0.0012331699
0002e0 29 62 22 bc d9 87 54 3b 7b ea 05 bd 56 c9 5d bc
       -0.0099110985 0.0032429604 -0.03269432 -0.013536772
0002f0 7a 51 50 bc dc 53 85 3c 31 8e 98 bc 6c ff 56 bb
       -0.012714738 0.016275339 -0.01862249 -0.0032806052
000300 63 22 7b 3c b2 ae 6c 3c 79 5a fb bc fa 94 2c bc
       0.015328023 0.0144459475 -0.03068279 -0.010533566
000310 1a 75 9b 3c f2 8f 57 bc 87 83 68 3c 35 17 cc bc
       0.018976737 -0.013156878 0.014191515 -0.02491341
000320 0c b7 4b bc a1 37 e9 bc 2e 7f 7b bc 66 eb 0d bc
       -0.0124337785 -0.028468909 -0.015350146 -0.00866208
000330 78 d3 84 3b 54 58 29 bd f9 d5 7d 3c 79 d0 0c bc
       0.0040535294 -0.041344002 0.01549291 -0.008594626
000340 c2 b9 9d 3b ba 6a 56 bc ec cb 01 3c f7 b0 a1 bb
       0.004813404 -0.013086969 0.007922154 -0.004934426
000350 f6 3b 06 3b 89 23 d9 bc ef e6 42 3c 57 16 4e bc
       0.0020482517 -0.026506202 0.011895879 -0.012578568
000360 7a cf ae 3b 97 13 31 3d e2 23 8c bc 2d 99 2f 3c
       0.0053347917 0.043231573 -0.017106954 0.010717672
000370 28 a9 11 3d 32 b3 a2 bc 14 75 07 b9 3a 66 f8 ba
       0.03556171 -0.019860838 -0.00012918218 -0.0018951364
000380 45 5c 27 bd b3 49 1a 3c db 57 c0 3c 65 eb 0e 3d
       -0.04085948 0.009416985 0.023479393 0.03489246
000390 c9 40 2e bc c0 a9 01 3d 98 37 4e 3c db 80 8d 3a
       -0.010635563 0.031656027 0.012586497 0.0010795848
0003a0 96 80 3e 3c c6 0c f0 bc 65 5b 71 bb 7d 94 cf 3c
       0.011627337 -0.029302966 -0.0036828157 0.02533936
0003b0 8a 9f fe bb 7d ff 88 3c 90 bf a2 bb b1 65 c8 bb
       -0.0077704834 0.016723389 -0.0049666837 -0.006115638
0003c0 67 5c 23 bd 53 f8 01 bd fc 0b d4 bc ed 1c 16 bc
       -0.039883044 -0.03173096 -0.02588462 -0.00916217
0003d0 9a 01 a9 3c df fd 12 bd 93 fb af 3c 67 be 1f bc
       0.020630646 -0.03588664 0.021482265 -0.009749985
0003e0 45 f5 29 3c b5 6c 83 3c ed 84 e2 3b 2a ce f8 bc
       0.010373418 0.016043046 0.0069128186 -0.030371744
0003f0 e7 11 92 bc 32 8e 2a bd e1 11 28 bd 70 67 e2 ba
       -0.017830802 -0.041639514 -0.041032676 -0.0017273258

bias f4 [20]
000000 82 27 2e bd 1e a9 96 3d bb f6 42 3c bd aa 40 3d
       -0.042518146 0.07356475 0.011899645 0.04703783
000010 7e 4f 84 bd ba 0c 8a 3d e3 6d 59 bc e5 0a 38 bd
       -0.064604744 0.06740709 -0.013270828 -0.044932265
000020 1a 23 d3 bc 5b 45 1d bd 2a 4c 44 3a 41 3f 12 3b
       -0.025773574 -0.03839622 0.0007488156 0.0022315534
000030 7b e7 35 bd 83 4c 3c 3a b6 a2 14 bd 5e 8f 73 3c
       -0.04441021 0.0007183032 -0.036287986 0.014865724
000040 fb 6a 28 3d 15 03 0b bd 88 15 6e bd 32 af f1 3c
       0.04111765 -0.033938486 -0.058126003 0.029502485

running_mean f4 [20]
000000 50 5e a3 bd 4b 8b 03 bd 6a bc 83 bd 66 a9 2e 3e
       -0.07976973 -0.032115262 -0.064324215 0.17056808
000010 6d 8e 09 be f5 e0 3a bc 88 4e a1 bd c0 07 97 bd
       -0.13433237 -0.011406173 -0.07876307 -0.07374525
000020 09 83 44 3d 23 b3 86 3d 70 e7 3f bd 7b cf 31 3d
       0.047976527 0.06577136 -0.046851575 0.04341076
000030 5f eb 48 3c e7 37 54 3d cc 32 dc bd e7 ba 81 3c
       0.012263148 0.051811125 -0.10751876 0.015836192
000040 0c ec 97 3c a5 30 13 3d 10 f5 48 3d ef c2 e7 3d
       0.018545173 0.035935063 0.049061835 0.113164775

running_var f4 [20]
000000 00 a0 ac 3d 0f 0e 4e 3c c7 1d b0 3c 1e c9 46 3c
       0.08428955 0.012576594 0.021498574 0.012132911
000010 55 0f 81 3c 1b f2 38 3d bc 69 4e 3c b6 81 87 3d
       0.015754381 0.045152765 0.012598451 0.06616537
000020 9e 4f c8 3c 5a 32 32 3d 9c cc 86 3d 97 b7 01 3c
       0.024452027 0.04350505 0.06581995 0.007917306
000030 18 f2 cf 3c bb 96 a9 3d aa bb 18 3d 53 17 7a 3d
       0.025383994 0.08280703 0.037288345 0.0610574
000040 a6 1f a0 3c 73 85 9f 3d 62 b0 d3 3c da ab 1d 3e
       0.019546341 0.07789125 0.025840942 0.15397587

weight f4 [20]
000000 88 c7 80 3f 87 8f 80 3f e2 92 7a 3f 0a bb 81 3f
       1.0060892 1.0043801 0.97880375 1.0135205
000010 56 e0 75 3f f6 4e 81 3f 5d 79 74 3f c6 90 83 3f
       0.96045434 1.0102222 0.95497686 1.0278556
000020 5f 83 82 3f 99 f7 6e 3f b7 70 80 3f dc f4 82 3f
       1.0196341 0.93346554 1.0034398 1.0230975
000030 12 5d 7e 3f 2d ba 7a 3f 85 ce 81 3f 33 3a 82 3f
       0.99360764 0.9794033 1.014115 1.0174011
000040 12 44 80 3f e3 f4 81 3f 1e 81 7e 3f a2 50 7d 3f
       1.0020773 1.0152858 0.9941577 0.9895116

bias f4 [20]
000000 24 46 15 bb 05 8d bd 3b 45 61 60 bc ba 9c 2c bb
       -0.0022777403 0.005784633 -0.013695066 -0.0026338533
000010 53 42 ea 3b e9 03 94 bb e5 90 b2 bb 2c 98 35 3c
       0.0071490197 -0.0045170677 -0.0054494017 0.011083644
000020 1b 2a 08 3c 5b b9 6d bb 86 ac 00 bb 6c c1 d1 3b
       0.00831082 -0.003627381 -0.0019634082 0.0064012315
000030 c0 22 f2 3b ee 10 11 3b c8 54 18 ba 72 82 d6 3b
       0.0073893964 0.0022135335 -0.0005810973 0.006546312
000040 01 f5 e1 3a 14 de 04 3c b1 8c ad 3a 99 4f 90 bb
       0.0017239155 0.008109588 0.0013240782 -0.00440402
