Generator.pt (torch_old, 616401 bytes, 203 tensors)

weight f4 [20, 1, 9, 9]
0	0xbcc7ed1d	-0.024405057
1	0xbc09f53f	-0.008420288
2	0x3b1a681a	0.0023560585
3	0xba26c9eb	-0.00063624856
4	0x3caa3064	0.020775028
5	0xbc0344ff	-0.008012055
6	0xbbb1c32e	-0.0054248786
7	0xbadc3482	-0.0016800317
8	0xbd08918e	-0.033341937
9	0x3cebddc9	0.028792279
10	0xbcfe053b	-0.031008353
11	0xbc62a4ee	-0.013833268
12	0xbca1561c	-0.01969438
13	0xbcac19c5	-0.021008382
14	0x3c8785c2	0.016543273
15	0x3b55f196	0.0032645217
16	0xba9f15c9	-0.001213723
17	0xbc5df5bf	-0.01354736
18	0xbc584883	-0.013200882
19	0x3c47c8d6	0.012193879
20	0xbcf1de46	-0.029524934
21	0x3c050b1f	0.008120327
22	0x3bfb6844	0.0076723415
23	0x3c85a152	0.016312275
24	0x3b8ca7f1	0.004292481
25	0x3c214129	0.009842196
26	0x3b92e2c7	0.0044826004
27	0xbc9616db	-0.018321445
28	0x3b895512	0.0041910494
29	0x3ca410c6	0.02002753
30	0xbc824699	-0.015902804
31	0x3ccae333	0.02476654
32	0xbcd357f9	-0.025798785
33	0x3cefa2ad	0.029252375
34	0xbcdd2c9d	-0.026998812
35	0xba9e6b17	-0.0012086359
36	0x3c476d1a	0.012172008
37	0x3b7f44b4	0.0038950862
38	0xbcaa4b3f	-0.020787833
39	0x3cf3564d	0.029704237
40	0xba601bbe	-0.0008549056
41	0xbc500fe9	-0.012699106
42	0xbb6e9d43	-0.0036409653
43	0x3ce8f690	0.028437883
44	0xbd0cf5da	-0.03441415
45	0xbcaa0bc6	-0.020757567
46	0xbcb2ae0e	-0.021811511
47	0xbc629d24	-0.013831411
48	0xbbd86daa	-0.00660487
49	0x3cdb0e9a	0.026740361
50	0x3c55c355	0.013047059
51	0xbc6374c1	-0.013882817
52	0x3c911463	0.017709916
53	0x3b7fadf2	0.0039013592
54	0x3c3169cc	0.010828447
55	0x3cff6c70	0.031179637
56	0xbbbc6ec2	-0.005750508
57	0x3b9afcfd	0.0047298656
58	0x3be9b774	0.007132465
59	0x3b3d21f7	0.0028859356
60	0xbbe7f4c0	-0.007078737
61	0x3c1987b2	0.009370731
62	0xbc419bb2	-0.011816906
63	0xbc2351aa	-0.009968201
64	0xbba4c9fd	-0.0050289617
65	0xbc1ca6e2	-0.009561272
66	0xbc5daedc	-0.013530459
67	0x3c4e8007	0.012603766
68	0x3c0a3a99	0.008436822
69	0xbc15dd84	-0.009147052
70	0x3c45ceba	0.012073213
71	0xbc57d2c9	-0.013172814
72	0xbc583a90	-0.013197556
73	0xbbb4265d	-0.0054977373
74	0xbc9fd8fc	-0.019512646
75	0xbcb42259	-0.021989034
76	0xbce4371b	-0.027858308
77	0x3d45ea8e	0.048319392
78	0xbd272625	-0.04080786
79	0xbb721516	-0.0036938838
80	0xbc8cc801	-0.017185213
81	0xbc3b79d0	-0.011442617
82	0x3d8ae11b	0.06781217
83	0xbbad91d3	-0.0052969246
84	0x3ce19d33	0.027540779
85	0xb9faf5bd	-0.00047866805
86	0x3c4a4616	0.012345811
87	0xbca675b1	-0.020319792
88	0x3c425c60	0.011862844
89	0x3d35ddb9	0.044400904
90	0x3cfe2fad	0.031028593
91	0x3b21623d	0.0024625205
92	0xbc978963	-0.018498128
93	0x3bcdaab4	0.006276453
94	0xbcb9ac7b	-0.022665253
95	0xbc133ea4	-0.008987103
96	0x3bf8ae64	0.0075891484
97	0x3c1f48b2	0.009721922
98	0xbc3d3760	-0.011548847
99	0xbb3cbd56	-0.0028799376
100	0xbc0d31e9	-0.008617857
101	0x3b64f9a2	0.0034938832
102	0x3c925366	0.017862033
103	0xbc92e0a5	-0.017929384
104	0x3c0e35b9	0.008679801
105	0xbcbbe60f	-0.022936849
106	0xbce2e09c	-0.027694993
107	0xbb15e4b7	-0.002287192
108	0xbc8d2040	-0.017227292
109	0xbd50f7f0	-0.0510177
110	0x3c5af0d3	0.013363081
111	0xbd55368f	-0.052053984
112	0xbd5f7d45	-0.054562826
113	0xbd127dd6	-0.035764538
114	0xbc0e8311	-0.008698241
115	0x3b9b9ab1	0.0047486653
116	0x3c91698b	0.017750522
117	0xbd1394e9	-0.036030684
118	0xbc9ccda1	-0.01914102
119	0xbca3ff4a	-0.020019192
120	0xbce64c56	-0.028112572
121	0x3b76cdce	0.003765929
122	0xbce2be46	-0.02767862
123	0x3cc5119a	0.024056245
124	0x3c62276f	0.013803347
125	0x3cc5a064	0.024124332
126	0x3ca7883c	0.020450704
127	0xbc17751c	-0.00924423
128	0xbd5c83a2	-0.053836472
129	0xba87f0c5	-0.0010371438
130	0xbb1398ba	-0.0022521452
131	0x3c2ddc0f	0.010611548
132	0x3c9e29cb	0.019307038
133	0xbced58a9	-0.02897294
134	0x3c6fefcc	0.014644574
135	0x3d4a1196	0.049333178
136	0x3ba94083	0.005165161
137	0xbbb9f500	-0.005674958
138	0xbb84de84	-0.0040548462
139	0x3b165dac	0.0022944016
140	0xbc066833	-0.008203554
141	0xbb05a4d8	-0.0020392444
142	0x3beebad9	0.0072854576
143	0x3c8b57a7	0.01700957
144	0xbd82e86d	-0.06391988
145	0x3c4b6ebd	0.012416539
146	0xbbf4e599	-0.0074736592
147	0x3c34091f	0.010988503
148	0xbd215f92	-0.039397784
149	0x3adf5219	0.0017038017
150	0xba44f55e	-0.0007513369
151	0xbd062cf7	-0.032757726
152	0xbcbead4b	-0.023275992
153	0x3c6f6e91	0.014613763
154	0x3c0803aa	0.008301655
155	0x3c8bf5cf	0.017084984
156	0x3c719466	0.014744854
157	0xbcd37b11	-0.025815519
158	0x3a96c367	0.0011502326
159	0x3cb923b0	0.022600025
160	0xbcd06877	-0.025440438
161	0xbcdfa1fe	-0.027298924
162	0x3c4fed1e	0.0126908105
163	0x3a51db32	0.000800538
164	0x3c833463	0.01601619
165	0xbc91f0bf	-0.017814992
166	0xbb2ee255	-0.0026685197
167	0xbd1a6d37	-0.03770181
168	0xbbbf7e86	-0.00584394
169	0x3c11f8aa	0.008909384
170	0xbc5e24ca	-0.013558576
171	0xbcf78c60	-0.030218303
172	0x3c2deefa	0.0106160585
173	0x3c4e10ef	0.0125772795
174	0xbc801d3e	-0.015638944
175	0xbaa25003	-0.0012383464
176	0x3c41b0f8	0.011821978
177	0xbc40569a	-0.011739397
178	0xbcecf73a	-0.02892648
179	0x3cc8eacb	0.02452602
180	0xbb8bc560	-0.0042654723
181	0x3c9f901a	0.019477893
182	0xbc61b6c0	-0.013776481
183	0xbb5d86de	-0.003380231
184	0x3b53a254	0.00322928
185	0x3ae9c459	0.0017835005
186	0x3c8e4ed6	0.017371576
187	0x3b70fbe6	0.0036771237
188	0x3d1c4549	0.038152013
189	0xbba97fcd	-0.0051727057
190	0xbcbe308f	-0.023216514
191	0xbc59d75c	-0.013295975
192	0xbbedd1ae	-0.007257662
193	0xbbb8978b	-0.0056332997
194	0xbb829e50	-0.0039861575
195	0x3cc13996	0.02358703
196	0xbc317ba9	-0.010832706
197	0xbcf43b8e	-0.029813554
198	0xbb99017c	-0.0046693664
199	0xbafbfe19	-0.0019225507
200	0xbadb1730	-0.0016715284
201	0xbca9bdc0	-0.020720363
202	0xba31f6b6	-0.0006788777
203	0x3c4562a2	0.012047442
204	0x3c474221	0.012161762
205	0x3cbe5bba	0.023237098
206	0xbc0a392b	-0.0084364815
207	0x3bdc6d60	0.0067269057
208	0xb9f56aa8	-0.00046809507
209	0x3c24a177	0.010048262
210	0x3d027d17	0.031857576
211	0x3c48bd5d	0.012252179
212	0x3c42c5a4	0.0118879415
213	0xbc1d3d0e	-0.009597076
214	0x3ca89cbc	0.02058255
215	0xbbf444f0	-0.007454507
216	0x3c2a4359	0.0103920335
217	0xba957d4a	-0.0011405137
218	0xb7af5c5d	-2.0904636e-05
219	0xbc63c4f7	-0.013901941
220	0x3d03d768	0.03218785
221	0xbaeb004f	-0.0017929169
222	0xbd16ab25	-0.03678431
223	0xbce96ec5	-0.028495202
224	0x3c8fe2c7	0.01756419
225	0xb7d9fc23	-2.5985826e-05
226	0xbc56c17f	-0.0131076565
227	0x3b376651	0.002798457
228	0xbcd50ab8	-0.026006088
229	0x3a4b588e	0.0007757031
230	0xbcc8b1fb	-0.02449893
231	0xbbfcd02d	-0.007715246
232	0xbcc5f014	-0.02416233
233	0xbb282701	-0.0025658014
234	0xbcb29efd	-0.021804327
235	0x3cd3e5c1	0.025866391
236	0xbc973f71	-0.018462868
237	0x3c7d633c	0.015465554
238	0xbd3a0c7d	-0.045422066
239	0xbd029281	-0.031878
240	0xbce0496b	-0.027378758
241	0x3b75d8e1	0.0037513303
242	0xbc4d7fc8	-0.012542672
243	0x3b85f216	0.004087697
244	0xbbeb01e2	-0.0071718553
245	0xbb8c71f2	-0.0042860443
246	0xbb9a9cd6	-0.0047184033
247	0xbc301447	-0.010747022
248	0x3cc1a72d	0.023639286
249	0xbc7a456d	-0.015275341
250	0xbcbafc98	-0.022825524
251	0xbcce1363	-0.025155729
252	0xbd1af8d3	-0.037834954
253	0x3cb9897c	0.022648565
254	0xbcf59a2d	-0.029980743
255	0xbd56171d	-0.052268136

bias f4 [20]
0	0x3931ef3a	0.00016969154
1	0xbdca2bf7	-0.09871667
2	0xbdaa8035	-0.08325235
3	0x3dcaefb2	0.099089995
4	0x3db153e1	0.08658577
5	0x3d6d0320	0.05786431
6	0x3da7939d	0.08182452
7	0x3d3f71c2	0.046739347
8	0x3d727850	0.05919677
9	0x3d8f7a84	0.0700579
10	0xbcd3acb9	-0.025839197
11	0xbc7bed9e	-0.015376477
12	0x3da2c671	0.07948006
13	0x3ada65b0	0.0016662385
14	0xbd98571b	-0.07438489
15	0xbdb03372	-0.086035624
16	0x3d87e4e7	0.066354565
17	0x3dc95d45	0.09832243
18	0x3da79f78	0.08184713
19	0x3cd561ee	0.026047673

weight f4 [20, 20, 3, 3]
0	0xbbf3ec8f	-0.0074439715
1	0x3a8c448f	0.0010701584
2	0xbc279be1	-0.0102300355
3	0xba55085d	-0.00081265514
4	0x3c1c668a	0.009545932
5	0x3cf7cd1a	0.030249167
6	0xbccb8467	-0.024843408
7	0x3c9edbfa	0.019392002
8	0xbce88709	-0.028384702
9	0x3b7ce307	0.0038587467
10	0x3cf6014d	0.030029917
11	0x3d362010	0.04446417
12	0xbbfbd8b9	-0.0076857475
13	0x3bc26c0d	0.005933291
14	0x3bbc44a9	0.0057454896
15	0x3d481bb5	0.04885455
16	0xbc347677	-0.011014572
17	0x3bbc0ebc	0.005739061
18	0xbcbd5075	-0.023109654
19	0x3d0bff07	0.03417876
20	0xbc119906	-0.008886581
21	0x3aa4de0d	0.0012578383
22	0x3bf81158	0.007570427
23	0xbcb15fc7	-0.021652116
24	0xbbc3e5c5	-0.0059783184
25	0x3ba09974	0.0049011055
26	0xbcde2e3f	-0.027121661
27	0xbd2027bd	-0.039100397
28	0x3c3c6916	0.011499664
29	0x3cb00b74	0.021489836
30	0x39f7a3ac	0.00047233456
31	0xbb8513d7	-0.004061203
32	0x3cbb12dc	0.022836141
33	0xbc486c63	-0.012232873
34	0x3bf2dc95	0.0074115493
35	0xbc822ec3	-0.015891438
36	0xbbc33a0a	-0.0059578465
37	0xbc13f478	-0.009030454
38	0xbcfb578b	-0.030681392
39	0x3c88a8db	0.016682079
40	0xbab9d362	-0.0014177377
41	0x3c2d7272	0.010586368
42	0xbd0c86d4	-0.03430827
43	0xbcc89b8e	-0.024488237
44	0x3cdc93c6	0.026925933
45	0x3cde4b5e	0.027135547
46	0xbd095dbd	-0.03353666
47	0xbaa7d96b	-0.0012805884
48	0x3c8f59d3	0.017498886
49	0x3cc2fe32	0.02380285
50	0xbcc7a44e	-0.024370339
51	0x3cb37a03	0.021908766
52	0xbd3aa2c2	-0.045565374
53	0xbccc77cd	-0.02495947
54	0x3ae6cf3b	0.0017609367
55	0xbc242f26	-0.010021007
56	0xba260d16	-0.00063343474
57	0x3c406c93	0.011744636
58	0x3a6c7b76	0.00090210827
59	0x3cc08315	0.023500005
60	0x3c6e01dd	0.014526811
61	0xbbd2db68	-0.0064348467
62	0xbbe6b88b	-0.007041042
63	0xbccf70d3	-0.025322353
64	0x3c3c8c86	0.011508113
65	0x3c9dced2	0.019263659
66	0xbccf6c74	-0.02532027
67	0x3ab82211	0.0014048239
68	0x3d03b52c	0.0321552
69	0x3cb5a100	0.022171497
70	0xbc508b2c	-0.012728494
71	0xbcdbcff8	-0.026832566
72	0x3b84ae32	0.004049086
73	0xbba5d9cb	-0.0050613633
74	0x3cfb90b8	0.030708656
75	0x3b82eac2	0.0039952705
76	0xbc94f64c	-0.01818385
77	0x3c188c81	0.0093108425
78	0x3c91f65a	0.017817665
79	0xbc9b4c93	-0.018957412
80	0xbbe89133	-0.007097387
81	0x3c1cbc79	0.00956642
82	0x3cc18941	0.023625018
83	0x3d515c03	0.05111314
84	0x3ca818b3	0.02051959
85	0xbc104673	-0.008805859
86	0xbbcb5976	-0.006205733
87	0xbc8333bf	-0.016015885
88	0x3ae6cf7a	0.001760944
89	0xbbcd7c35	-0.00627091
90	0x3c0f4e41	0.0087466845
91	0xbc8caebe	-0.017173167
92	0xbd0ee773	-0.034888696
93	0x3abb48c0	0.0014288649
94	0xbcb4e942	-0.022083882
95	0xbc69bcdd	-0.01426622
96	0x3bc85701	0.0061138873
97	0x3c8e388f	0.017360954
98	0x3cf38bc0	0.029729724
99	0x3cae407e	0.021270987
100	0xbcaa0af5	-0.020757178
101	0x3ccc87ca	0.024967093
102	0x3c9fbb54	0.019498505
103	0x3c88f060	0.016716182
104	0x3c612481	0.013741613
105	0x3c9e2d8f	0.019308833
106	0xbcf74023	-0.03018195
107	0xbcb90978	-0.022587523
108	0x3b3a1c45	0.0028398198
109	0x39f467a7	0.00046616534
110	0xbccb4070	-0.024811
111	0xbcc2cba4	-0.023778744
112	0xbc3f8e51	-0.011691646
113	0xbb80c224	-0.0039293934
114	0xbbd7144d	-0.0065636993
115	0xbc003f42	-0.007827582
116	0xbc942cb2	-0.018087719
117	0x3d5c6962	0.05381144
118	0xbc00b6c5	-0.007856076
119	0xbd26688d	-0.04062705
120	0xbc1f55d7	-0.009725056
121	0xbc84cf5e	-0.016212162
122	0x3bf535d6	0.0074832244
123	0xbc0fbdea	-0.008773306
124	0x3b679481	0.0035336318
125	0xbc83ecc3	-0.016104108
126	0x3cbb33b7	0.022851808
127	0xbc640b21	-0.013918669
128	0xbbcb2187	-0.006199065
129	0xbc877a2e	-0.016537752
130	0x3c34f520	0.0110447705
131	0x3a2b1888	0.0006526788
132	0x3c1b7395	0.009488006
133	0x3c2b28a0	0.0104466975
134	0x3ca43a0f	0.020047216
135	0x3cf3e68c	0.02977302
136	0xbc46a4f1	-0.012124286
137	0xbcc24631	-0.02371511
138	0xba438727	-0.0007458799
139	0xbc294514	-0.010331411
140	0xbcf36fb1	-0.029716345
141	0x3cafb21c	0.021447234
142	0x3c39c638	0.011338763
143	0x3d21fd3e	0.03954815
144	0x3ca522fe	0.020158287
145	0x3c38565d	0.011251059
146	0xbbc7d063	-0.0060978397
147	0x3ba031aa	0.004888733
148	0x3c6bd644	0.014394347
149	0x3d1a8777	0.037726846
150	0xbc8c9e96	-0.017165463
151	0xbd0cfd1e	-0.03442108
152	0xbcc9972b	-0.024608215
153	0xbab1174a	-0.0013510969
154	0xbc5d84ca	-0.013520429
155	0x3d2fddb1	0.04293603
156	0x3c48b5c4	0.012250368
157	0xbc8723e3	-0.016496604
158	0x3a96aad3	0.0011495001
159	0x3acf0109	0.0015793155
160	0xbc5008cc	-0.01269741
161	0xbc956048	-0.018234387
162	0x3c5244a3	0.012833747
163	0xbaffdca1	-0.0019520709
164	0x3c575862	0.013143631
165	0x3c8db9ce	0.017300513
166	0xbb696e50	-0.003561873
167	0xbb84aa0c	-0.0040485915
168	0x3bdf6cf6	0.006818409
169	0xbc2a6c9e	-0.010401873
170	0x3cc6cf13	0.024268663
171	0xbcab47a9	-0.020908194
172	0x3a5d3d87	0.0008439649
173	0xbc7fb85e	-0.015607921
174	0xbd09d216	-0.03364762
175	0xbcc49822	-0.023998324
176	0xbd3ae17a	-0.045625187
177	0x3be9ee97	0.007139038
178	0xbc65d8d4	-0.014028747
179	0x3c2eb27c	0.010662671
180	0xbb9d8949	-0.0048076254
181	0xbc314dcc	-0.010821771
182	0x3c0d00c3	0.008606139
183	0x3d086450	0.03329879
184	0xbb9be943	-0.0047580316
185	0x3c4ff159	0.012691819
186	0xbc8b3c60	-0.016996562
187	0x3ccd7e54	0.025084652
188	0x399e63b4	0.00030210393
189	0xbc33189f	-0.010931163
190	0x3d0404ff	0.032231327
191	0x3c0652ed	0.008198482
192	0xbc8fd638	-0.017558202
193	0xbcbc5db6	-0.022993904
194	0xbd06f3ac	-0.032947227
195	0xbbe68888	-0.0070353188
196	0x3c65c7eb	0.014024715
197	0x3bb3f5c7	0.0054919454
198	0xbca8a994	-0.020588674
199	0x3c8edeb1	0.017440172
200	0xbc7def3d	-0.015498933
201	0x3d425384	0.047442928
202	0xbcd0bd69	-0.025480943
203	0x3c6e5a23	0.014547857
204	0xbc1689b9	-0.009188109
205	0x3c955e96	0.018233579
206	0xbc0b2bdd	-0.008494345
207	0xbb96a123	-0.0045968457
208	0x3bf5059c	0.0074774753
209	0x3cbc14cc	0.022959135
210	0x3ba002f6	0.0048831655
211	0xbb950bb2	-0.0045485133
212	0x3ca48233	0.020081615
213	0xbcb761a4	-0.022385426
214	0xbbfa91cb	-0.0076467744
215	0x3bbf8515	0.005844722
216	0x398b2dc7	0.00026546253
217	0x3c72cb2e	0.01481895
218	0xbd231799	-0.039817426
219	0x3bacbbb0	0.0052713975
220	0xbc948cf3	-0.018133616
221	0xbb71986f	-0.003686454
222	0x3bd359d5	0.006449918
223	0xbcdad8f1	-0.026714774
224	0xbd4b8881	-0.049690727
225	0x3ce3c971	0.027806016
226	0x3c413dab	0.011794488
227	0xbd2154eb	-0.039387625
228	0x3c0a9a0e	0.008459581
229	0xbaf20550	-0.0018464718
230	0x3ceb01c2	0.028687362
231	0xbc8b8a55	-0.017033735
232	0x3bd81a01	0.006594897
233	0x3cac34b3	0.021021223
234	0xbc98e224	-0.01866252
235	0xbbe96c97	-0.0071235406
236	0x3c22d2f3	0.0099379895
237	0xbc7ed4b2	-0.01555364
238	0x3bb85c47	0.0056262347
239	0x3cab4094	0.020904817
240	0xbcce67f3	-0.025196051
241	0xbb315262	-0.002705716
242	0x3ba36dd4	0.0049874578
243	0xbc097ccc	-0.00839157
244	0x3c6b9794	0.014379401
245	0x3ce08892	0.027408872
246	0x3c956934	0.018238641
247	0xbcb61c34	-0.022230245
248	0xbcbb2922	-0.022846762
249	0x3c670617	0.014100573
250	0xbcddf628	-0.027094916
251	0xbc1df33a	-0.009640509
252	0x3c8717e3	0.016490882
253	0x3af7799f	0.001888085
254	0x3c53e5ce	0.012933208
255	0xbcc40fde	-0.023933347

bias f4 [20]
0	0x3cd3c4fe	0.02585077
1	0xbd4f2f3f	-0.050582167
2	0x3bd272e2	0.0064223865
3	0x3cab3dea	0.020903546
4	0x3d875716	0.06608407
5	0xbd2ab31d	-0.041674722
6	0xbd2c4820	-0.04206097
7	0xbd1965d9	-0.037450645
8	0xbd95963e	-0.07304047
9	0x3c777d65	0.01510558
10	0xbd7b6e13	-0.06138427
11	0xbca5569b	-0.020182898
12	0xbd089395	-0.03334387
13	0x3b7f05ce	0.0038913372
14	0x3cb8d981	0.022564651
15	0xbd5c4388	-0.05377534
16	0xbcb5b8ce	-0.022182848
17	0xbbe9b3a6	-0.0071320115
18	0xbd2f02b6	-0.042727195
19	0x3c8a98e3	0.016918605

weight f4 [20]
0	0x3f826e40	1.0189896
1	0x3f820c70	1.0160046
2	0x3f796053	0.97412604
3	0x3f8354dd	1.0260273
4	0x3f7effaa	0.9960886
5	0x3f825dd8	1.0184889
6	0x3f790717	0.97276443
7	0x3f7c7464	0.986151
8	0x3f7b8fee	0.98266494
9	0x3f81e68d	1.0148484
10	0x3f8063a8	1.0030413
11	0x3f850c68	1.0394411
12	0x3f7f72f6	0.9978479
13	0x3f7f9db7	0.9985003
14	0x3f762050	0.96143055
15	0x3f80249d	1.0011173
16	0x3f81c3a0	1.0137825
17	0x3f7d2abf	0.9889335
18	0x3f7fc8ff	0.9991607
19	0x3f7df893	0.9920742

bias f4 [20]
0	0xb998672d	-0.0002906857
1	0xba838dfc	-0.0010036821
2	0x3a637cc3	0.0008677954
3	0x392f96ab	0.00016745429
4	0x392ef7ce	0.00016686248
5	0x3ac2b375	0.0014854508
6	0x3a096835	0.00052416633
7	0xbac2c906	-0.0014860935
8	0x3b1d2381	0.002397746
9	0x3a2bdbf7	0.00065559096
10	0x3b7ad683	0.0038274832
11	0x3a9185bc	0.0011102478
12	0x3b8b3f31	0.0042494764
13	0x3b87adc0	0.0041405857
14	0x3ade8cc6	0.001697921
15	0x3a95b6b7	0.0011422251
16	0x3b0762dd	0.0020658292
17	0x3ad02906	0.0015881367
18	0xbb009cc4	-0.001962469
19	0xba0dc274	-0.0005407699

running_mean f4 [20]
0	0xba497959	-0.0007685624
1	0xbd957878	-0.07298368
2	0x3c12a9c2	0.008951606
3	0x3befa085	0.0073128366
4	0x3d91681e	0.07099937
5	0xbd2bc59f	-0.041936513
6	0xbd477072	-0.04869122
7	0xbd483d6f	-0.048886713
8	0xbdb68d46	-0.089136645
9	0x3ceaa11d	0.028641278
10	0xbd82459d	-0.06360934
11	0xbbf4fb08	-0.0074762143
12	0xbc92ed59	-0.017935442
13	0x3c693411	0.014233605
14	0x3c33d647	0.010976381
15	0xbda18bea	-0.078880146
16	0xbd2d2bc4	-0.042278066
17	0xbb96d76c	-0.004603317
18	0xbd2dca2e	-0.04242914
19	0x3cafc461	0.021455945

running_var f4 [20]
0	0x39687724	0.00022169627
1	0x394994e1	0.00019224315
2	0x38afe2c3	8.386888e-05
3	0x38e690d8	0.00010994234
4	0x38315515	4.2279327e-05
5	0x3922fec6	0.00015544434
6	0x38b6b98f	8.712999e-05
7	0x38d9c0e1	0.00010383293
8	0x3915d78e	0.00014290048
9	0x399bb11b	0.00029695858
10	0x377b61fe	1.4983581e-05
11	0x39700b5e	0.00022892418
12	0x3939171e	0.00017651587
13	0x37927676	1.7459719e-05
14	0x3765f78c	1.37071e-05
15	0x39b9fac3	0.00035472782
16	0x395fb5f2	0.00021334717
17	0x387759be	5.8972968e-05
18	0x39293e33	0.00016140267
19	0x374f4d57	1.2356169e-05

weight f4 [20, 20, 3, 3]
0	0xbb4eab87	-0.0031535344
1	0xbc607e76	-0.013702026
2	0x3c8df011	0.017326387
3	0xbc2470dd	-0.010036674
4	0x3c281e63	0.010261151
5	0xbcfe0b29	-0.031011181
6	0x3ae26712	0.0017273149
7	0xbbf740d8	-0.007545572
8	0x3bcdd19e	0.006281092
9	0xbb9ac9d4	-0.004723767
10	0xbcdd68d9	-0.027027534
11	0xbc544866	-0.012956714
12	0x3b38fa52	0.0028225374
13	0xbd0095ac	-0.03139274
14	0xbc7e31ef	-0.015514835
15	0xbbe573f0	-0.007002346
16	0x3c7ab896	0.015302798
17	0xbc8d7258	-0.017266437
18	0x3c9772df	0.018487392
19	0xbc329762	-0.01090035
20	0xbcac987d	-0.021068806
21	0x3cd3f01b	0.025871327
22	0xbb4bf82a	-0.003112326
23	0x3cb61c8b	0.022230407
24	0xbd26db91	-0.04073674
25	0x3ce576b1	0.028010698
26	0xbd255e79	-0.0403733
27	0x3c15daba	0.009146387
28	0xbc6ede15	-0.014579316
29	0xbc174af9	-0.0092341835
30	0x3c98eaac	0.018666588
31	0x3b953afa	0.0045541497
32	0x3cce55a8	0.025187328
33	0xbac3d8e1	-0.0014941954
34	0xbb57a4fc	-0.0032904735
35	0xbcc581c4	-0.024109729
36	0xbc5c60f0	-0.013450846
37	0xbb860e0d	-0.0040910305
38	0x3d57f211	0.052721087
39	0x3b9dd4f3	0.0048166453
40	0x3d24c6c4	0.04022862
41	0x3bb17834	0.0054159407
42	0xbc070c38	-0.008242659
43	0xbc3e6772	-0.011621343
44	0x3be67926	0.007033485
45	0xbb7c1ab0	-0.0038468055
46	0x3b8c103a	0.0042743953
47	0x3cd325f8	0.02577494
48	0x3d014fa2	0.031570084
49	0xbc51156b	-0.012761454
50	0xbcb3610e	-0.021896865
51	0x3c9296c8	0.017894164
52	0x3c51e9b3	0.012812066
53	0xbafd90d0	-0.0019345526
54	0xbbc4878d	-0.005997604
55	0xbbc0ec8d	-0.005887574
56	0x3b8ccded	0.004297009
57	0x3c874f6c	0.016517363
58	0x3c24e15d	0.010063496
59	0x3b473ad0	0.0030400045
60	0xbb47fe3e	-0.003051653
61	0xbc0a4f83	-0.008441809
62	0x3bbfe892	0.005856582
63	0x3b5d064f	0.0033725684
64	0x3cae9190	0.021309644
65	0xbc8016f9	-0.015635954
66	0xbb9b4314	-0.004738221
67	0x3c813482	0.015772108
68	0xbabe93a2	-0.0014539848
69	0x3c913b19	0.017728375
70	0x3c5f152b	0.013615887
71	0x3c65abc9	0.014018008
72	0x3c0984ba	0.008393461
73	0x3bfde326	0.0077480255
74	0x3d4ab282	0.049486645
75	0x3be5ee30	0.0070169196
76	0x3bcd5485	0.006266179
77	0xbc365369	-0.011128285
78	0xbafa037d	-0.0019074526
79	0xbcaacf51	-0.02085081
80	0xbae9714f	-0.0017810258
81	0xbc3d4622	-0.0115523655
82	0xbc11b764	-0.008893821
83	0xbc934b11	-0.01798013
84	0x3c938571	0.018007966
85	0xbc91ac26	-0.017782282
86	0xbc9ae681	-0.018908741
87	0xbca1fe6c	-0.019774638
88	0xbc18cff1	-0.009326921
89	0xbb92978c	-0.004473632
90	0x3c460ee0	0.012088507
91	0xbb6dcaae	-0.0036284137
92	0x3ba4e239	0.0050318507
93	0xba9aea23	-0.0011819046
94	0xbc561461	-0.013066382
95	0x3c921489	0.017832058
96	0x3c1d633a	0.009606177
97	0xbccc2c6b	-0.024923524
98	0xba1dada5	-0.000601495
99	0xbd239b13	-0.039942812
100	0x39534596	0.00020148451
101	0xbd2bb25e	-0.04191815
102	0x3d41bede	0.047301166
103	0x3d37e8bd	0.04489969
104	0x3d12c633	0.03583355
105	0x3d2faf78	0.04289195
106	0x3b43b5e3	0.0029863052
107	0x3c43e4e6	0.011956429
108	0xbc9981e5	-0.018738696
109	0x3bbb57be	0.005717247
110	0xbbd00cf2	-0.0063491995
111	0x3c58d163	0.013233515
112	0xbb9892c3	-0.0046561672
113	0xba483725	-0.00076376117
114	0xbca872cb	-0.02056255
115	0xbcc5b11e	-0.024132308
116	0x3a35e7d2	0.0006939146
117	0xbb878138	-0.004135277
118	0x3c3371a5	0.010952388
119	0xbcb06ca8	-0.021536186
120	0x3ac2e09e	0.0014867967
121	0x3c9b251a	0.01893859
122	0xbce8ca37	-0.028416736
123	0xbcd8c02b	-0.02645882
124	0x3d26f813	0.040763926
125	0xbc33b9ed	-0.010969621
126	0x3c4b51c0	0.012409627
127	0x3c2b79c7	0.010466046
128	0x3c8e892f	0.017399399
129	0x3c0382a7	0.008026755
130	0x3bae0987	0.0053111943
131	0x3a162de7	0.0005728886
132	0xbc2a0587	-0.010377294
133	0xbcdac674	-0.026705958
134	0x3c1d6482	0.009606482
135	0xbc7e8e99	-0.015536928
136	0x3b20f764	0.0024561519
137	0x3bc96992	0.006146618
138	0xbc0cb7c2	-0.008588733
139	0x3d02e409	0.031955753
140	0x3c049c3c	0.00809389
141	0x3d1c772d	0.038199592
142	0x3adb2867	0.0016720415
143	0x3ad5f992	0.0016324988
144	0xbd0a2d63	-0.03373469
145	0x3b9a7bc7	0.0047144624
146	0x3bdba9cf	0.0067035924
147	0x3c09b990	0.008406058
148	0x3d035f5c	0.032073364
149	0x3d049da9	0.03237692
150	0xbbc28e76	-0.005937393
151	0xbca40935	-0.020023922
152	0x3b6431a6	0.0034819632
153	0x3b80fef9	0.003936645
154	0xbce405bc	-0.027834766
155	0x3d2b7581	0.041860107
156	0x3c7cc9c7	0.015428967
157	0x3b88126e	0.0041525876
158	0x3c82e4b0	0.015978187
159	0xbd021968	-0.03176251
160	0xbc5b0fc4	-0.013370458
161	0xbb45456e	-0.0030101198
162	0xbce4b944	-0.027920373
163	0xbc3d98d9	-0.011572086
164	0xbc959e55	-0.018263975
165	0x3d292354	0.041293457
166	0x3cbf7f3d	0.023376102
167	0x3bd0e619	0.006375086
168	0x3c16f01e	0.009212522
169	0x3d50fa64	0.05102004
170	0x3c59dd63	0.013297412
171	0x3bc2cc9a	0.0059448006
172	0xbd31e9f8	-0.04343602
173	0xbb902e47	-0.004400048
174	0xbc7986c5	-0.0152298855
175	0xba9ed4dc	-0.001211788
176	0xbc85f366	-0.016351413
177	0xbc746072	-0.0149155725
178	0xbd518c75	-0.05115934
179	0xbc683a2c	-0.0141740255
180	0x3cd41b63	0.025891965
181	0xbc7e870d	-0.015535128
182	0xbbffb2a0	-0.007803276
183	0xbbe2c53e	-0.0069204858
184	0x3c809829	0.015697556
185	0xbccd75ff	-0.025080679
186	0xbbf2e74e	-0.0074128276
187	0x3d0de675	0.03464361
188	0xbcc88421	-0.024477066
189	0xbc3c0af4	-0.011477221
190	0xbc0f8333	-0.008759308
191	0xbc0d5439	-0.008626037
192	0x3b41ae5d	0.0029553392
193	0xbbb88a45	-0.0056317174
194	0x3c14abff	0.00907421
195	0xbc95669b	-0.018237403
196	0xbcc7fa02	-0.024411205
197	0x3b072bdd	0.002062551
198	0x3c5827b6	0.013193062
199	0x3c94bc5e	0.018156227
200	0x3c5d8263	0.013519856
201	0xbb381e2f	-0.0028094163
202	0x3cb5fec7	0.022216214
203	0x3b4fee57	0.0031727755
204	0xbcade493	-0.021227157
205	0x3c519e12	0.012794035
206	0x3c8c830c	0.017152332
207	0xbc3d551f	-0.011555939
208	0x3c9c2ad6	0.019063395
209	0xbc735557	-0.01485189
210	0xbc844daa	-0.016150314
211	0x3c8e5b5e	0.017377552
212	0xbca446e2	-0.02005333
213	0xbc0b5d64	-0.008506153
214	0x3c716675	0.0147339
215	0xbcae23f2	-0.021257374
216	0x3c511a91	0.012762682
217	0xbbbcf7db	-0.0057668514
218	0xbbd5af02	-0.0065211067
219	0xbc92003f	-0.017822383
220	0x3c524375	0.012833466
221	0x3d4a32e0	0.049364924
222	0xbcb3ab51	-0.021932276
223	0x3b481818	0.003053194
224	0x3c5618fc	0.01306748
225	0xbcb941b0	-0.02261433
226	0xbc202be3	-0.009776088
227	0xbcb2fd83	-0.0218494
228	0x3c240dba	0.010013038
229	0x3af5ee57	0.0018763047
230	0x3cdf192b	0.02723368
231	0xbc25b35f	-0.010113566
232	0x3c0ef4bd	0.008725342
233	0xbb6fb64e	-0.0036577168
234	0x3b123602	0.0022310023
235	0x3c5c3144	0.01343948
236	0x3c6e60ac	0.014549416
237	0xbcc0a83c	-0.02351772
238	0x3d2127be	0.03934454
239	0xbc2b00c3	-0.010437193
240	0x3cbe34ad	0.023218477
241	0x39ebcd38	0.00044975593
242	0xbc891daa	-0.016737778
243	0xbc91463e	-0.01773369
244	0xbc9944dd	-0.018709594
245	0x3ccfddd5	0.025374332
246	0x3d166a56	0.036722504
247	0xbb7fd892	-0.0039038998
248	0x3c26cdc7	0.010180897
249	0xbccd13c7	-0.025033845
250	0x3c87d1e3	0.016579574
251	0x3cf89f8a	0.030349512
252	0xbcccc093	-0.02499417
253	0xbc9e9166	-0.01935644
254	0x3b144da5	0.0022629288
255	0xbcc749e7	-0.024327232

bias f4 [20]
0	0xbc49a076	-0.012306323
1	0x3d8077f3	0.062728785
2	0x3c820f61	0.015876474
3	0x3c7401cd	0.014893007
4	0x3d32ad7b	0.043622475
5	0x3d5c114e	0.05372744
6	0x3cae2e2d	0.021262253
7	0xbbf6f35d	-0.0075363354
8	0xbd070e8e	-0.032972865
9	0xbd3982e7	-0.045290854
10	0xbd189e75	-0.03726049
11	0x3d78712b	0.0606548
12	0x3d731bd2	0.059352703
13	0xbd216c9b	-0.039410215
14	0x3d80cb0d	0.06288729
15	0xbc9dd374	-0.019265868
16	0xbc9a6234	-0.018845655
17	0x3cc1fe73	0.023680901
18	0xbd782527	-0.060582306
19	0xbd349ff6	-0.044097863

weight f4 [20]
0	0x3f7db45f	0.9910335
1	0x3f817e13	1.01166
2	0x3f7e8c42	0.99432766
3	0x3f8044e8	1.0021029
4	0x3f8072bb	1.0035013
5	0x3f804ee5	1.0024077
6	0x3f80bc02	1.0057375
7	0x3f8433a5	1.0328261
8	0x3f81b72a	1.0134022
9	0x3f7fbf58	0.9990134
10	0x3f8564ff	1.0421447
11	0x3f7a14ab	0.97687787
12	0x3f779350	0.96709156
13	0x3f83394c	1.0251861
14	0x3f80a42c	1.0050101
15	0x3f7c1839	0.9847446
16	0x3f803b4b	1.0018095
17	0x3f86056c	1.0470405
18	0x3f7c6850	0.9859667
19	0x3f8103ce	1.0079286

bias f4 [20]
0	0x39275b95	0.00015960478
1	0x3b012c57	0.0019710266
2	0x3b1260e9	0.0022335595
3	0xbbbbd08e	-0.0057316488
4	0x3a9ebbbb	0.0012110391
5	0x3b8267ea	0.0039796727
6	0x3a5269b1	0.00080266135
7	0x39a698e8	0.0003177591
8	0xbb2bc417	-0.0026209408
9	0x3abcdede	0.0014409681
10	0xbb4baa71	-0.0031076933
11	0x3b76de3a	0.0037669078
12	0x3b9eca09	0.004845862
13	0xbb95df69	-0.0045737517
14	0xbb5b16c5	-0.003343032
15	0x3b0785c9	0.0020679107
16	0xbb1176ed	-0.002219613
17	0xbb7470c0	-0.003729865
18	0x3b7cd5ab	0.0038579504
19	0xb85d4728	-5.2756775e-05

running_mean f4 [20]
0	0x3c512908	0.01276613
1	0x3d0c9884	0.034325138
2	0x3c3a4141	0.011368097
3	0x3d75ecdd	0.060040344
4	0x3dddf39d	0.10837481
5	0x3e01d186	0.12677583
6	0x3c34a53f	0.011025726
7	0xbda63784	-0.081160575
8	0xbd653036	-0.05595418
9	0xbc567a86	-0.013090735
10	0xbdea7da7	-0.114497475
11	0x3d3bdbd4	0.04586394
12	0x3c70ba38	0.0146928355
13	0xbddf130e	-0.10892306
14	0x3cc2ecce	0.023794558
15	0xbce3bcce	-0.02779999
16	0xbdde5ca7	-0.10857516
17	0xbb5fc591	-0.0034144858
18	0xbdab6c97	-0.08370321
19	0x3c14957c	0.009068843

running_var f4 [20]
0	0x3ca7d7c7	0.020488633
1	0x3c06de1d	0.008231667
2	0x3cbbfef2	0.022948716
3	0x3c23f808	0.010007866
4	0x3ced44e3	0.028963512
5	0x3cd02792	0.025409494
6	0x3c38540d	0.011250508
7	0x3be49aae	0.006976447
8	0x3ccd43e5	0.025056789
9	0x3c228096	0.009918353
10	0x3c33b7a4	0.010969076
11	0x3c4653ff	0.012104987
12	0x3c9eba00	0.019375801
13	0x3c260bd4	0.010134656
14	0x3c3287cd	0.010896635
15	0x3c486e0b	0.012233268
16	0x3d3a4285	0.045473594
17	0x3c699a4f	0.014257981
18	0x3cda004a	0.026611466
19	0x3cae546b	0.021280488

weight f4 [20, 20, 3, 3]
0	0xbc518917	-0.012789032
1	0xbc70cc58	-0.014697157
2	0xbcb805f3	-0.022463774
3	0xbbb7d6c4	-0.005610319
4	0xbcd4e707	-0.025989069
5	0xbb8e4656	-0.004341881
6	0x3be30b5e	0.0069288453
7	0xbbf8ebfc	-0.007596491
8	0xbb1ea711	-0.0024208466
9	0xbd2edb67	-0.042689707
10	0xbc2b2710	-0.010446325
11	0xbc52c08c	-0.01286329
12	0x3b44760a	0.0029977583
13	0xbca7eb09	-0.020497816
14	0x3bcba7ef	0.0062150876
15	0x3c01d8a1	0.0079251835
16	0xbb4242bb	-0.0029641825
17	0xbcbd8115	-0.02313284
18	0x3c65dc09	0.014029511
19	0x3c024293	0.007950443
20	0xbd03feb4	-0.032225326
21	0xbb976a0c	-0.004620796
22	0x3c897fc6	0.01678456
23	0xbc2619c4	-0.010137979
24	0xbd064c07	-0.03278735
25	0x3cb6339d	0.022241408
26	0xbc2a1ab0	-0.010382339
27	0x3bc4923e	0.0059988787
28	0x3c6c4649	0.014421054
29	0x3abf0097	0.0014572319
30	0xbbd3dbaf	-0.0064653973
31	0x3d00962a	0.031393208
32	0xbd2f7bb7	-0.042842593
33	0xbcac4567	-0.021029187
34	0x3be8983b	0.0070982254
35	0x3c9a43d7	0.018831177
36	0xbc85d0c9	-0.016334908
37	0xbd1d81d0	-0.038453877
38	0xbc07a7cd	-0.008279753
39	0xbca71f2a	-0.020400602
40	0xbc6b7c18	-0.014372848
41	0x3cb7c30a	0.022431869
42	0x3cafd047	0.021461619
43	0xbc88be9c	-0.016692452
44	0x3d020d64	0.03175105
45	0xba7ab19a	-0.0009563208
46	0x3d0b1e61	0.03396452
47	0xbd16043d	-0.036625136
48	0xbc1b3b9f	-0.009474664
49	0xbcfa4c9a	-0.030554105
50	0x3c971910	0.018444568
51	0xbc5bc14d	-0.013412786
52	0xbd1963b4	-0.0374486
53	0x3c0665b7	0.008202962
54	0x3c98756e	0.018610682
55	0x3d01e225	0.03170981
56	0x3c91c9ab	0.017796358
57	0xbc317f7b	-0.010833616
58	0xbc09bb1a	-0.008406425
59	0x3c4a0f53	0.012332755
60	0x3bb4a6d3	0.005513051
61	0xbc2f92ea	-0.010716179
62	0xb869c070	-5.573075e-05
63	0x3bc8136b	0.0061058304
64	0x3c061190	0.008182898
65	0x3ca0618c	0.019577764
66	0xbcef6fa6	-0.029228043
67	0xbcb69d56	-0.02229182
68	0xbbaaeb9e	-0.005216076
69	0x3d0295c0	0.031881094
70	0x3c76c919	0.015062594
71	0x3c6bf56c	0.014401775
72	0x3c3dc163	0.0115817515
73	0x3bdda492	0.006764003
74	0xbc0d1734	-0.008611489
75	0x3a41e33c	0.0007396226
76	0x3c867810	0.016414672
77	0xbb142b88	-0.0022608954
78	0x3b84f1c7	0.0040571424
79	0x3c9dfce4	0.019285627
80	0xbd00a26e	-0.031404905
81	0xbce2270e	-0.027606513
82	0xbc444e7e	-0.011981605
83	0x3c07d1a9	0.008289733
84	0xbd3d1524	-0.04616274
85	0xbc055292	-0.008137362
86	0x3cdb294f	0.026753096
87	0xbaa0c038	-0.0012264317
88	0xbcabb41e	-0.02095991
89	0x3a371915	0.00069846335
90	0x3ba054ae	0.004892907
91	0x3b00a175	0.0019627486
92	0x3b830bc6	0.0039992062
93	0x3c259906	0.010107284
94	0xbc737bc4	-0.014861051
95	0xbc39cf94	-0.011340994
96	0xbc90c5f5	-0.017672518
97	0x3c2d74fd	0.010586974
98	0x3c362e04	0.011119369
99	0xbc2d106b	-0.010562996
100	0x3b22ea87	0.0024859027
101	0x392b6476	0.00016345255
102	0x3baaba9a	0.005210233
103	0xbc7ad5e2	-0.015309783
104	0x3c603f17	0.013686917
105	0xbc22518a	-0.009907136
106	0xbcfd1d7a	-0.030897845
107	0x3bee3e0c	0.00727058
108	0xbca1a307	-0.019731058
109	0xbca8d531	-0.02060947
110	0x3cdcd57f	0.026957272
111	0xbcb2ef0a	-0.021842498
112	0xbc0f3360	-0.008740276
113	0x3ccdfd2c	0.025145136
114	0xbcd95278	-0.026528582
115	0x3c6ddc93	0.014517921
116	0x3c443379	0.011975163
117	0xbbd64378	-0.0065388046
118	0xbc9a1118	-0.018806979
119	0xbc22ab95	-0.009928604
120	0x3aec7000	0.001803875
121	0x3ad92946	0.0016568087
122	0x3cb5c252	0.022187386
123	0x3c936a4b	0.01799502
124	0x3c2e94fe	0.01065564
125	0x3cce65fd	0.025195116
126	0xbc2af11d	-0.010433462
127	0x3b7649f1	0.0037580694
128	0xbc2fd2e6	-0.010731434
129	0x3d343790	0.0439983
130	0x3a830f96	0.0009999152
131	0xbb307d1f	-0.0026930047
132	0xbb6d85bd	-0.0036243044
133	0xbcac82a2	-0.021058384
134	0xbc88bfeb	-0.016693076
135	0x3b96fc29	0.0046076966
136	0x3c993c6b	0.018705567
137	0x3914b4f3	0.00014181789
138	0xbd001b2d	-0.031275917
139	0xbc2db206	-0.010601526
140	0x3c76b9b0	0.01505892
141	0x3cfadba4	0.030622311
142	0x3c3569a6	0.011072552
143	0xbd01afaa	-0.031661667
144	0xbb831b0f	-0.0040010284
145	0x3c9c211a	0.019058753
146	0x3ce24233	0.027619457
147	0xbcf0a953	-0.029377615
148	0x3bd29634	0.006426597
149	0xbc8df65d	-0.01732939
150	0x3b9d274c	0.0047959443
151	0xbc8d5454	-0.017252125
152	0x3cb41f1d	0.021987492
153	0x3c234ea4	0.00996748
154	0x3c583f67	0.01319871
155	0xbb82914b	-0.0039846054
156	0xbd452345	-0.04812934
157	0x3ca876d2	0.02056447
158	0x3befe2eb	0.007320752
159	0x3c38a621	0.011270077
160	0xbbf21ce6	-0.007388699
161	0xbc52290e	-0.012827171
162	0xbbc5e69e	-0.0060394546
163	0xbd320351	-0.043460194
164	0xbc8180db	-0.015808513
165	0xbc5b6807	-0.013391501
166	0xbae374f9	-0.0017353586
167	0x3c627fb8	0.013824396
168	0x3bc0be5d	0.005882068
169	0x3aff97a1	0.0019500145
170	0xbcaaf6f0	-0.020869702
171	0xbcd22a5f	-0.02565497
172	0xbb90d5f6	-0.0044200374
173	0xbcc1beb8	-0.023650512
174	0xbc242302	-0.010018112
175	0xbd3a5b8e	-0.04549747
176	0xbc032b88	-0.008005984
177	0xbd2ab4c1	-0.041676287
178	0xbcf03c95	-0.029325763
179	0xbcf79e01	-0.03022671
180	0x3bf8923e	0.007585793
181	0xbcb39577	-0.021921856
182	0xbb9c829e	-0.004776313
183	0x3a870a0a	0.0010302674
184	0x3c65f919	0.01403644
185	0x3c6ce3f2	0.014458643
186	0xbc2e2b48	-0.010630436
187	0x3c0b6874	0.00850879
188	0xbc22ba00	-0.009932041
189	0xbd0f4581	-0.034978393
190	0x3b2d8fd6	0.0026483438
191	0xbc9f0337	-0.019410713
192	0xbc2a2236	-0.010384133
193	0x3c8cd1bd	0.017189855
194	0xbc76af1f	-0.015056401
195	0x3ba071a1	0.004896358
196	0x3c519312	0.012791412
197	0x39f5ce10	0.0004688357
198	0xbbdd2058	-0.0067482404
199	0xbca9e7a1	-0.020740332
200	0xbcbf8e74	-0.023383357
201	0xbc51044b	-0.012757371
202	0xbb6cbe05	-0.0036124003
203	0x3be9b93d	0.007132678
204	0xbd013764	-0.031546965
205	0xbbccd3b8	-0.006250825
206	0xbbd6f1c3	-0.006559582
207	0x3c54272c	0.012948792
208	0xbcafe45b	-0.021471193
209	0x3b60fac3	0.0034329153
210	0xbcfce6e9	-0.030871825
211	0xbba31502	-0.0049768696
212	0xbc81b5eb	-0.015833816
213	0x3d3de6b5	0.046362597
214	0x3b0f437d	0.0021860295
215	0xbbdbeaf1	-0.006711357
216	0xbc210df4	-0.009829987
217	0xbc926551	-0.017870577
218	0x3bbf2141	0.0058328216
219	0x3cf4e87a	0.02989601
220	0x3c93b428	0.018030241
221	0xbbe52948	-0.0069934465
222	0x3c82732c	0.015924059
223	0xbcda906a	-0.02668019
224	0x3c1e7443	0.009671274
225	0xbc5d737f	-0.013516306
226	0xbc11b552	-0.008893328
227	0x3c2ee17e	0.010673879
228	0xbc5beb11	-0.013422743
229	0xbc2d5d1d	-0.010581282
230	0xbbe368d5	-0.006939987
231	0xbc2e08a2	-0.010622175
232	0xbcd9e214	-0.02659706
233	0xbba91feb	-0.0051612756
234	0x3980c5ae	0.00024561345
235	0xbba1a0ad	-0.004932484
236	0x3aedcb7d	0.0018142309
237	0x3a87a9d5	0.0010350297
238	0xbccd746c	-0.025079928
239	0xbd0bac39	-0.03409979
240	0x3d62d391	0.055377547
241	0xbcd95b6b	-0.02653285
242	0xbd14ec13	-0.03635795
243	0x3b868538	0.0041052364
244	0xbc326994	-0.01088943
245	0x3860058f	5.341094e-05
246	0xbcc16683	-0.023608452
247	0x3d130827	0.035896447
248	0x3c880be0	0.016607225
249	0x3c56a7ef	0.013101562
250	0x3c52c980	0.012865424
251	0x3cca4d3d	0.024695033
252	0xbcc34d9b	-0.023840716
253	0x3d135469	0.03596917
254	0x3cb3ed0a	0.021963615
255	0xbbb3cb97	-0.0054869163

bias f4 [20]
0	0x3c8943fe	0.016756054
1	0xbd6ac41e	-0.05731594
2	0xbc6e1704	-0.014531855
3	0x3c5f6f49	0.013637372
4	0x3bf66242	0.0075190375
5	0x3d61b426	0.055103444
6	0x3d24f31d	0.040270913
7	0x3bff8084	0.0077973027
8	0x3d58acb9	0.052899096
9	0xbd903016	-0.07040422
10	0x3c514da4	0.012774859
11	0xbb0786f6	-0.0020679808
12	0xbd425e66	-0.047453307
13	0xbc572e42	-0.013133587
14	0xbcbac02d	-0.022796715
15	0xbd92c37e	-0.071661934
16	0x3bb706ec	0.005585542
17	0x3d98252c	0.07428965
18	0xbd4d83fd	-0.050174702
19	0xbc0c2b34	-0.008555222

weight f4 [20]
0	0x3f81af9a	1.0131714
1	0x3f7fd98e	0.9994134
2	0x3f6fdf97	0.93700546
3	0x3f7c7970	0.986228
4	0x3f812cd3	1.0091804
5	0x3f830824	1.0236859
6	0x3f8052be	1.0025251
7	0x3f7841d0	0.9697542
8	0x3f80ecff	1.0072325
9	0x3f80751c	1.0035739
10	0x3f7b7c2b	0.9823634
11	0x3f81456b	1.009931
12	0x3f7fcf2d	0.999255
13	0x3f797c35	0.9745515
14	0x3f7adb86	0.97991216
15	0x3f7eeb85	0.99578124
16	0x3f80970f	1.00461
17	0x3f81d039	1.014167
18	0x3f7c378a	0.98522246
19	0x3f7f39db	0.99697655

bias f4 [20]
0	0x3b87f321	0.0041488563
1	0x3b0dfa6e	0.002166416
2	0xba4650d0	-0.00075651426
3	0x3b8e7dfb	0.004348514
4	0x3b160473	0.0022890836
5	0x3965df25	0.0002192227
6	0x39f4a6cc	0.0004666358
7	0x38ad843a	8.273912e-05
8	0x3b04bd5e	0.0020254473
9	0x387b8bfb	5.997343e-05
10	0x3bb21e8e	0.0054357713
11	0x3aed374a	0.0018098142
12	0x3b30c676	0.002697376
13	0x3a6d12a5	0.0009043611
14	0xbaaba1a8	-0.0013094442
15	0x3abc7255	0.0014377335
16	0x3b40094e	0.002930242
17	0x3a8a0831	0.0010531006
18	0x3b02a942	0.0019937311
19	0x3b60edfe	0.0034321542

running_mean f4 [20]
0	0x3ce0f98a	0.02746274
1	0xbd5ada7a	-0.05343101
2	0xbc26b9d4	-0.010176141
3	0x3ab6a98b	0.0013936026
4	0x3b82871d	0.003983392
5	0x3d63a40b	0.055576365
6	0x3d0fb6f0	0.035086572
7	0x3c92a464	0.017900653
8	0x3d5db905	0.054131526
9	0xbda235f9	-0.07920451
10	0xbc649104	-0.01395059
11	0xbc21c6b8	-0.009874038
12	0xbceff8dd	-0.029293472
13	0xbcd443c8	-0.025911227
14	0xbd4ad5f0	-0.049520433
15	0xbd963178	-0.07333654
16	0xbb0139a8	-0.0019718204
17	0x3d83424a	0.06409128
18	0xbd4657ad	-0.048423458
19	0x3b1c23a0	0.0023824945

running_var f4 [20]
0	0x3dc07914	0.09398094
1	0x3db95359	0.090491004
2	0x3d4c8249	0.049928937
3	0x3d9b33fd	0.07578275
4	0x3d9a5866	0.07536392
5	0x3d0935e7	0.03349867
6	0x3db2c4d5	0.08728949
7	0x3d462dda	0.04838357
8	0x3e232599	0.15932311
9	0x3d8e68c4	0.06953576
10	0x3d7ca0c0	0.06167674
11	0x3cf33aa7	0.029691054
12	0x3dbcdb6d	0.0922154
13	0x3df14b51	0.117819436
14	0x3dd5a4b8	0.10431808
15	0x3db2d23a	0.08731504
16	0x3d43a052	0.047760315
17	0x3d313c31	0.043270294
18	0x3d9ac7bd	0.07557628
19	0x3d30beb3	0.043150615

weight f4 [20, 20, 3, 3]
0	0xbd2d0357	-0.042239513
1	0xbcd1b8f1	-0.025600882
2	0xbd081869	-0.033226404
3	0xbb5d6a88	-0.0033785421
4	0x3ca32209	0.01991369
5	0x3bc61701	0.0060452227
6	0x3c3b2837	0.011423162
7	0x3cc36d77	0.023855908
8	0x3c883e86	0.016631376
9	0x3cdd5a23	0.02702052
10	0xbbc06797	-0.005871724
11	0xbcab925b	-0.020943811
12	0x3b75fa26	0.0037533133
13	0x3d12d575	0.0358481
14	0xbb76c75c	-0.0037655449
15	0x3bfdc1d3	0.007744053
16	0xbcea7606	-0.028620731
17	0x3c9d404a	0.019195694
18	0xbca8ed75	-0.02062104
19	0xbc8ecf29	-0.017432766
20	0x3bf61e44	0.007510932
21	0xbb3b9878	-0.0028624814
22	0x3c9bb1e8	0.01900573
23	0xbc0bc805	-0.008531575
24	0xbce269cf	-0.027638344
25	0xbccd647b	-0.025072327
26	0x3cbe81e4	0.023255296
27	0x3c178127	0.009247101
28	0xbc8de0ab	-0.017319044
29	0xbc2d50b8	-0.010578327
30	0xbd05717c	-0.03257893
31	0xbd17a521	-0.037022714
32	0x3cd29477	0.02570556
33	0xbb50b569	-0.003184641
34	0x3ca92693	0.020648276
35	0xbc8c0949	-0.017094271
36	0x3cc5f395	0.024164
37	0xbc0d5772	-0.008626806
38	0xbc08b800	-0.00834465
39	0xbc611fd6	-0.0137405
40	0x3cf412f8	0.029794201
41	0x3d0e2412	0.034702368
42	0xbc108f91	-0.008823291
43	0xbc3d1183	-0.01153982
44	0xbc08ab71	-0.008341656
45	0x3c2382c0	0.009979904
46	0x3b321bc3	0.0027177192
47	0xbd31dd44	-0.043423906
48	0x3b8ed179	0.004358467
49	0xbd208701	-0.03919125
50	0xbc839fe4	-0.016067453
51	0xbc157ffe	-0.009124754
52	0xbc5acbf7	-0.013354293
53	0x3c6cd696	0.014455458
54	0x3c85f7d9	0.016353535
55	0xbc288133	-0.01028471
56	0xbbf10a0f	-0.0073559354
57	0xbcecb779	-0.02889608
58	0x3d004af6	0.03132149
59	0xbc1d05a0	-0.009583861
60	0xbcab67de	-0.020923551
61	0x3c881f6d	0.016616547
62	0xbcd21fd0	-0.025649935
63	0xbc97cd8c	-0.01853063
64	0x3be756b6	0.0070598973
65	0xbcaf8930	-0.02142772
66	0xbcb64f5b	-0.022254637
67	0x3c86788d	0.016414905
68	0x3b33bd45	0.0027426046
69	0x3b980f83	0.004640521
70	0x3b4b3de0	0.0031012222
71	0x3c935441	0.017984511
72	0xbc59b7ec	-0.013288479
73	0xbcc54823	-0.024082249
74	0x3c0f0207	0.008728511
75	0x3c470f51	0.012149648
76	0xbbb73f95	-0.0055922964
77	0xbc9cdf19	-0.01914935
78	0x3c541553	0.012944537
79	0xbcc71195	-0.024300376
80	0x3c872efe	0.0165019
81	0x3c96962e	0.018382158
82	0x3bd6b3a6	0.0065521775
83	0xbbb049cb	-0.0053798906
84	0xbbb7c3c1	-0.0056080525
85	0x3c9b021e	0.018921908
86	0x3bfe31f1	0.0077574183
87	0x3ae0e9dc	0.0017159539
88	0xbd272d80	-0.040814877
89	0x3d214599	0.039373014
90	0xbcf19975	-0.02949212
91	0xbcf1c99d	-0.029515082
92	0xbb86c451	-0.004112758
93	0xba8a1609	-0.0010535131
94	0xbac2d9f4	-0.001486598
95	0x3d4b96b7	0.04970428
96	0x3a5cf9e0	0.0008429568
97	0xbd09862f	-0.033575233
98	0x3c1bcde4	0.009509537
99	0xbc3fd8d5	-0.011709412
100	0xbb0595f2	-0.0020383564
101	0xbcf82dfc	-0.030295365
102	0xbcdf55be	-0.027262565
103	0x3c989e3a	0.018630136
104	0xb9f0cdfc	-0.00045929838
105	0x3c6ac596	0.014329335
106	0xbc073d81	-0.00825441
107	0x3ce88424	0.028383322
108	0x3b9efaf0	0.0048516914
109	0x3cc8ec59	0.024526762
110	0x3d0f8aad	0.03504436
111	0x3ad57f97	0.0016288635
112	0x3c8494b5	0.01618419
113	0x3be82465	0.0070844167
114	0xbbd383ce	-0.0064549213
115	0xbc9ac526	-0.018892836
116	0x3c4f47d1	0.0126514
117	0xbbbd6a78	-0.0057805143
118	0x3d05b58f	0.03264385
119	0xbb609ee7	-0.00342744
120	0xbc498ba4	-0.012301359
121	0x3c58e6a7	0.013238586
122	0x3cc6e362	0.024278346
123	0x3c2a46d4	0.010392863
124	0x3bed65c6	0.0072447984
125	0xbc1b3d06	-0.009474998
126	0xbbbe8412	-0.005814084
127	0x3c16080c	0.009157192
128	0xbc5b3f91	-0.013381855
129	0x3c382662	0.01123962
130	0xb9e9f02d	-0.00044620168
131	0xbc0765d5	-0.008264025
132	0xbc511b58	-0.012762867
133	0x3d15b49e	0.036549203
134	0x3b94a6ec	0.0045365
135	0xbc65aa41	-0.0140176425
136	0xbc63a87a	-0.013895148
137	0x3c64be56	0.013961395
138	0x3c51aaaf	0.012797042
139	0x3caaa218	0.020829245
140	0xbbd5cbfc	-0.006524561
141	0xbcdc9fb6	-0.026931625
142	0xbcf952fb	-0.030435076
143	0xbb28679b	-0.002569652
144	0xbc7d862a	-0.015473882
145	0xbcdc8d68	-0.026922897
146	0x3c69f16f	0.014278754
147	0xbd30c821	-0.043159608
148	0x3ccec45e	0.02524012
149	0x3c8c4123	0.017120903
150	0xbbfc2221	-0.007694498
151	0x3d17c982	0.037057407
152	0xbc2a12b2	-0.010380434
153	0xbd09e628	-0.03366676
154	0x383feac6	4.57566e-05
155	0xb9d68bcb	-0.00040921415
156	0xbcc3a37a	-0.023881663
157	0x3c50e331	0.012749479
158	0x3ba1374e	0.004919923
159	0x3ce53f4b	0.027984282
160	0x3b90ff05	0.004424932
161	0xbb445ffe	-0.0029964442
162	0x3bac1e73	0.0052526533
163	0x3ccf8104	0.025330074
164	0xbc2d5591	-0.010579483
165	0xbce653de	-0.028116163
166	0x3cae2ece	0.021262553
167	0x3ca5e113	0.020248925
168	0xbc6b3c41	-0.014357627
169	0x3b66b522	0.0035203178
170	0xbc6f990d	-0.0146238925
171	0x3c6f1475	0.01459228
172	0x3bbed69a	0.0058239223
173	0xbb90a605	-0.0044143223
174	0xbc5c3873	-0.013441193
175	0x3cb93146	0.022606503
176	0x3c66be4c	0.014083456
177	0xbb2a38d7	-0.002597382
178	0x3d2cd2c2	0.04219318
179	0xbc7ae1e7	-0.015312648
180	0x3bb524f7	0.005528088
181	0xbc541559	-0.012944543
182	0xbc0bf71b	-0.008542801
183	0x3cabbd30	0.020964235
184	0xbb941e07	-0.004520181
185	0xbc0c6a5a	-0.008570278
186	0xbce9dd78	-0.028547987
187	0xb9354418	-0.00017286872
188	0xbbbfbf88	-0.0058516897
189	0xbcbc97cd	-0.023021603
190	0x3cc3fabc	0.02392327
191	0xbc68b24b	-0.014202665
192	0x3b9a9c2c	0.004718324
193	0x3c23300a	0.009960184
194	0x3cd6f074	0.026237704
195	0xbb8fb0da	-0.004385096
196	0x3c9a392b	0.018826088
197	0x3c0c197e	0.008551
198	0x3b74b078	0.003733663
199	0xbd2c5c4a	-0.0420802
200	0x3cee930a	0.029122848
201	0xbd594057	-0.053039875
202	0x3bdd44d0	0.006752588
203	0xba7ba8b2	-0.00096000277
204	0x3d0d6105	0.034516353
205	0x3c52adbc	0.012858804
206	0xbced7d30	-0.028990358
207	0xbc9a6f62	-0.01885194
208	0x3bbda2d2	0.005787232
209	0x3c2d1345	0.010563676
210	0x3cb4bc73	0.022062516
211	0x3c46b6a6	0.012128508
212	0x3c54c921	0.012987406
213	0xbc411468	-0.01178465
214	0x3cd5d430	0.026102155
215	0x3cb330d9	0.021873878
216	0x3ccef002	0.025260929
217	0xbd111ec4	-0.03542973
218	0x3caefb6c	0.021360122
219	0xbbe560b3	-0.007000053
220	0x3c233885	0.009962206
221	0xbd04d795	-0.032432158
222	0x3d32ca4d	0.04364996
223	0x3ab7b595	0.0014015908
224	0x3cc4d8f8	0.02402924
225	0x3d2f5411	0.04280478
226	0x3c0a37cf	0.008436157
227	0xbc467a33	-0.0121140955
228	0x3af7ac1f	0.00188959
229	0xbc0d8866	-0.008638477
230	0x3c8c77c1	0.017146947
231	0x3ba3d1c2	0.0049993703
232	0xbc7e66f2	-0.015527474
233	0xbc928a76	-0.017888289
234	0x3bc89662	0.0061214427
235	0x3ca1fcf0	0.01977393
236	0xbb110f98	-0.0022134539
237	0xbd79b3ee	-0.06096261
238	0xbbeee7b6	-0.0072908057
239	0x3cd44467	0.025911523
240	0xbb9eac9d	-0.0048423545
241	0x3c609fe0	0.013709992
242	0xbd1407e5	-0.03614034
243	0xbd2efb11	-0.042719904
244	0xbce3fb1d	-0.027829701
245	0x3b34cf52	0.0027589393
246	0xbb7e44e3	-0.0038798384
247	0x3c4f74b6	0.012662103
248	0x3c8b5c18	0.017011687
249	0xbd3526ab	-0.04422633
250	0xbc075d32	-0.008261966
251	0xbc97b87a	-0.018520582
252	0x3c8fee66	0.017569732
253	0xbc83210f	-0.016006975
254	0x3c018261	0.00790462
255	0xbc2fc58a	-0.010728249

bias f4 [20]
0	0x3d32fdb3	0.043698978
1	0xbd8579b2	-0.06517352
2	0xbd7c5e01	-0.061613087
3	0x3d05a6f0	0.032629907
4	0xbd6ba204	-0.057527557
5	0xbc9cda01	-0.019146921
6	0xbc7c2465	-0.0153895365
7	0x3d80a071	0.06280602
8	0xbd63a7bb	-0.055579882
9	0xbc3a85c6	-0.011384433
10	0x3d6f23a2	0.05838359
11	0x3d5721be	0.052522413
12	0xbd9498fb	-0.07255741
13	0xbd6b1acc	-0.057398602
14	0x3d16a392	0.036777087
15	0xbcef9831	-0.029247375
16	0x3d59220a	0.053010978
17	0x3cb0cf35	0.021583179
18	0x3d5c11e6	0.053728007
19	0xbd078673	-0.033087205

weight f4 [20]
0	0x3f7b919e	0.9826907
1	0x3f7621bd	0.9614523
2	0x3f8010bb	1.0005106
3	0x3f801497	1.0006284
4	0x3f84dace	1.0379274
5	0x3f7e2ce0	0.99287224
6	0x3f8289a9	1.019826
7	0x3f76e783	0.9644701
8	0x3f7c14a4	0.98468995
9	0x3f7fa146	0.9985546
10	0x3f7d3d86	0.98922
11	0x3f804ebf	1.0024031
12	0x3f84c12c	1.0371451
13	0x3f83718c	1.0269027
14	0x3f826752	1.0187781
15	0x3f83536e	1.0259836
16	0x3f7dea01	0.99185187
17	0x3f7cd692	0.9876491
18	0x3f7e1f32	0.9926635
19	0x3f7e040f	0.9922494

bias f4 [20]
0	0xba592c28	-0.0008284473
1	0xb9f5a382	-0.00046851864
2	0x3aa2cf06	0.0012421317
3	0xbbec34fa	-0.0072084637
4	0xbbac3a1c	-0.0052559506
5	0x3a95b5b8	0.0011421954
6	0x3a93dc5f	0.0011280886
7	0xb9c16b45	-0.0003689175
8	0xbb9af26a	-0.004728605
9	0x3873a8be	5.8092868e-05
10	0x38182a30	3.6278914e-05
11	0xba295b4d	-0.0006460443
12	0x3b15b83b	0.0022845406
13	0xbb44ce52	-0.0030030203
14	0xbb20da54	-0.0024544196
15	0xbbb08344	-0.005386742
16	0xba8f810d	-0.0010948494
17	0xbb3e8fc6	-0.0029077395
18	0x3b25633c	0.002523615
19	0xba7afdbc	-0.00095745525

running_mean f4 [20]
0	0x3ce3d171	0.02780983
1	0xbd5df0c3	-0.054184686
2	0xbde22603	-0.110424064
3	0x3cf87e62	0.030333702
4	0xbd8087a3	-0.06275871
5	0x3c908d27	0.017645432
6	0xbd531cb2	-0.051541038
7	0x3e53218b	0.20618264
8	0x3b64ff32	0.0034942147
9	0xbcf33104	-0.029686458
10	0x3d5cddc4	0.05392243
11	0xb9c122ec	-0.00036837847
12	0xbca9f128	-0.020744875
13	0xbe0ad37a	-0.13557234
14	0x3d91d18f	0.07120048
15	0xbd158658	-0.036505073
16	0xbca687fa	-0.02032851
17	0xbb935280	-0.0044959188
18	0x3da46f57	0.08029049
19	0xba9042f4	-0.0011006282

running_var f4 [20]
0	0x3c78c2f3	0.015183198
1	0x3c863c95	0.01638631
2	0x3cbbab83	0.022908932
3	0x3c5ef819	0.013608956
4	0x3caa814d	0.020813609
5	0x3c9b741a	0.01897626
6	0x3cb87ecd	0.0225214
7	0x3d2556e5	0.040366072
8	0x3d18452c	0.037175342
9	0x3cefa747	0.029254569
10	0x3c986078	0.018600687
11	0x3cb9e8c9	0.022694008
12	0x3c66e3a5	0.014092361
13	0x3ccf314d	0.025292063
14	0x3c556f7d	0.013027069
15	0x3c6aaa49	0.014322826
16	0x3d25182c	0.040306255
17	0x3d000fcd	0.03126507
18	0x3d61b6bc	0.05510591
19	0x3cc4fa66	0.02404518
