Generator.pt (torch_old, 616401 bytes, 203 tensors)

weight f4 [20, 1, 9, 9]
-0.015740227 -0.00234413 0.005428789 0.00078615994 0.019837916 -0.007772806 -0.0035694162 -0.0059836777
-0.031495515 0.031675342 -0.028249137 -0.012995953 -0.021090526 -0.020158771 0.01884217 0.0034103217
-0.00670073 -0.01223561 -0.0138193015 0.014711892 -0.02756122 0.0044322796 0.00973759 0.018256223
0.0056919674 0.0070980326 0.0040536486 -0.01930244 0.004423216 0.018399099 -0.015631625 0.033472445
-0.024120256 0.03017265 -0.025111936 9.280927e-05 0.014080386 0.0051596127 -0.02389509 0.032483123
0.009012623 -0.012586185 -0.004634975 0.030795688 -0.035591617 -0.018758608 -0.021910546 -0.015764028
-0.0065348237 0.028541652 0.0075398083 -0.01726914 0.017821537 -0.00026751083 0.01180596 0.03126662
-0.004827267 0.005878842 0.0070932377 -0.0005854728 -0.008712671 0.007994833 -0.015250276 -0.009219846
-0.0052748425 -0.007975662 -0.015456089 0.008638176 0.0055237985 -0.011507804 0.010486182 -0.013962237
-0.011769645 -0.0054437015 -0.017524004 -0.022186114 -0.03103179 0.045491606 -0.04266675 -0.004320355
-0.019490264 -0.012346074 0.067116044 -0.0055800155 0.023996582 -0.0015545802 0.014955446 -0.023298448
0.0067034764 0.037577767 0.03100408 0.003110041 -0.017000059 0.0061616804 -0.019789964 -0.005439077
0.005958274 0.006657372 -0.014882058 -0.0024304504 -0.009410863 0.004738031 0.015955146 -0.020575052
0.008759646 -0.022805195 -0.028938135 -0.004046171 -0.014619277 -0.050555304 0.01196804 -0.059149645
-0.065731764 -0.043408986 -0.010091041 0.0061137434 0.018961536 -0.034929305 -0.023225687 -0.027846111
-0.030419573 0.00083011325 -0.029386077 0.020783806 0.010274394 0.023885237 0.02256487 -0.009013714
-0.053887665 -0.0010841972 -0.0067659635 0.008785317 0.020190056 -0.031240806 0.015041989 0.05067191
0.005081279 -0.0037657768 0.0016681387 0.002052122 -0.0078091123 -0.0009189338 0.005698238 0.018469028
-0.062688164 0.013487591 -0.006931715 0.007405652 -0.042323582 0.0039728833 0.000310069 -0.03341633
-0.021702377 0.014643452 0.00925394 0.017942661 0.015170451 -0.02337889 0.004470381 0.022016898
-0.022925915 -0.0237661 0.0117132105 -0.0004669184 0.014902245 -0.017209318 -0.0074700345 -0.045026936
-0.010913358 0.007353356 -0.016997583 -0.029070182 0.009999479 0.008129078 -0.020552928 -0.005749828
0.008624231 -0.015752906 -0.031315938 0.019577187 -0.008556639 0.014513228 -0.018473595 -0.0048060436
0.00094079104 -0.00017238935 0.011211222 0.0008876079 0.033908803 -0.009062831 -0.02724901 -0.015120044
-0.0074429554 -0.00941842 -0.007999297 0.016546087 -0.014888111 -0.03333792 -0.005733486 -0.00581249
-0.00502323 -0.026674887 -0.0088589 0.008543819 0.008395546 0.01946956 -0.013406694 0.0040155714
-0.0053766635 0.0060670557 0.026317107 0.008949219 0.011959152 -0.014595404 0.018013604 -0.013249512
0.009504188 -0.0027050013 -0.003569845 -0.016808588 0.031093076 -0.00618856 -0.044389427 -0.031381153
0.011834289 -0.0017071452 -0.016246466 -0.0005441169 -0.02740391 -0.00073116046 -0.028919 -0.01073674
-0.027081769 -0.007843407 -0.022276197 0.021426447 -0.02414443 0.012259216 -0.04724979 -0.03219782
-0.028382827 0.00024301639 -0.0167791 0.0030555658 -0.00778283 -0.0043646903 -0.004747716 -0.007432435
0.026999839 -0.014335393 -0.02364691 -0.022981426 -0.03599973 0.025635181 -0.028957138 -0.05651753
00000000: a6f1 80bc fa9f 19bb fce3 b13b 4d16 4e3a
00000010: 2083 a23c 06b3 febb deec 69bb ba12 c4bb
00000020: 7101 01bd 01be 013d bc6a e7bc faec 54bc
00000030: 0ac6 acbc 0224 a5bc e55a 9a3c b47f 5f3b
00000040: cc91 dbbb de77 48bc 5a6a 62bc 260a 713c
00000050: 11c8 e1bc a83c 913b 6a8a 1f3c 138e 953c
00000060: af83 ba3b 9d96 e83b 78d4 843b 2720 9ebc
00000070: a0f0 903b b5b9 963c e50d 80bc 671a 093d
00000080: d897 c5bc a22c f73c 8cb7 cdbc 99a2 c238
00000090: 6bb1 663c f811 a93b a3bf c3bc 060d 053d
000000a0: aea9 133c 4936 4ebc fde0 97bb 3d47 fc3c
000000b0: 84c8 11bd a7ab 99bc bf7d b3bc 9023 81bc
000000c0: 1322 d6bb 2fd0 e93c 7f10 f73b 0378 8dbc
000000d0: 79fe 913c b240 8cb9 c96d 413c 6d11 003d
000000e0: 0d2e 9ebb 4da3 c03b 646e e83b 6a7a 19ba
000000f0: 97bf 0ebc c3fc 023c 4bdc 79bc d60e 17bc
00000100: 96d8 acbb 5aac 02bc 893b 7dbc 2387 0d3c
00000110: fb00 b53b 3a8b 3cbc 3cce 2b3c dec1 64bc
00000120: 78d5 40bc 1461 b2bb 808e 8fbc a7bf b5bc
00000130: 6136 febc 6855 3a3d 54c3 2ebd c491 8dbb
00000140: 0caa 9fbc 3047 4abc 2374 893d 90d8 b6bb
00000150: 7b94 c43c 0ec3 cbba b007 753c 63dc bebc
00000160: d6a8 db3b 25eb 193d 45fc fd3c d4d1 4b3b
00000170: b543 8bbc ece7 c93b 901e a2bc 493a b2bb
00000180: a03d c33b 1626 da3b e0d3 73bc 3148 1fbb
00000190: 0530 1abc 7c41 9b3b 5eb4 823c 038d a8bc
000001a0: 9e84 0f3c f6d1 babc ab0f edbc be95 84bb
000001b0: b185 6fbc 1413 4fbd 9915 443c e646 72bd
000001c0: 609e 86bd 9fcd 31bd e554 25bc cc55 c83b
000001d0: 3955 9b3c 0812 0fbd cc43 bebc 871d e4bc
000001e0: 7832 f9bc f59b 593a 12bb f0bc cd42 aa3c
000001f0: ef55 283c f9aa c33c f6d9 b83c 42ae 13bc
00000200: 50b9 5cbd 9f1b 8eba 04b5 ddbb 4af0 0f3c
00000210: 9e65 a53c b8ec ffbc ad72 763c 598d 4f3d
00000220: dc80 a63b 40cb 76bb 72a5 da3a e57c 063b
00000230: 95e3 ffbb 9ae4 70ba 49b8 ba3b 5c4c 973c
00000240: a762 80bd 0ffb 5c3c 7123 e3bb 1dab f23b
00000250: 7e5b 2dbd f62e 823b c290 a239 90df 08bd
00000260: 2fc9 b1bc 17eb 6f3c d69d 173c 7dfc 923c
00000270: 7c8d 783c 1685 bfbc 467c 923b c85c b43c
00000280: 21cf bbbc 20b1 c2bc c4e8 3f3c bacc f4b9
00000290: 8c28 743c 8efa 8cbc 31c7 f4bb 2a6e 38bd
000002a0: f1cd 32bc 6cf4 f03b 843e 8bbc 9724 eebc
000002b0: dbd4 233c d32f 053c 9d5e a8bc 0e69 bcbb
000002c0: a64c 0d3c 3d0c 81bc 2445 00bd 5660 a03c
000002d0: 2531 0cbc e4c8 6d3c f055 97bc 047c 9dbb
000002e0: 6b9f 763a 6ac3 34b9 46af 373c 5cae 683a
000002f0: f5e3 0a3d 457c 14bc 5139 dfbc 10ba 77bc
00000300: 09e4 f3bb b74f 1abc 7c0f 03bc a98b 873c
00000310: 43ed 73bc 588d 08bd f7df bbbb b376 bebb
00000320: e899 a4bb 4b85 dabc eb24 11bc 60fb 0b3c
00000330: 798d 093c a07e 9f3c c0a7 5bbc 0e95 833b
00000340: b92e b0bb 27ce c63b f996 d73c bf9f 123c
00000350: 52f0 433c 9021 6fbc 4491 933c 7b14 59bc
00000360: 74b7 1b3c 6446 31bb 10f4 69bb 2ab2 89bc
00000370: e8b6 fe3c 67c9 cabb b0d1 35bd 8689 00bd
00000380: 9be4 413c 4ac2 dfba 4f17 85bc 11a3 0eba
00000390: 2a7e e0bc 59ab 3fba 8ae7 ecbc 27e9 2fbc
000003a0: 96da ddbc a281 00bc 927c b6bc 8486 af3c
000003b0: 8aca c5bc e1da 483c ff88 41bd dce1 03bd
000003c0: 1a83 e8bc 37d2 7e39 5374 89bc e33f 483b
000003d0: 1c07 ffbb ad05 8fbb ba92 9bbb c98b f3bb
000003e0: c42e dd3c ffde 6abc 2ab7 c1bc 8b43 bcbc
000003f0: 7474 13bd df00 d23c 8537 edbc ed7e 67bd

bias f4 [20]
0.002823165 -0.09984127 -0.086763114 0.09792928 0.08852097 0.056016978 0.08694699 0.04760927
0.059134595 0.06805598 -0.025458597 -0.018739488 0.081171416 0.002224641 -0.07470026 -0.0866948
0.06902982 0.10431714 0.08048829 0.036877833
00000000: d904 393b 9479 ccbd dcb0 b1bd 258f c83d
00000010: 7b4a b53d 0f72 653d 4311 b23d f001 433d
00000020: 1e37 723d ef60 8b3d 8c8e d0bc 8e83 99bc
00000030: 333d a63d 48cb 113b 73fc 98bd 0b8d b1bd
00000040: 825f 8d3d 3aa4 d53d 0bd7 a43d 360d 173d

weight f4 [20, 20, 3, 3]
-0.011203725 -0.010107641 -0.006377293 0.004107415 -0.0018979637 0.027802525 -0.021943917 0.021556012
-0.028030595 -0.0009605699 0.026366567 0.043705963 -0.012477456 -0.00025272524 0.001330474 0.050222896
-0.006911149 0.004409589 -0.026341379 0.029723447 -0.011755611 0.0032811465 0.0008399255 -0.028348343
-0.0024213921 0.005506694 -0.027649496 -0.037926167 0.010967234 0.024026176 0.0009860813 -0.0041192262
0.02080676 -0.012097434 0.008041554 -0.014169218 -0.013820972 -0.00968754 -0.03429404 0.008090289
-0.0032594784 0.008205419 -0.04086934 -0.02586508 0.025112698 0.027017007 -0.03662778 -0.0070136883
0.01590658 0.029938718 -0.020156933 0.023417456 -0.04344644 -0.010894482 0.003774446 -0.004190442
-0.0007390473 0.013535868 0.007575583 0.023689752 0.013140554 -0.008206793 -0.009528241 -0.023315702
0.018777283 0.020603864 -0.022855084 0.011339326 0.0411207 0.028641392 -0.008274919 -0.02291142
0.0017483551 -0.00242104 0.02834097 0.00021337933 -0.0058899354 0.008728304 0.01763779 -0.020730099
-0.007411694 0.007439091 0.020340366 0.04731027 0.018350488 -0.00880581 -0.007564611 -0.015249442
0.002322665 -0.0057570054 0.011904458 -0.018631602 -0.025637113 0.013713894 -0.026795194 -0.013574329
0.006010743 0.0051729036 0.023217566 0.019687582 -0.025274815 0.0147844395 0.014936625 0.017066374
0.009020685 0.020027013 -0.021777103 -0.009953491 0.0027112255 -0.0076288776 -0.02723553 -0.018158453
-0.013471512 -0.0035823255 -0.0026192854 -0.0037167289 -0.02118437 0.05014779 -0.007822756 -0.034943216
-0.010320207 -0.011346169 0.0077597457 -0.004481632 0.018966798 -0.015736165 0.023332173 -0.013375906
-0.0055009266 -0.019848915 0.009180313 0.003515816 0.009305585 0.010106676 0.019911015 0.028071359
-0.020187248 -0.031117762 0.0069184075 -0.014215866 -0.033180825 0.028031517 0.014339111 0.041528128
0.014440285 0.016955344 0.005381963 -0.007551975 0.004109986 0.043759473 -0.012663378 -0.04417588
-0.027132686 -0.001701604 -0.015883032 0.044476576 0.014994928 -0.018717075 -0.0020288976 -0.00071743684
-0.014719421 -0.020873822 0.007824407 -0.0058030444 0.011888641 0.017401852 0.0010411338 -0.010015032
0.0050869663 -0.008239352 0.024725566 -0.016653527 0.017215755 -0.008415145 -0.0356611 -0.021953577
-0.046144657 0.005177543 -0.017123288 0.009549578 -0.008233121 -0.015695794 0.0018928449 0.034106795
-0.004967755 0.0075613717 -0.01611823 0.028309625 0.00068679603 -0.01158861 0.035194386 0.012491601
-0.020794133 -0.023728045 -0.033528753 -0.00850502 0.014496078 0.004805527 -0.021023633 0.016979557
-0.016709058 0.04406609 -0.028069418 0.013647502 -0.007894701 0.018296568 -0.007924079 -0.00057299214
0.010302428 0.019935975 0.007511896 -0.0010511111 0.019134084 -0.020563977 -0.005296714 0.008129514
-0.00014719997 0.017220596 -0.043169923 0.0055770096 -0.018847406 -0.008021994 0.010214294 -0.026328074
-0.05295543 0.030007562 0.0026601665 -0.04289239 0.0075918296 -0.010450711 0.025967486 -0.017020153
0.00874382 0.019832516 -0.011410684 -0.0035028588 0.015685285 -0.009551921 0.009602402 0.023542747
-0.019549811 -0.00023227274 0.0056834435 -0.0070926375 0.011678262 0.025369026 0.02106698 -0.01656788
-0.01687914 0.017251281 -0.02265515 -0.008842057 0.014167005 0.0013328767 0.0144277895 -0.02254046
00000000: d48f 37bc 859a 25bc 9cf8 d0bb 7f97 863b
00000010: 18c5 f8ba 1fc2 e33c bbc3 b3bc 3c96 b03c
00000020: 6ba0 e5bc c1ce 7bba b3fe d73c 0605 333d
00000030: 3e6e 4cbc 3580 84b9 4d63 ae3a 86b6 4d3d
00000040: eb76 e2bb 507e 903b e0c9 d7bc 967e f33c
00000050: 9b9a 40bc 8108 573b 722e 5c3a c93a e8bc
00000060: 38b0 1ebb 7f71 b43b 3281 e2bc 7858 1bbd
00000070: eaaf 333c 8bd2 c43c 663f 813a 93fa 86bb
00000080: f072 aa3c 5134 46bc b9c0 033c 0226 68bc
00000090: 5c71 62bc 7db8 1ebc e877 0cbd 228d 043c
000000a0: f99c 55bb 0670 063c 9c66 27bd 01e3 d3bc
000000b0: 25b9 cd3c c552 dd3c 0307 16bd 15d3 e5bb
000000c0: 844e 823c 0b42 f53c 2720 a5bc f7d5 bf3c
000000d0: e5f4 31bd c57e 32bc b25c 773b fa4f 89bb
000000e0: a0bc 41ba 8cc5 5d3c 993c f83b 0311 c23c
000000f0: 7a4b 573c c975 06bc 571c 1cbc 9200 bfbc
00000100: d1d2 993c 6fc9 a83c 963a bbbc 95c8 393c
00000110: 2e6e 283d 5aa1 ea3c 8793 07bc bbb0 bbbc
00000120: 1029 e53a 50aa 1ebb 522b e83c 94be 5f39
00000130: 5c00 c1bb 2901 0f3c 207d 903c 2bd2 a9bc
00000140: ccdd f2bb 9ec3 f33b d7a0 a63c 6ac8 413d
00000150: c353 963c 3e46 10bc 8ee0 f7bb ccd8 79bc
00000160: da37 183b 43a5 bcbb ea0a 433c 4da1 98bc
00000170: ec04 d2bc 3eb0 603c 9881 dbbc dd66 5ebc
00000180: c4f5 c43b 7681 a93b c432 be3c da47 a13c
00000190: 210d cfbc 6f3a 723c bfb8 743c c8ce 8b3c
000001a0: 7fcb 133c b10f a43c e565 b2bc f813 23bc
000001b0: d1ae 313b aafb f9bb 0c1d dfbc 09c1 94bc
000001c0: 9eb7 5cbc 73c5 6abb 51a8 2bbb 5d94 73bb
000001d0: d88a adbc c567 4d3d 042b 00bc 9e20 0fbd
000001e0: 1616 29bc 48e5 39bc 7745 fe3b a7da 92bb
000001f0: 4260 9b3c 21e9 80bc 1d23 bf3c 9e26 5bbc
00000200: 1e41 b4bb 319a a2bc 0669 163c 9b69 663b
00000210: 7476 183c 7996 253c 6d1c a33c e8f5 e53c
00000220: ba5f a5bc adea febc cfb3 e23b aae9 68bc
00000230: 9ee8 07bd 5aa2 e53c 97ee 6a3c 6619 2a3d
00000240: f296 6c3c efe5 8a3c 2e5b b03b 8f76 f7bb
00000250: 10ad 863b 223d 333d 0f7a 4fbc c4f1 34bd
00000260: 5e45 debc 5b08 dfba 221d 82bc 122d 363d
00000270: 49ad 753c 8d54 99bc 41f7 04bb 5f12 3cba
00000280: ba29 71bc 94ff aabc f131 003c 7727 bebb
00000290: 93c8 423c 548e 8e3c a776 883a 1716 24bc
000002a0: 91b0 a63b 59fe 06bc 458d ca3c fa6c 88bc
000002b0: 0e08 8d3c addf 09bc 6011 12bd fdd7 b3bc
000002c0: 2e02 3dbd 61a8 a93b 2346 8cbc d575 1c3c
000002d0: 36e4 06bc 7794 80bc 5619 f83a 91b3 0b3d
000002e0: 8dc8 a2bb 62c5 f73b 610a 84bc 96e9 e73c
000002f0: 1a0a 343a 27de 3dbc fd27 103d 92a9 4c3c
00000300: 7558 aabc 5161 c2bc 7255 09bd a458 0bbc
00000310: f580 6d3c af77 9d3b c139 acbc b618 8b3c
00000320: 6fe1 88bc a57e 343d d6f1 e5bc c699 5f3c
00000330: c758 01bc afe2 953c ffd3 01bc da34 16ba
00000340: 84cb 283c c550 a33c 5a26 f63b 70c5 89ba
00000350: 15bf 9c3c c975 a8bc 0f90 adbb a731 053c
00000360: b159 1ab9 3512 8d3c f2d2 30bd 59bf b63b
00000370: e065 9abc ae6e 03bc db59 273c f9ad d7bc
00000380: cbe7 58bd 6bd2 f53c 3056 2e3b eeaf 2fbd
00000390: e2c4 f83b 7539 2bbc c4b9 d43c d96d 8bbc
000003a0: 3d42 0f3c cd77 a23c e1f3 3abc 3890 65bb
000003b0: 6d7e 803c a97f 1cbc 6553 1d3c b8dc c03c
000003c0: ed26 a0bc 3d8e 73b9 2e3c ba3b 5b69 e8bb
000003d0: 2e56 3f3c b4d2 cf3c a994 ac3c 5db9 87bc
000003e0: 1f46 8abc 8f52 8d3c 4b97 b9bc 46de 10bc
000003f0: ba1c 683c ecb3 ae3a 8962 6c3c c5a6 b8bc

bias f4 [20]
0.025650557 -0.050073255 0.0066457726 0.020648487 0.06311389 -0.040968955 -0.04150114 -0.036885135
-0.07262365 0.015186233 -0.061285526 -0.019886713 -0.03378388 0.0033925194 0.021404969 -0.05396419
-0.022299388 -0.00720194 -0.042319186 0.016714323
00000000: 1e21 d23c 9d19 4dbd c8c4 d93b 0427 a93c
00000010: db41 813d 10cf 27bd 19fd 29bd de14 17bd
00000020: b5bb 94bd aecf 783c 8806 7bbd 76e9 a2bc
00000030: f760 0abd 0855 5e3b 7959 af3c 8e09 5dbd
00000040: 35ad b6bc 40fe ebbb e256 2dbd 7aec 883c

running_mean f4 [20]
0.00048152782 -0.0679109 0.013699395 0.0062506422 0.0638175 -0.046906784 -0.060975354 -0.055238426
-0.094733104 0.018293966 -0.061058156 -0.011261274 -0.014552423 0.013527985 0.009592538 -0.08627754
-0.04058116 -0.0011316617 -0.04606218 0.022819087
00000000: 9275 fc39 df14 8bbd 6d73 603c 30d2 cc3b
00000010: c0b2 823d 5421 40bd 4bc1 79bd b041 62bd
00000020: 6e03 c2bd 3add 953c 1e18 7abd 3581 38bc
00000030: 496d 6ebc 7ba4 5d3c 052a 1d3c 47b2 b0bd
00000040: 6e38 26bd 4454 94ba b2ab 3cbd 18ef ba3c

running_var f4 [20]
0.00019893801 0.00014699991 0.000150165 0.0001629229 8.556468e-05 0.00015264373 0.00033938183 0.0002259294
0.00022886938 0.00016530271 1.5936086e-05 0.00015304475 0.00030950367 1.29648e-05 1.28528645e-05 0.00057294534
0.00020006148 8.19445e-05 0.00022652786 1.7000548e-05
00000000: 049a 5039 fd23 1a39 9c75 1d39 48d6 2a39
00000010: 3071 b338 fd0e 2039 0fef b139 76e7 6c39
00000020: a8fc 6f39 1c55 2d39 7cae 8537 a37a 2039
00000030: e144 a239 6483 5937 a2a2 5737 b631 163a
00000040: 98c7 5139 9ed9 ab38 1c88 6d39 669c 8e37

weight f4 [20]
1.0184182 1.0133322 0.9740614 1.026047 0.98975056 1.0181146 0.9713196 0.98552144
0.9828102 1.0144703 0.9914043 1.0382314 0.99847263 0.9817929 0.95765907 1.0002768
1.0180136 0.99067193 0.99560213 0.9903199
00000000: 875b 823f dfb4 813f 175c 793f 8255 833f
00000010: 4b60 7d3f 9451 823f 67a8 783f 224b 7c3f
00000020: 7399 7b3f 2ada 813f accc 7d3f c4e4 843f
00000030: e79b 7f3f c856 7b3f 2529 753f 1209 803f
00000040: 454e 823f ad9c 7d3f c8df 7e3f 9b85 7d3f

bias f4 [20]
-0.0016453027 -0.0009668768 0.0029616773 0.0009852523 0.005282321 0.0019571206 0.00045045797 -0.0018396669
0.0034811369 0.00090630545 0.020764165 0.0022035714 0.009858132 0.018126277 0.0055136275 0.0021460752
0.0033544172 0.008589577 -0.00044281033 0.007018005
00000000: 33a7 d7ba 0176 7dba b318 423b 9523 813a
00000010: 5217 ad3b 0943 003b 722b ec39 fa20 f1ba
00000020: c923 643b 2195 6d3a 9c19 aa3c cb69 103b
00000030: 0184 213c 8f7d 943c a9ab b43b 2ba5 0c3b
00000040: c8d5 5b3b 4cbb 0c3c ff28 e8b9 4bf7 e53b

weight f4 [20, 20, 3, 3]
-0.0057750843 -0.015511873 0.015536675 -0.011092809 0.007745824 -0.033599213 0.002547474 -0.008428163
0.0045085484 -0.007822012 -0.028938036 -0.012153583 0.0010837658 -0.03340614 -0.015886331 -0.006781344
0.015980734 -0.015860528 0.0183354 -0.011582051 -0.021558877 0.025728948 -0.0034097414 0.021914482
-0.041223332 0.028069014 -0.040368084 0.010072878 -0.015862837 -0.010065893 0.019244518 0.00598402
0.026897194 -0.0016757238 -0.0031429832 -0.022689976 -0.014768829 -0.0050278674 0.052215446 0.0042407457
0.04000044 0.0022248463 -0.008969471 -0.012334089 0.0056649814 -0.0071898345 0.0007165738 0.021234242
0.030705957 -0.014047679 -0.024610393 0.016880378 0.01201289 -0.0034085826 -0.0049784216 -0.0064809807
0.003279 0.016918672 0.00873987 0.0019038619 -0.0022032524 -0.009374124 0.0050080307 -0.0025384196
0.016894158 -0.018772213 -0.0061329613 0.015660804 -0.0023832715 0.019022554 0.015977135 0.013182502
0.008076852 0.007934982 0.049175538 0.0072532333 0.007857722 -0.01002845 -0.0003309697 -0.01941015
-0.0008896373 -0.0115742255 -0.008786744 -0.017406343 0.018426696 -0.017651655 -0.018484008 -0.019686079
-0.009390131 -0.0043601803 0.010862306 -0.0047459616 0.005658682 -0.0042268755 -0.016104389 0.015530531
0.00916686 -0.024072975 -0.00053036417 -0.04047088 7.26841e-05 -0.041748 0.04760462 0.04491518
0.035609152 0.043207698 0.0032135486 0.012048865 -0.019066414 0.005379912 -0.0062804082 0.013097548
-0.00491868 -0.0007173319 -0.02077858 -0.024489705 0.00033050223 -0.0039132377 0.009107311 -0.024885729
-0.0012544307 0.017076682 -0.030559383 -0.0268175 0.038031586 -0.011230495 0.011249686 0.008092578
0.015117975 0.00897246 0.0072187427 0.0018543219 -0.010034409 -0.026064526 0.011609742 -0.017139828
0.00097106234 0.006194479 -0.009086249 0.03207055 0.008781461 0.03806371 0.0020383818 0.0024015296
-0.034914702 0.0047523584 0.007247826 0.008516088 0.0322327 0.033734825 -0.00588216 -0.020283265
0.004143584 0.0050520864 -0.02800567 0.041964326 0.015266515 0.0035532583 0.015994567 -0.032190423
-0.013299599 -0.0024989536 -0.027941303 -0.012757782 -0.019637188 0.04141877 0.023594711 0.0064140568
0.009270971 0.050395604 0.012052906 0.008332766 -0.044943336 -0.0023068676 -0.011695695 0.00018456797
-0.016176376 -0.012702925 -0.05084914 -0.010019592 0.025504345 -0.013881511 -0.0062986286 -0.0057146517
0.01864501 -0.023011662 -0.005320562 0.038209267 -0.02221265 -0.009134654 -0.008780205 -0.007957507
0.0053250054 -0.004176137 0.009845335 -0.015450513 -0.02155384 0.0030986033 0.012834907 0.016965348
0.0139637 -0.003471515 0.02084453 0.0031851283 -0.022235757 0.012267736 0.018766603 -0.0081226425
0.020857753 -0.016816175 -0.0145852845 0.017573925 -0.021776346 -0.008696182 0.013566023 -0.023658967
0.012236648 -0.007340508 -0.004633925 -0.017911438 0.0122459065 0.05455703 -0.020611117 0.004047941
0.015874576 -0.021726176 -0.006402395 -0.019494928 0.012695518 0.0055544884 0.028767716 -0.007575489
0.009903444 -0.0038643675 0.00496476 0.016757159 0.018037172 -0.022170901 0.040810075 -0.010227052
0.025291324 0.002612027 -0.016337454 -0.018618667 -0.019518932 0.025270594 0.037417784 -0.0024931328
0.011474111 -0.025026659 0.01846196 0.032249495 -0.024678124 -0.019851606 0.0017348948 -0.02467143
00000000: eb3c bdbb 8325 7ebc 8a8d 7e3c 9dbe 35bc
00000010: aed0 fd3b 549f 09bd 86f3 263b 4716 0abc
00000020: 72bc 933b e527 00bc 760f edbc d21f 47bc
00000030: 250d 8e3a e0d4 08bd 0d24 82bc 0936 debb
00000040: 07ea 823c f0ed 81bc 1f34 963c a5c2 3dbc
00000050: 3e9c b0bc 84c5 d23c f875 5fbb 0086 b33c
00000060: ccd9 28bd fdf0 e53c 0159 25bd b608 253c
00000070: c8f2 81bc 6aeb 24bc aea6 9d3c 9915 c43b
00000080: 8157 dc3c f6a3 dbba 82fa 4dbb 54e0 b9bc
00000090: f5f8 71bc cfc0 a4bb dddf 553d f4f5 8a3b
000000a0: 80d7 233d bace 113b b0f4 12bc eb14 4abc
000000b0: 4fa1 b93b b498 ebbb 74d8 3b3a 6ff3 ad3c
000000c0: 0f8b fb3c 3c28 66bc bc9b c9bc b848 8a3c
000000d0: b6d1 443c 8762 5fbb 0722 a3bb 685e d4bb
000000e0: 7ee4 563b 0799 8a3c ac31 0f3c 018b f93a
000000f0: 7164 10bb ed95 19bc 681a a43b 9d5b 26bb
00000100: 9e65 8a3c 2fc8 99bc 02f7 c8bb 164b 803c
00000110: a930 1cbb 30d5 9b3c 7be2 823c 6cfb 573c
00000120: c654 043c ba01 023c 4a6c 493d 88ac ed3b
00000130: adbd 003c 5e4e 24bc 0086 adb9 0902 9fbc
00000140: 8c36 69ba d2a1 3dbc 47f6 0fbc bf97 8ebc
00000150: 95f3 963c 349a 90bc c66b 97bc b344 a1bc
00000160: 10d9 19bc d8df 8ebb d0f7 313c 0384 9bbb
00000170: 776c b93b 9a81 8abb 5aed 83bc c573 7e3c
00000180: 9930 163c b034 c5bc 2308 0bba cbc4 25bd
00000190: fb6d 9838 f3ff 2abd 10fd 423d fbf8 373d
000001a0: e7da 113d 8efa 303d 669a 523b 9a68 453c
000001b0: 2b31 9cbc f949 b03b e2cb cdbb 1997 563c
000001c0: e12c a1bb 540b 3cba d737 aabc a29e c8bc
000001d0: 4247 ad39 9e3a 80bb d536 153c 28dd cbbc
000001e0: b66b a4ba 66e4 8b3c ac57 fabc 60b0 dbbc
000001f0: 02c7 1b3d 1c00 38bc 9a50 383c bb96 043c
00000200: 62b1 773c 3a01 133c 348b ec3b b80c f33a
00000210: 5d67 24bc 4685 d5bc ca36 3e3c d368 8cbc
00000220: e48e 7e3a 0efb ca3b 7ede 14bc 695c 033d
00000230: 1ee0 0f3c b1e8 1b3d 5f96 053b fb62 1d3b
00000240: b802 0fbd acb9 9b3b 2c7f ed3b 1087 0b3c
00000250: 7006 043d 872d 0a3d 22bf c0bb 1729 a6bc
00000260: e7c6 873b f98b a53b 266c e5bc c9e2 2b3d
00000270: 6820 7a3c c8dd 683b 0a07 833c 1bda 03bd
00000280: 90e6 59bc 7cc5 23bb 29e5 e4bc 0406 51bc
00000290: 2bde a0bc baa6 293d b249 c13c 022d d23b
000002a0: 45e5 173c 9f6b 4e3d 8d79 453c 2786 083c
000002b0: 8116 38bd d12e 17bb 4d9f 3fbc 9688 4139
000002c0: 5284 84bc ee1f 50bc 3047 50bd 3729 24bc
000002d0: 7dee d03c 476f 63bc ba64 cebb f941 bbbb
000002e0: 6cbd 983c f482 bcbc 1c58 aebb 5281 1c3d
000002f0: 4ef7 b5bc 84a9 15bc d9da 0fbc 3460 02bc
00000300: 627d ae3b fad7 88bb 544e 213c 2624 7dbc
00000310: ae91 b0bc f011 4b3b 8049 523c eafa 8a3c
00000320: 01c8 643c 5b82 63bb 26c2 aa3c 96bd 503b
00000330: c327 b6bc 9dfe 483c 6bbc 993c d514 05bc
00000340: e1dd aa3c 13c2 89bc 1ef7 6ebc 31f7 8f3c
00000350: 4f64 b2bc 6e7a 0ebc 0644 5e3c 73d0 c1bc
00000360: 397c 483c a588 f0bb 2ed8 97bb 02bb 92bc
00000370: 0ea3 483c 3177 5f3d a5d8 a8bc 97a4 843b
00000380: 660b 823c 18fb b1bc 2fcb d1bb d4b3 9fbc
00000390: dd00 503c 6d02 b63b 46aa eb3c cf3b f8bb
000003a0: 0e42 223c 5441 7dbb 6daf a23b 4f46 893c
000003b0: b1c2 933c c09f b5bc 7728 273d 5d8f 27bc
000003c0: c02f cf3c 8b2e 2b3b 20d6 85bc 2d86 98bc
000003d0: 2be6 9fbc 4704 cf3c 6443 193d d463 23bb
000003e0: e9fd 3b3c b504 cdbc 893d 973c 0c18 043d
000003f0: c729 cabc d69f a2bc 6965 e33a bd1b cabc

bias f4 [20]
-0.01223964 0.06275721 0.015868438 0.014865251 0.043629307 0.05374728 0.021279002 -0.0074881
-0.032934055 -0.0453088 -0.03724074 0.060675543 0.059329763 -0.03936112 0.06291675 -0.01924927
-0.018807974 0.023684222 -0.060572986 -0.044098128
00000000: c588 48bc da86 803d 87fe 813c 628d 733c
00000010: a5b4 323d 1c26 5c3d 4d51 ae3c bc5e f5bb
00000020: dce5 06bd b895 39bd bf89 18bd eb86 783d
00000030: c403 733d 2039 21bd 7fda 803d a5b0 9dbc
00000040: 2e13 9abc 6a05 c23c 611b 78bd 3da0 34bd

running_mean f4 [20]
0.0008182978 0.056113843 0.012737676 0.05078235 0.12385659 0.13791128 0.010865375 -0.08475235
-0.05167674 -0.010756239 -0.12898342 0.030974705 -0.0026782798 -0.11177494 0.029035186 -0.027491184
-0.12477456 -0.015108432 -0.109562024 0.015179885
00000000: 0983 563a a1d7 653d afb1 503c 2701 503d
00000010: 86a8 fd3d 9d38 0d3e b004 323c a492 adbd
00000020: fdaa 53bd f03a 30bc 3b14 04be aabe fd3c
00000030: 1486 2fbb 42ea e4bd 33db ed3c 3135 e1bc
00000040: ce89 ffbd 5b89 77bc 0e62 e0bd 0db5 783c

running_var f4 [20]
0.020249506 0.01569211 0.038549595 0.008026264 0.030104373 0.026214723 0.010231799 0.0066924146
0.029541027 0.011589443 0.013334129 0.0114552695 0.023046965 0.012246603 0.009745887 0.013782751
0.07830019 0.020934444 0.027095784 0.028077053
00000000: 4be2 a53c bd8c 803c 2ee6 1d3d 9780 033c
00000010: 729d f63c 42c0 d63c 47a3 273c 0b4c db3b
00000020: 0600 f23c a6e1 3d3c 6477 5a3c e2ae 3b3c
00000030: fdcc bc3c faa5 483c 36ad 1f3c 0cd1 613c
00000040: da5b a03d b67e ab3c faf7 dd3c d901 e63c

weight f4 [20]
0.9923083 1.0130855 0.9943623 1.0080179 1.0041081 1.0013689 1.0081075 1.0336738
1.0182348 1.0012279 1.0429727 0.9770919 0.9681291 1.0282542 1.007228 0.98407716
1.0035282 1.0490654 0.98704845 1.008565
00000000: eb07 7e3f c9ac 813f 878e 7e3f bb06 813f
00000010: 9d86 803f db2c 803f ab09 813f 6c4f 843f
00000020: 8555 823f 3c28 803f 2180 853f b222 7a3f
00000030: 4fd7 773f d59d 833f d9ec 803f 7bec 7b3f
00000040: 9d73 803f c647 863f 35af 7c3f a818 813f

bias f4 [20]
0.001547838 0.0048805233 0.0030543865 -0.009392809 0.002602984 0.007906225 0.0002721296 -0.0045970893
-0.004641339 0.005534875 -0.0045513837 0.0024014527 0.006265503 -0.014123939 -0.0061079925 0.0075904448
-0.0031591412 -0.0072263414 0.007004522 -0.0035054146
00000000: d3e0 ca3a ccec 9f3b 1a2c 483b 4ce4 19bc
00000010: d396 2a3b 1c89 013c 9eac 8e39 2ea3 96bb
00000020: 6016 98bb e65d b53b c623 95bb b161 1d3b
00000030: d94e cd3b 1868 67bc 8e25 c8bb 44b9 f83b
00000040: 9809 4fbb f2ca ecbb 3086 e53b 19bb 65bb

weight f4 [20, 20, 3, 3]
-0.013110111 -0.0144570675 -0.02206127 -0.006321689 -0.02688667 -0.004840353 0.006606613 -0.008280425
-0.0031325337 -0.04229778 -0.009846508 -0.012892303 0.0035506417 -0.019944476 0.0066747162 0.008392724
-0.0027578743 -0.022962615 0.014910381 0.008630514 -0.03177138 -0.0040701358 0.01741813 -0.009588626
-0.032335572 0.022684062 -0.00947538 0.010335249 0.01722318 0.0018088266 -0.00590166 0.032977637
-0.04468294 -0.020449266 0.009045949 0.017217478 -0.016068757 -0.03798754 -0.007835019 -0.020193411
-0.013835858 0.022724139 0.021829125 -0.016044667 0.03210539 -0.0016155497 0.03272452 -0.036171645
-0.0089393705 -0.03210521 0.020214897 -0.011885518 -0.038794294 0.010178187 0.018262397 0.031539988
0.01786027 -0.012368395 -0.009385851 0.012818899 0.00612001 -0.0110611105 0.00048788922 0.0062120557
0.007885676 0.019572567 -0.028257899 -0.022136077 -0.004951261 0.032767925 0.015079712 0.014441547
0.012278432 0.0068835244 -0.009092485 4.02251e-05 0.016223656 -0.002627184 0.003098736 0.018720685
-0.031782657 -0.026816735 -0.011886175 0.008212439 -0.0455354 -0.008304778 0.027369553 0.00010932683
-0.020923689 0.0012459385 0.0031448787 0.0012803068 0.004556104 0.008344416 -0.016167864 -0.010811073
-0.01826571 0.009332007 0.011146756 -0.008572779 0.0035516676 0.000331847 0.0062046684 -0.014140948
0.013599205 -0.00915402 -0.030267445 0.0067960634 -0.020481924 -0.020415956 0.027815236 -0.022455728
-0.008979366 0.025796399 -0.02601158 0.015781395 0.012905312 -0.0062745884 -0.019150905 -0.010078105
0.0016974028 0.0012933948 0.021804055 0.01765612 0.010585166 0.025309525 -0.010237328 0.0046033696
-0.010276792 0.04599314 0.0014853732 -0.0033036673 -0.002961644 -0.021677561 -0.017968839 0.0040914617
0.01926393 0.00045663663 -0.033815447 -0.0119184675 0.017097864 0.028547032 0.008035628 -0.03137066
-0.0044904314 0.018670777 0.027353706 -0.030036274 0.0056661298 -0.01779732 0.0040513333 -0.01810501
0.02155602 0.009445904 0.0129649015 -0.0042872657 -0.049108285 0.019247442 0.006413937 0.011066171
-0.00804002 -0.013574199 -0.0061179283 -0.043463733 -0.016261572 -0.013454613 -0.0019609677 0.013509598
0.005632684 0.001351666 -0.021257173 -0.027127558 -0.0051277513 -0.02456282 -0.011633927 -0.0454629
-0.0076099546 -0.04222916 -0.029480178 -0.029934088 0.011681282 -0.02002226 -0.0050552827 0.0007500135
0.013371494 0.0150978165 -0.008808017 0.009674211 -0.009618524 -0.034593895 0.0038396735 -0.01885531
-0.01273706 0.019190794 -0.014085276 0.006471049 0.012907298 -0.0041777347 -0.009557577 -0.023960132
-0.02436266 -0.01368257 -0.0048087155 0.006390908 -0.031707354 -0.005686589 -0.0065270867 0.016406972
-0.025313955 0.0065488005 -0.027828313 -0.005147755 -0.015775843 0.045366123 0.0033063984 -0.0040328098
-0.013692101 -0.021707337 0.004231632 0.02801719 0.01719621 -0.007020161 0.0149734095 -0.027160624
0.010311398 -0.013549105 -0.0070776534 0.011591228 -0.012797012 -0.008759007 -0.0048552235 -0.010427571
-0.027124897 -0.005380555 -0.0016751596 -0.004355146 0.0030471154 -0.0007621155 -0.025569513 -0.034610704
0.055489823 -0.027191577 -0.03522707 0.00215512 -0.008122827 0.0018633107 -0.024682825 0.035841323
0.013843326 0.012675754 0.011284352 0.022833029 -0.026405493 0.034213148 0.02332684 -0.003427084
00000000: cacb 56bc 56dd 6cbc d6b9 b4bc 2c26 cfbb
00000010: 6f41 dcbc d39b 9ebb 497c d83b 9faa 07bc
00000020: 324b 4dbb 7040 2dbd 3f53 21bc 3d3a 53bc
00000030: e2b1 683b 9962 a3bc 94b7 da3b a381 093c
00000040: 74bd 34bb 181c bcbc ac4a 743c 0067 0d3c
00000050: b522 02bd c65e 85bb 77b0 8e3c 9d19 1dbc
00000060: 4e72 04bd edd3 b93c a03e 1bbc 2d55 293c
00000070: a017 8d3c 2616 ed3a b662 c1bb 8f13 073d
00000080: 7505 37bd 3885 a7bc 7635 143c ab0b 8d3c
00000090: a0a2 83bc d398 1bbd 745e 00bc a76c a5bc
000000a0: cbaf 62bc f927 ba3c fed2 b23c 1b70 83bc
000000b0: f180 033d dac0 d3ba 250a 063d b828 14bd
000000c0: 7076 12bc c180 03bd b699 a53c 7abb 42bc
000000d0: c4e6 1ebd 69c2 263c 069b 953c 1330 013d
000000e0: b34f 923c cfa4 4abc 1dc7 19bc 5c06 523c
000000f0: 5d8a c83b a939 35bc 62cb ff39 808e cb3b
00000100: ec32 013c a656 a03c 1c7d e7bc b856 b5bc
00000110: 303e a2bb a937 063d e510 773c 3d9c 6c3c
00000120: 7a2b 493c 308f e13b a5f8 14bc 5fb7 2838
00000130: 79e7 843c d52c 2cbb 2a14 4b3b 1f5c 993c
00000140: 882e 02bd c5ae dbbc 3bbe 42bc 778d 063c
00000150: 5483 3abd c310 08bc 1d36 e03c 6546 e538
00000160: 2868 abbc c24e a33a 4f1a 4e3b f8cf a73a
00000170: 5f4b 953b 04b7 083c 7872 84bc ed20 31bc
00000180: f8a1 95bc 46e5 183c e2a0 363c d774 0cbc
00000190: 18c3 683b c0fb ad39 8850 cb3b 6faf 67bc
000001a0: 33cf 5e3c befa 15bc 6ff3 f7bc 83b1 de3b
000001b0: b5c9 a7bc 5d3f a7bc c7dc e33c 13f5 b7bc
000001c0: 311e 13bc f852 d33c 3d16 d5bc fc47 813c
000001d0: cd70 533c 109b cdbb 5ce2 9cbc a31e 25bc
000001e0: 637b de3a 2187 a93a 6b9e b23c 91a3 903c
000001f0: 676d 2d3c ec55 cf3c 77ba 27bc ddd7 963b
00000200: fd5f 28bc 4e63 3c3d dbb0 c23a 5782 58bb
00000210: 2418 42bb 2495 b1bc 6333 93bc ab11 863b
00000220: 64cf 9d3c bb68 ef39 1182 0abd ad45 43bc
00000230: d210 8c3c 77db e93c dea7 033c 857e 00bd
00000240: 7824 93bb 75f3 983c e114 e03c a20e f6bc
00000250: f1aa b93b afcb 91bc 0cc1 843b f550 94bc
00000260: 4096 b03c fec2 1a3c bd6a 543c 317c 8cbb
00000270: c525 49bd d0ac 9d3c 012c d23b e34e 353c
00000280: 4aba 03bc 5166 5ebc e778 c8bb 0707 32bd
00000290: fd36 85bc bd70 5cbc 9483 00bb 5c57 5d3c
000002a0: 6192 b83b 632a b13a 8623 aebc 9d3a debc
000002b0: b206 a8bb f837 c9bc 3a9c 3ebc 4e37 3abd
000002c0: ed5c f9bb 7cf8 2cbd 6a80 f1bc 5538 f5bc
000002d0: d962 3f3c b905 a4bc c9a6 a5bb 8e9c 443a
000002e0: 1c14 5b3c d55c 773c 804f 10bc 9580 1e3c
000002f0: 0497 1dbc 54b2 0dbd 08a3 7b3b 7376 9abc
00000300: 1aaf 50bc 0336 9d3c eec5 66bc 180b d43b
00000310: 2279 533c 61e5 88bb 6297 1cbc 0a48 c4bc
00000320: 3394 c7bc dc2c 60bc 6e92 9dbb d26a d13b
00000330: 92df 01bd 9156 babb 2ce1 d5bb ea67 863c
00000340: 365f cfbc 5297 d63b 34f8 e3bc 80ae a8bb
00000350: 573c 81bc d4d1 393d 29b0 583b a925 84bb
00000360: d654 60bc 96d3 b1bc 81a9 8a3b 4e84 e53c
00000370: 11df 8c3c 6109 e6bb 0853 753c f57f debc
00000380: 23f1 283c 11fd 5dbc a9eb e7bb 22e9 3d3c
00000390: 8faa 51bc f081 0fbc 9118 9fbb 67d8 2abc
000003a0: 0835 debc 5e4f b0bb 0791 dbba 9db5 8ebb
000003b0: 1db2 473b b5c8 47ba 2877 d1bc f4c3 0dbd
000003c0: 4c49 633d dfc0 debc 434a 10bd ea3c 0d3b
000003d0: 9b15 05bc 553a f43a a333 cabc 5ace 123d
000003e0: 1ecf 623c f7ad 4f3c 01e2 383c 550c bb3c
000003f0: 5550 d8bc 1623 0c3d ee17 bf3c ee98 60bb

bias f4 [20]
0.016749332 -0.05730961 -0.014538347 0.013629577 0.007512929 0.055105828 0.04025877 0.00780188
0.052907843 -0.070408635 0.01277808 -0.0020708202 -0.04746341 -0.013130248 -0.02280138 -0.07165735
0.005573258 0.07428983 -0.05017075 -0.00854993
00000000: e535 893c 7bbd 6abd 3f32 6ebc 974e 5f3c
00000010: 042f f63b a6b6 613d 61e6 243d eaa6 ff3b
00000020: e5b5 583d 6732 90bd 275b 513c 99b6 07bb
00000030: fe68 42bd 4020 57bc f6c9 babc 17c1 92bd
00000040: e09f b63b 4425 983d d87f 4dbd 0115 0cbc

running_mean f4 [20]
0.01993161 -0.050134864 -0.0023745808 0.0026067097 -0.0024365082 0.05363885 0.034174647 0.019086925
0.059824113 -0.0833171 -0.018903997 -0.017538188 -0.031770617 -0.03582315 -0.06427302 -0.07118316
-0.008680253 0.057664108 -0.046356507 -0.0032599645
00000000: 9e47 a33c 375a 4dbd db9e 1bbb 55d5 2a3b
00000010: d3ad 1fbb 69b4 5b3d b7fa 0b3d 2f5c 9c3c
00000020: 210a 753d 28a2 aabd 8edc 9abc 3fac 8fbc
00000030: e821 02bd 4cbb 12bd 93a1 83bd 7ac8 91bd
00000040: 9f37 0ebc 3331 6c3d 52e0 3dbd 21a5 55bb

running_var f4 [20]
0.13429236 0.10415136 0.05611354 0.0778256 0.077272765 0.042951763 0.08779012 0.075731315
0.2692734 0.097926795 0.085957475 0.032815482 0.07680419 0.09703904 0.06274544 0.09220769
0.07832704 0.068077035 0.11438464 0.05257772
00000000: f083 093e 4f4d d53d 50d7 653d 0763 9f3d
00000010: 2f41 9e3d 30ee 2f3d 4ecb b33d 0519 9b3d
00000020: 34de 893e d88d c83d 790a b03d 8769 063d
00000030: 844b 9d3d 67bc c63d ae80 803d 63d7 bc3d
00000040: ed69 a03d f96b 8b3d 7e42 ea3d bc5b 573d

weight f4 [20]
1.0128535 0.9941452 0.9343009 0.9895369 1.0067974 1.0194128 0.9980439 0.9648461
1.0102882 1.0018862 0.98211324 1.0092025 1.0033914 0.97536904 0.98023075 0.9944993
1.0017549 1.0135044 0.9888131 0.99201876
00000000: 2fa5 813f 4d80 7e3f 582e 6f3f 4a52 7d3f
00000010: bdde 803f 1e7c 823f ce7f 7f3f 2700 773f
00000020: 2051 813f cf3d 803f c66b 7b3f 8c2d 813f
00000030: 216f 803f c9b1 793f 67f0 7a3f 8297 7e3f
00000040: 8139 803f 83ba 813f db22 7d3f f1f4 7d3f

bias f4 [20]
0.008498719 0.003367507 -0.0015675522 0.009671852 0.0062361024 0.0018232777 0.0010896997 -0.0042811255
0.0033442585 0.003756146 0.008773059 0.020483032 0.003249028 0.003081128 -0.0011853883 0.0012576731
0.007489512 0.00365935 0.002810054 0.00604981
00000000: 363e 0b3c 64b1 5c3b 5376 cdba b076 1e3c
00000010: 3858 cc3b 0cfb ee3a 41d4 8e3a af48 8cbb
00000020: 592b 5b3b ac29 763b e0bc 0f3c 08cc a73c
00000030: a5ed 543b c0ec 493b 085f 9bba 82d8 a43a
00000040: 956a f53b b5d1 6f3b e228 383b 7c3d c63b

weight f4 [20, 20, 3, 3]
-0.042124506 -0.022964155 -0.032063503 -0.0021427777 0.023364546 0.00748207 0.009782246 0.026538389
0.01767996 0.024677498 -0.008633851 -0.024621844 0.0017857305 0.033811763 -0.0048569124 0.004116637
-0.030834692 0.016793715 -0.02224767 -0.020155316 0.006608588 -0.0030033973 0.016851135 -0.008699379
-0.027538951 -0.026504012 0.023742186 0.009749669 -0.016915178 -0.009913637 -0.031753995 -0.037476007
0.025428006 -0.0033851697 0.021187298 -0.01667598 0.028130483 -0.009138976 -0.012070291 -0.012575807
0.031973828 0.032171868 -0.009026395 -0.010428224 -0.009638492 0.009700884 0.0032709641 -0.042365633
0.0049478034 -0.039905265 -0.015815757 -0.009739003 -0.0138542885 0.0155747 0.015419708 -0.010143392
-0.008420624 -0.02788172 0.031550597 -0.011164275 -0.02109088 0.01621827 -0.02659749 -0.018519087
0.006921805 -0.019596161 -0.024256274 0.017245809 0.004630941 0.0035775125 0.00458381 0.01870798
-0.014117594 -0.02351444 0.009148146 0.011244585 -0.0051033995 -0.019407867 0.01182037 -0.023847342
0.016429802 0.01626529 0.0067883213 -0.00421489 -0.008033657 0.017827889 0.0070278244 0.0004474731
-0.041005082 0.039673112 -0.029835226 -0.028285265 -0.0038589614 -0.0009338408 -0.0018462793 0.05009425
-0.00066977623 -0.03289104 0.013220019 -0.012195402 -0.0026699111 -0.03198 -0.026945274 0.019420229
-0.0004914745 0.013673825 -0.006547353 0.028234197 0.0025454916 0.024992332 0.035169426 0.0007477291
0.016751302 0.008209831 -0.0062602903 -0.018368114 0.012656789 -0.005311483 0.032863855 -0.003503602
-0.012281055 0.013556198 0.024418168 0.01095577 0.008049422 -0.008427507 -0.0058960915 0.009502119
-0.013737385 0.011149037 -0.0008499123 -0.0090268385 -0.012720471 0.03610719 0.003560518 -0.016761454
-0.015017413 0.015255511 0.011884308 0.018854877 -0.00632688 -0.028764013 -0.03186365 -0.0026767969
-0.013935114 -0.027017819 0.012538547 -0.040940512 0.026900217 0.017523775 -0.005651688 0.0383796
-0.008866517 -0.032728646 -0.0019346162 -0.0005896992 -0.02375589 0.0110819945 0.00552504 0.028243609
0.0032152082 -0.0033095663 0.006029617 0.024880914 -0.011716033 -0.029217195 0.018619798 0.01961502
-0.01455324 0.0021505577 -0.015120765 0.018727602 0.00864463 -0.0039950125 -0.013785279 0.02189872
0.013197815 -0.0036722512 0.04173942 -0.016046237 0.0058903764 -0.012957584 -0.0073815547 0.021154039
-0.0055803494 -0.0058079744 -0.024491273 0.002659547 -0.00036969993 -0.02166117 0.025827589 -0.010117201
0.005856401 0.012344861 0.029056834 -0.0027220626 0.020091768 0.010038753 0.005520922 -0.040493757
0.028132474 -0.052073833 0.007249846 -0.0023893032 0.036059316 0.014797325 -0.029222203 -0.017191028
0.008266324 0.016641274 0.022690149 0.013078501 0.015761686 -0.010691784 0.027178116 0.025794864
0.02763216 -0.03555875 0.020182794 -0.006846583 0.008958549 -0.03216914 0.04415448 9.3575545e-05
0.025569053 0.048310373 0.007758386 -0.013191754 0.0065053455 -0.0099478755 0.015060749 0.008168429
-0.013799277 -0.01926752 0.009318429 0.021212649 0.0033459193 -0.058023933 -0.007208729 0.029943153
-0.0030096343 0.012753442 -0.032976262 -0.037492383 -0.024405412 0.00039657106 0.0023015214 0.01617753
0.014598968 -0.036526915 -0.003921628 -0.01918886 0.020564135 -0.013971632 0.010295471 -0.008482504
00000000: bf8a 2cbd 531f bcbc 0555 03bd d86d 0cbb
00000010: 0167 bf3c 272c f53b b745 203c 0967 d93c
00000020: 90d5 903c 7728 ca3c ff74 0dbc c0b3 c9bc
00000030: 2c0f ea3a 347e 0a3d bc26 9fbb dbe4 863b
00000040: 0999 fcbc f992 893c bf40 b6bc c31c a5bc
00000050: db8c d83b a5d4 44bb 640b 8a3c d787 0ebc
00000060: 5e99 e1bc f11e d9bc f97e c23c 13bd 1f3c
00000070: b391 8abc cf6c 22bc 7a10 02bd 7180 19bd
00000080: 654e d03c b9d9 5dbb fc90 ad3c 119c 88bc
00000090: e671 e63c a5bb 15bc 78c2 45bc c20a 4ebc
000000a0: fdf6 023d a6c6 033d 72e3 13bc 24db 2abc
000000b0: c4ea 1dbc 75f0 1e3c ac5d 563b 9687 2dbd
000000c0: 2f21 a23b b473 23bd 0c90 81bc 5790 1fbc
000000d0: 19fd 62bc 072d 7f3c f1a2 7c3c 7830 26bc
000000e0: a8f6 09bc 3468 e4bc 333b 013d 5dea 36bc
000000f0: c8c6 acbc 2ddc 843c fbe2 d9bc 57b5 97bc
00000100: 4fd0 e23b 2188 a0bc 18b5 c6bc 1547 8d3c
00000110: 26bf 973b b374 6a3b c933 963b 7a41 993c
00000120: 7b4d 67bc 5ba1 c0bc 1be2 153c 353b 383c
00000130: 6b3a a7bb 3ffd 9ebc 3aaa 413c 805b c3bc
00000140: cb97 863c c93e 853c 9170 de3b 0f1d 8abb
00000150: 9a9f 03bc cb0b 923c aa49 e63b d39a ea39
00000160: f2f4 27bd 4680 223d 0169 f4bc 80b6 e7bc
00000170: a1e6 7cbb ffcc 74ba dafe f1ba a12f 4d3d
00000180: ec93 2fba c1b8 06bd c798 583c 39cf 47bc
00000190: adf9 2ebb 76fd 02bd 56bc dcbc 2c17 9f3c
000001a0: 4cd6 00ba 2e08 603c 2e8b d6bb 674b e73c
000001b0: 43d2 263b b8bc cc3c d10d 103d 4003 443a
000001c0: 073a 893c 8782 063c 1f23 cdbb ba78 96bc
000001d0: 6c5e 4f3c f30b aebb 409c 063d b09c 65bb
000001e0: 7a36 49bc d11a 5e3c 9c08 c83c d47f 333c
000001f0: b9e1 033c 8713 0abc 0034 c1bb c7ae 1b3c
00000200: c512 61bc 73aa 363c a6cc 5eba 4ee5 13bc
00000210: 8669 50bc 22e5 133d 9457 693b 514f 89bc
00000220: 980b 76bc 40f2 793c 67b6 423c 8b75 9a3c
00000230: b751 cfbb 82a2 ebbc 7583 02bd 336d 2fbb
00000240: 1b50 64bc 7954 ddbc 7a6e 4d3c 3db1 27bd
00000250: d85d dc3c 058e 8f3c cc31 b9bb ed33 1d3d
00000260: de44 11bc 790e 06bd f392 fdba 0b96 1aba
00000270: b69b c2bc 4191 353c 650b b53b 245f e73c
00000280: 3eb6 523b 4fe5 58bb 1894 c53b 0fd3 cb3c
00000290: 9bf4 3fbc e658 efbc 8c88 983c aeaf a03c
000002a0: b670 6ebc 5ff0 0c3b 16bd 77bc a16a 993c
000002b0: 35a2 0d3c 98e8 82bb a7db 61bc f264 b33c
000002c0: a63b 583c 27aa 70bb f4f6 2a3d 6673 83bc
000002d0: 0f04 c13b 0c4c 54bc f8e0 f1bb 3c4b ad3c
000002e0: 5ddb b6bb d250 bebb eca1 c8bc cb4b 2e3b
000002f0: 49d4 c1b9 c472 b1bc 6194 d33c 9ec2 25bc
00000300: 0de7 bf3b 1a42 4a3c 9908 ee3c a264 32bb
00000310: 7e97 a43c 9579 243c dae8 b43b c8dc 25bd
00000320: 1376 e63c 5f4b 55bd 1e90 ed3b db95 1cbb
00000330: efb2 133d 7b70 723c 6763 efbc 33d4 8cbc
00000340: 7a6f 073c 4853 883c b1e0 b93c 3647 563c
00000350: a71e 813c 982c 2fbc a4a4 de3c c04f d33c
00000360: d75c e23c 0da6 11bd 6356 a53c 4d59 e0bb
00000370: e1c6 123c cac3 03bd 54db 343d fd3d c438
00000380: 3176 d13c 19e1 453d 0f3a fe3b 3a22 58bc
00000390: cb2a d53b 6afc 22bc 5cc1 763c e0d4 053c
000003a0: 5d16 62bc ebd6 9dbc 53ac 183c 26c6 ad3c
000003b0: 3647 5b3b 81aa 6dbd 3437 ecbb 584b f53c
000003c0: 493d 45bb d0f3 503c 1e12 07bd 9d91 19bd
000003d0: dced c7bc deea cf39 1fd5 163b bd86 843c
000003e0: 8330 6f3c 3f9d 15bd 0081 80bb f531 9dbc
000003f0: 1e76 a83c 46e9 64bc 56ae 283c 33fa 0abc

bias f4 [20]
0.04367064 -0.065180086 -0.0616348 0.032644812 -0.057540793 -0.019139733 -0.015399988 0.062808804
-0.055574123 -0.0113839125 0.058375675 0.05252667 -0.072538026 -0.057413746 0.03676453 -0.029237278
0.053008366 0.021589221 0.05373431 -0.0330821
00000000: fcdf 323d 237d 85bd c674 7cbd 91b6 053d
00000010: e5af 6bbd eeca 9cbc 3b50 7cbc e7a1 803d
00000020: b1a1 63bd 9783 3abc 551b 6f3d 3526 573d
00000030: d18e 94bd ad2a 6bbd 6796 163d 0483 efbc
00000040: 4d1f 593d e1db b03c 8218 5c3d 1981 07bd

running_mean f4 [20]
0.02305852 -0.014999517 -0.16997199 0.03172405 -0.066403195 0.0044835303 -0.051175833 0.23433053
0.0059233992 -0.002093183 0.039184544 -0.0050594895 0.0100874575 -0.14356242 0.120761886 -0.03781467
-0.03391667 -0.0028247447 0.10453813 0.018731387
00000000: 39e5 bc3c 89c0 75bc 230d 2ebe 14f1 013d
00000010: 66fe 87bd 94ea 923b c09d 51bd 58f4 6f3e
00000020: 1319 c23b c92d 09bb f97f 203d 13ca a5bb
00000030: dd45 253c 0702 13be 0252 f73d 8ee3 1abd
00000040: 35ec 0abd 5a1f 39bb 1618 d63d 9172 993c

running_var f4 [20]
0.01287847 0.014163341 0.023698187 0.011019465 0.022206385 0.017565317 0.025043633 0.048325885
0.032370985 0.0253798 0.017841645 0.032540195 0.0120960325 0.03184871 0.013838706 0.0131856715
0.05194935 0.037805725 0.05596819 0.027317815
00000000: 3800 533c 5c0d 683c b322 c23c fc8a 343c
00000010: 2aea b53c 24e5 8f3c 4e28 cd3c 5df1 453d
00000020: 7097 043d 4ce9 cf3c a428 923c de48 053d
00000030: 702e 463c cb73 023d bdbb 623c b708 583c
00000040: d7c8 543d 2dda 1a3d e73e 653d 9cc9 df3c

weight f4 [20]
0.9830039 0.9613929 0.9995257 1.0025789 1.0374697 0.9926364 1.0211729 0.9648935
0.9872864 0.99827105 0.9893553 0.99967605 1.0368701 1.0258073 1.0156118 1.0248445
0.9917565 0.9882577 0.99247587 0.9904286
00000000: 25a6 7b3f d81d 763f ebe0 7f3f 8154 803f
00000010: cfcb 843f 6b1d 7e3f cbb5 823f 4303 773f
00000020: cdbe 7c3f b18e 7f3f 6446 7d3f c5ea 7f3f
00000030: 29b8 843f a74d 833f 91ff 813f 1b2e 833f
00000040: c1e3 7d3f 75fe 7c3f e612 7e3f bb8c 7d3f

bias f4 [20]
0.000690658 -0.004014466 -0.00036125936 -0.012461259 -0.011720835 0.0020075752 -0.0016275763 -0.004383701
-0.00704325 0.0015625855 -0.0004916262 -0.0011584531 0.00082902255 -0.01252177 -0.0052571786 0.0012758457
-0.00089433405 -0.0071155154 0.0024370004 -0.0055722687
00000000: 460d 353a c88b 83bb 6967 bdb9 4f2a 4cbc
00000010: bf08 40bc 8691 033b 6654 d5ba 26a5 8fbb
00000020: 10cb e6bb abcf cc3a 7ae0 00ba 3cd7 97ba
00000030: c352 593a 1c28 4dbc 6944 acbb 473a a73a
00000040: be71 6aba 4529 e9bb 15b6 1f3b 9497 b6bb

weight f4 [20, 20, 3, 3]
0.023187624 0.01508604 -0.016319105 -0.0012066034 0.019740595 0.028209599 0.005586119 -0.0043451833
0.010552752 -0.023997543 -0.024620641 0.007598653 -0.013959712 -0.011904121 0.006520336 -0.014477875
0.0019838177 -0.019785836 -0.0054154964 -0.012133214 -0.0133188795 -0.008439731 0.02772334 -0.006603296
-0.032167755 -0.000224593 0.027217077 0.013343302 -0.020204619 -0.0070686117 -0.02234263 0.006176149
-0.011452837 0.0075990777 -0.032787472 0.015703006 -0.008383055 -0.020217242 0.0050144894 0.00023372899
-0.005422043 -0.009824244 -0.0009511241 -0.011259388 0.0037167089 -0.021380577 -0.027304525 -0.022068864
0.008099755 -0.003364849 -0.023307342 0.009206188 0.010842046 -0.00451065 0.02512932 0.01895804
0.03510066 0.003729395 0.0061437325 0.013427671 0.008854525 0.028527109 0.015084403 0.020246916
0.0067938273 0.019492282 0.002120528 -0.031417087 0.018229581 -0.01582236 0.024660083 0.013880689
-0.028152116 0.00015517542 -0.0069203274 0.034600265 0.039034 -0.022688175 -0.0022875527 -0.019763492
-0.040747024 0.016211718 -0.0074359733 0.029442359 0.04033996 0.00035573894 0.012010745 -0.012536117
-0.033728562 -0.003308179 0.0013510832 0.0071417275 0.027113607 0.007506279 0.0012737799 -0.016336909
-0.002979241 0.05399209 0.018641679 -0.01306435 -0.0006283235 -0.014146514 0.00033569432 0.040536977
-0.0356473 -0.0061895354 -0.02506521 0.0108698895 0.019943569 -0.0028145206 0.011117214 0.017305365
0.013682543 0.0022337136 -0.018730579 0.030781733 0.032179788 0.007101998 0.003977988 0.0013577885
-0.015799278 0.023635622 0.021633204 0.015309393 -0.02228991 0.000450425 -0.041792776 -0.0074828216
-0.018291308 0.0026806935 0.016032012 -0.013479589 -0.008354551 -0.049367696 -0.011728963 0.006918399
-0.03464722 0.012820271 0.0040766327 0.008394596 -0.0033357271 -0.0107086515 0.0048468644 0.009495706
0.020976417 -0.0029949443 -0.0067326683 -0.013642902 -0.034767978 -0.0039316886 0.033287305 0.0058244476
0.0014468255 0.027581543 0.006758189 -0.024957597 -0.035313502 -0.020766567 0.0074464283 0.0035942523
-0.011276283 0.010485478 0.0037083765 0.03120106 0.011039497 -0.0026656091 0.0020603216 0.0023862165
-0.034104943 0.011497249 0.023534551 -0.045853153 0.00941761 -0.008012972 -0.019355534 -0.018976403
0.014428138 -0.040436383 -0.028845107 0.011592855 0.006539897 -0.014424009 -0.017563745 0.042257216
-0.010078561 -0.020089678 0.0057346374 0.005048661 0.0027697845 -0.01739401 0.019661738 -0.012701285
0.0067520067 0.051077828 0.005922926 0.004885023 0.012611873 -0.027239582 0.0060450584 0.005041102
-0.031560246 -0.011249794 0.008890401 -0.035005257 -0.0029451128 0.011361346 -0.025637498 -0.010788633
-0.005494545 0.038556464 0.045512795 -0.05442354 0.04811262 -0.0058731586 -0.0101674935 0.034533523
-0.010844599 -0.04304967 -0.030068776 -0.004236143 0.019451156 -0.022063734 -0.029426588 -0.0041865725
0.017515726 0.010949805 -0.018129969 0.0059380857 -0.0051331716 -0.016167482 0.008279124 0.00011315418
0.010016749 0.023448113 0.009712074 0.00665043 0.018336944 -0.023189882 0.025300967 0.0009837869
0.003622594 -0.0027952616 0.004769641 0.02014196 0.016494133 -0.0038704895 0.03639234 0.026674055
0.030172503 -0.04220642 -0.0011651128 0.027908962 0.03378566 -0.0029880132 0.003894846 0.0015241734
00000000: f9f3 bd3c 702b 773c a5af 85bc e426 9eba
00000010: 07b7 a13c d117 e73c c30b b73b 0a62 8ebb
00000020: 73e5 2c3c 7f96 c4bc 3ab1 c9bc 1ffe f83b
00000030: 47b7 64bc 8109 43bc 8ba8 d53b 9c34 6dbc
00000040: f002 023b e815 a2bc 7a74 b1bb 63ca 46bc
00000050: 6e37 5abc cc46 0abc 0f1c e33c 7660 d8bb
00000060: 56c2 03bd b980 6bb9 59f6 de3c dd9d 5a3c
00000070: 2884 a5bc d09f e7bb e407 b7bc 4b61 ca3b
00000080: aea4 3bbc af01 f93b 284c 06bd 97a3 803c
00000090: 1559 09bc a19e a5bc 9650 a43b 2615 7539
000000a0: 65ab b1bb def5 20bc dc54 79ba 4c79 38bc
000000b0: 0794 733b 5226 afbc bdad dfbc c3c9 b4bc
000000c0: d6b4 043c cc84 5cbb 0aef bebc 8dd5 163c
000000d0: d6a2 313c 13ce 93bb 01dc cd3c e44d 9b3c
000000e0: b6c5 0f3d de68 743b 5d51 c93b bcff 5b3c
000000f0: 9212 113c afb1 e93c 9224 773c dcdc a53c
00000100: c19e de3b 47ae 9f3c 8ef8 0a3b 34af 00bd
00000110: 3456 953c e59d 81bc f103 ca3c d46b 633c
00000120: 449f e6bc 96b6 2239 eac3 e2bb 02b9 0d3d
00000130: 1ee2 1f3d 8ddc b9bc c4ea 15bb 0ce7 a1bc
00000140: 5ae6 26bd 70ce 843c 77a9 f3bb 1a31 f13c
00000150: 843b 253d 7982 ba39 b7c8 443c 4964 4dbc
00000160: f626 0abd 09ce 58bb d416 b13a 2705 ea3b
00000170: 5b1d de3c 3bf7 f53b f6f4 a63a fbd4 85bc
00000180: 5f3f 43bb cf26 5d3d 6fb6 983c db0b 56bc
00000190: 14b6 24ba c8c6 67bc 2100 b039 1a0a 263d
000001a0: e702 12bd 96d1 cabb 8e55 cdbc 9f17 323c
000001b0: b260 a33c d273 38bb fa24 363c fbc3 8d3c
000001c0: bf2c 603c 7f63 123b df70 99bc f929 fc3c
000001d0: f4ce 033d e1b7 e83b c859 823b d2f7 b13a
000001e0: 7d6d 81bc 7e9f c13c 1e38 b13c 40d4 7a3c
000001f0: 5499 b6bc 0527 ec39 e72e 2bbd 7532 f5bb
00000200: a7d7 95bc 93ae 2f3b 9155 833c 7ed9 5cbc
00000210: 87e1 08bc c835 4abd d62a 40bc bdb3 e23b
00000220: 3eea 0dbd 1d0c 523c 4695 853b 7d89 093c
00000230: 379c 5abb 5773 2fbc 72d2 9e3b e193 1b3c
00000240: bcd6 ab3c d446 44bb b79d dcbb 7a86 5fbc
00000250: de68 0ebd 65d5 80bb 4558 083d 02db be3b
00000260: 68a3 bd3a b0f2 e13c cc73 dd3b e073 ccbc
00000270: e4a4 10bd a61e aabc 2b01 f43b 8c8d 6b3b
00000280: 29c0 38bc 48cb 2b3c 3c08 733b 5e99 ff3c
00000290: 02df 343c 80b1 2ebb 7606 073b 1262 1c3b
000002a0: a0b1 0bbd f55e 3c3c 88cb c03c 84d0 3bbd
000002b0: 524c 1a3c d748 03bc 7f8f 9ebc 6774 9bbc
000002c0: ff63 6c3c 9fa0 25bd 934c ecbc f5ef 3d3c
000002d0: a24c d63b ae52 6cbc d8e1 8fbc e715 2d3d
000002e0: 8c20 25bc 1c93 a4bc a0e9 bb3b 3d6f a53b
000002f0: 4685 353b e27d 8ebc a711 a13c 0d19 50bc
00000300: f03f dd3b fc36 513d 1b15 c23b 8b12 a03b
00000310: 08a2 4e3c 8b25 dfbc a015 c63b d42f a53b
00000320: 5145 01bd 0e51 38bc 0ba9 113c ac61 0fbd
00000330: cb02 41bb f024 3a3c bb05 d2bc cec2 30bc
00000340: 960b b4bb 62ed 1d3d a06b 3a3d 38eb 5ebd
00000350: bd11 453d a073 c0bb 8f95 26bc 0673 0d3d
00000360: 8cad 31bc da54 30bd cb52 f6bc 58cf 8abb
00000370: 0858 9f3c 01bf b4bc 0710 f1bc 842f 89bb
00000380: 247d 8f3c d066 333c 4d85 94bc 4694 c23b
00000390: 2a34 a8bb ab71 84bc 2aa5 073c 304d ed38
000003a0: 4a1d 243c 4216 c03c 641f 1f3c daeb d93b
000003b0: 5c37 963c b5f8 bdbc f943 cf3c 69f2 803a
000003c0: 0b69 6d3b b530 37bb a64a 9c3b c000 a53c
000003d0: b41e 873c 0aa8 7dbb 2210 153d 8c83 da3c
000003e0: 532c f73c a4e0 2cbd b3b6 98ba 56a1 e43c
000003f0: d562 0a3d 8bd2 43bb ac40 7f3b c6c6 c73a

bias f4 [20]
0.008272084 0.02913496 -0.00960345 -0.05668144 0.009692817 0.03837236 -0.023867372 0.026338268
0.0015260747 -0.038605526 -0.048167255 -0.038479466 0.04892558 0.006226163 0.031919926 0.016174046
-0.038437095 0.0010285944 -0.0017002693 0.024667183
00000000: a387 073c 71ac ee3c ca57 1dbc cc2a 68bd
00000010: 9fce 1e3c 562c 1d3d 8285 c3bc 5ac3 d73c
00000020: 9206 c83a d420 1ebd 074b 45bd a59c 1dbd
00000030: 3066 483d d704 cc3b 78be 023d 6f7f 843c
00000040: 3770 1dbd e7d1 863a 92db deba d512 ca3c

running_mean f4 [20]
0.04737603 0.008656945 0.008181847 -0.018330527 -0.003310511 0.05832043 -0.044586994 0.062259365
0.059194308 -0.018584682 -0.016909767 -0.0034621963 0.058732178 -0.009325827 0.06919198 -0.012586041
-0.015385115 0.0051279096 -0.0061941664 0.038377263
00000000: 5e0d 423d dcd5 0d3c 270d 063c e729 96bc
00000010: 28f5 58bb 67e1 6e3d daa0 36bd ad03 7f3d
00000020: bb75 723d e73e 98bc 5a86 8abc 04e6 62bb
00000030: 2791 703d 5acb 18bc 86b4 8d3d af35 4ebc
00000040: d911 7cbc 0608 a83b 6ff8 cabb 7a31 1d3d
