Generator.pt (torch_old, 616401 bytes, 203 tensors)

weight f4 [20, 1, 9, 9]
000000 7a 5d 85 bc f9 d7 b3 ba 05 68 dd 3b 0c de 1b 3b
       -0.016279925 -0.0013720981 0.006756785 0.0023783473
000010 91 59 97 3c f4 14 3d bc d9 3a 4b bb 2a 36 d3 bb
       0.018475326 -0.01154064 -0.0031010418 -0.006445666
000020 24 1e f5 bc bd 58 ee 3c 13 55 e4 bc 00 56 59 bc
       -0.029921599 0.029095048 -0.027872598 -0.013265133
000030 f4 cd ad bc 11 ba 9b bc 32 7b 8e 3c 6a 0f 73 3b
       -0.02121637 -0.019009622 0.017392728 0.0037088045
000040 ab bd 00 bc 85 c4 20 bc 4a 8b 6b bc a2 3b 72 3c
       -0.00785772 -0.009812479 -0.014376471 0.014784725
000050 2f 2c dd bc 3f 14 42 3b f0 19 46 3c c4 48 8a 3c
       -0.026998607 0.0029614118 0.012091145 0.0168804
000060 70 80 d1 3b a8 94 b8 3b 71 ce 9c 3b 1c f3 a6 bc
       0.006393485 0.0056329556 0.004785352 -0.020379595
000070 2f 9c 87 3b 86 0e 8f 3c 52 3b 8b bc 5d cc 22 3d
       0.0041384916 0.01746298 -0.01699606 0.039745677
000080 83 3d b5 bc 90 ca 04 3d 8b 77 d6 bc 12 77 94 3a
       -0.022124058 0.03241974 -0.02618005 0.001132699
000090 a7 3d 4b 3c 4c cb 83 3b 9f 03 ce bc ca 6f 1b 3d
       0.012404836 0.0040220376 -0.025148211 0.037948407
0000a0 b6 ec 7c 3c ba 34 2a bc 30 2e 68 bb 53 ec 01 3d
       0.015437296 -0.010388548 -0.003542792 0.031719517
0000b0 b2 6f 10 bd 67 11 9e bc cc cb c0 bc 32 d4 8a bc
       -0.03526277 -0.019295407 -0.023534678 -0.016946886
0000c0 49 d1 df bb cc fc f2 3c 7c eb 08 3c a7 31 9d bc
       -0.0068303687 0.029661559 0.008356925 -0.019188715
0000d0 6d 71 93 3c 4a 75 d1 ba 53 07 47 3c bb 93 fe 3c
       0.017998422 -0.001598039 0.012147742 0.031076303
0000e0 ed 6d 88 bb 8d 5f be 3b 22 8b 06 3c 84 0c 35 bb
       -0.004163495 0.0058097304 0.008211883 -0.0027625868
0000f0 c5 02 13 bc 5d 96 f4 3b 8b fd 97 bc 6a 16 0d bc
       -0.008972828 0.0074642138 -0.018553516 -0.008611301
000100 11 ae d9 bb f3 01 f5 bb af fa 86 bc 6a 59 03 3c
       -0.006643065 -0.007477039 -0.016476957 0.008016923
000110 70 76 aa 3b 31 6a 3a bc 67 68 fe 3b 5e 1a 61 bc
       0.005202107 -0.011377857 0.0077639106 -0.013739197
000120 4e fc 3b bc b3 bf c3 bb e3 4a 8d bc de 68 a7 bc
       -0.011473728 -0.00597378 -0.017247623 -0.020435747
000130 3d 46 03 bd d0 0c 32 3d 0d 39 2a bd 1e 1c b4 bb
       -0.032049406 0.04346925 -0.041558314 -0.005496516
000140 6a 1a b5 bc 09 30 43 bc 6e 44 86 3d 5b 68 f2 bb
       -0.022107322 -0.011913308 0.06556021 -0.007397694
000150 71 44 b5 3c f2 50 2e bb 24 2c 90 3c c9 12 ca bc
       0.022127362 -0.002659854 0.017599173 -0.02466716
000160 68 3c a8 3b 3e 08 0a 3d 12 5f fa 3c 5e 55 ca 3a
       0.005134154 0.033699267 0.030562911 0.0015436818
000170 39 c4 a2 bc fa ee c1 3b a7 90 9e bc c4 34 b9 bb
       -0.019868957 0.005918381 -0.019356085 -0.005652042
000180 2e a2 24 3b 5a 4d 86 3b 32 9f 91 bc 1c 0f 14 bb
       0.002512108 0.0040985765 -0.017776106 -0.0022592014
000190 92 f5 31 bc e6 52 5c 3b ce ed 82 3c 9f 7e af bc
       -0.010861771 0.0033618747 0.015982535 -0.021422682
0001a0 e8 35 36 3c 5a 9a c4 bc b9 44 f9 bc d3 57 c3 bb
       0.011121251 -0.023999382 -0.030428277 -0.005961397
0001b0 55 46 58 bc 75 28 51 bd 50 78 27 3c da f9 83 bd
       -0.013200362 -0.051063973 0.010221556 -0.0644414
0001c0 0f 44 9d bd df f0 44 bd 20 6b 3f bc ea 26 d1 3b
       -0.07678997 -0.048081275 -0.011683255 0.0063828127
0001d0 2f e1 97 3c fd ea 0a bd 9e 5d d8 bc 18 6c 11 bd
       0.018539993 -0.03391551 -0.026411828 -0.035503477
0001e0 78 63 fd bc 52 84 22 bb e1 7e fe bc c3 34 88 3c
       -0.03093122 -0.0024798107 -0.03106636 0.016626721
0001f0 08 ec 06 3c 1e e5 b5 3c 1b 7a ba 3c e4 ab 1d bc
       0.008234985 0.022203978 0.022763303 -0.009623501
000200 9f dd 62 bd 7e fc c1 b9 2a ce 3d bc 1d e5 a7 3b
       -0.055387136 -0.0003699995 -0.011584798 0.005123748
000210 23 23 a7 3c 5e 04 08 bd 93 e4 74 3c f7 a7 4b 3d
       0.020402497 -0.03320729 0.014947074 0.04972073
000220 4d a5 65 3b f0 5e ba bb a4 01 24 3b 07 23 41 3b
       0.0035041154 -0.005687587 0.0025025392 0.002947034
000230 a2 ba f5 bb 41 0d fd ba fe a9 8a 3b 0b f7 9a 3c
       -0.007499055 -0.0019306318 0.0042316904 0.018916627
000240 ac 36 80 bd 2d 6e 64 3c c1 8e 06 bc 01 ef 46 3b
       -0.06260428 0.013942284 -0.008212746 0.003035486
000250 a6 24 3f bd bb cf 56 3b 81 8a d8 3a 23 5e 05 bd
       -0.04666581 0.0032777626 0.001652077 -0.03256048
000260 1d d5 a7 bc 10 be 49 3c 0f b3 f2 3b 98 aa 82 3c
       -0.020487363 0.012313381 0.0074065994 0.015950486
000270 39 15 5f 3c 49 16 bd bc ee cb db 3b 0c 6d b6 3c
       0.0136159 -0.023081915 0.00670766 0.022268794
000280 26 09 a8 bc 94 3b b3 bc c9 f4 3a 3c 67 c1 f5 ba
       -0.020512175 -0.021878995 0.0114109 -0.0018749655
000290 24 8e 52 3c 06 07 8d bc d4 22 fa bb 14 02 3d bd
       0.012851272 -0.017215263 -0.0076335464 -0.04614456
0002a0 de 38 56 bc 66 15 d0 3b c8 c1 9b bc 60 c1 f2 bc
       -0.013075082 0.006350207 -0.0190133 -0.029633224
0002b0 a6 a8 0a 3c 31 79 da 3b 20 96 b8 bc 00 86 00 bc
       0.0084630605 0.006667279 -0.022532523 -0.007844448
0002c0 f0 37 be 3b 44 15 9e bc 02 93 08 bd d4 2b 87 3c
       0.005805008 -0.01929725 -0.033343323 0.016500391
0002d0 50 6d 1d bc 88 3a 43 3c ee 0d a1 bc 79 27 af bb
       -0.009608582 0.01191581 -0.019659963 -0.0053452817
0002e0 69 3b 4a ba e9 7c ad ba f8 2f f8 3b 5c 20 91 ba
       -0.0007714541 -0.0013236079 0.0075740777 -0.0011072266
0002f0 13 59 f4 3c 20 dc 33 bc 95 df f2 bc 25 3d 86 bc
       0.02982763 -0.010977775 -0.029647628 -0.016386578
000300 be 12 09 bc 50 9f 17 bc 70 e6 17 bc 7a 73 43 3c
       -0.008366285 -0.009254292 -0.009271249 0.011929387
000310 ce 5f 95 bc 6b 6f 15 bd 9d 9c 9c bb e0 31 02 bc
       -0.01823416 -0.03648321 -0.004779412 -0.007946461
000320 01 ec dd bb 4b 50 f2 bc 3b ff 45 bc 60 0b b4 3b
       -0.0067725186 -0.029579302 -0.0120847775 0.00549452
000330 91 dc c3 3b 80 6f 86 3c 7b bf 87 bc 96 1f a6 3b
       0.0059772213 0.01641059 -0.016570797 0.0050696833
000340 02 ba 11 bc 04 61 ad 3b cc 62 ce 3c da d1 fa 3b
       -0.008894445 0.005291106 0.025193594 0.007654411
000350 22 28 38 3c 8b b7 9d bc cb 86 8f 3c 95 48 83 bc
       0.011240037 -0.01925256 0.017520329 -0.01602582
000360 9c b0 18 3c 9f 82 8a bb ff ad af bb 91 26 a0 bc
       0.009319451 -0.004226997 -0.005361318 -0.01954964
000370 4a 76 fa 3c d3 3e 0d bc 6a 5f 4a bd be 40 07 bd
       0.030573983 -0.0086209355 -0.0494074 -0.033020727
000380 a5 1c dd 3b 89 e1 6b bb af 64 9b bc 4a 22 a8 ba
       0.0067477995 -0.0035992584 -0.018968908 -0.0012827602
000390 bb c0 ea bc 1c 29 ae ba 7d f3 fe bc dd 3a 50 bc
       -0.028656354 -0.0013287398 -0.031121964 -0.012709347
0003a0 2f b8 f7 bc 09 06 3e bc f7 2c b5 bc 3a 49 96 3c
       -0.030239193 -0.011598119 -0.022116167 0.018345464
0003b0 a7 13 e3 bc 7c e2 2a 3c 89 c1 45 bd ee b8 05 bd
       -0.027719332 0.010429975 -0.048280273 -0.032647066
0003c0 69 88 02 bd 69 d0 3c bb 6c bd 98 bc e1 bf 4a 3b
       -0.031868372 -0.0028810746 -0.01864501 0.0030937123
0003d0 9e 6e 11 bc c0 75 9a bb 9a f8 ad bb 1f 7f ec bb
       -0.008876471 -0.004713744 -0.0053091766 -0.0072173025
0003e0 09 8d df 3c b9 04 6b bc d0 c9 c8 bc 3a ad bc bc
       0.02728893 -0.014344388 -0.024510294 -0.02303182
0003f0 c1 a9 13 bd 2f 16 db 3c 00 4c e5 bc 23 70 6e bd
       -0.03605056 0.026743976 -0.027990341 -0.05821241

bias f4 [20]
000000 55 4d 24 3b cd b1 d1 bd 9b 76 b6 bd 80 d8 c8 3d
       0.0025070508 -0.10238991 -0.08909341 0.09806919
000010 ff d7 b4 3d cf 78 6c 3d f5 93 b7 3d 0f 6e 45 3d
       0.088302605 0.0577324 0.089637674 0.048200663
000020 2b 9e 73 3d 90 f7 89 3d 63 a6 c7 bc d7 82 ab bc
       0.059477013 0.06736672 -0.024371332 -0.020936413
000030 0d 8e ab 3d d8 c6 31 3b b6 85 99 bd 43 90 af bd
       0.083767034 0.0027126577 -0.074962065 -0.085724376
000040 61 15 8f 3d 98 08 dc 3d d9 98 a1 3d 74 a3 35 3d
       0.069864996 0.10743827 0.078904815 0.044345334

weight f4 [20, 20, 3, 3]
000000 a1 6c 42 bc 0c fd 6b bc 08 7c 0d 3a be 39 1f 3c
       -0.011866719 -0.014403593 0.0005397205 0.009718357
000010 8e 00 26 bc 37 8c 00 3d e5 99 ad bc 3d 93 d5 3c
       -0.010131968 0.03138372 -0.021191547 0.026071185
000020 7a 17 c7 bc 57 c1 19 ba 3f 29 f1 3c aa ce 31 3d
       -0.024303187 -0.00058652967 0.029438613 0.04340998
000030 f2 20 55 bc fd b2 92 bb 43 22 aa 39 2a 27 41 3d
       -0.013008343 -0.0044769035 0.00032450454 0.04715649
000040 3c 7b ae bb a1 7a 6e 3a ec ef e5 bc 6b f4 ed 3c
       -0.0053247493 0.00090972526 -0.028068505 0.029047212
000050 70 1a ec bb c8 9d 99 3b 06 e0 46 bb ba 7f e3 bc
       -0.0072053 0.0046879984 -0.003034593 -0.027770866
000060 86 25 22 ba 12 99 a2 3b 21 d0 fb bc ba 50 1a bd
       -0.0006185401 0.004962095 -0.030738892 -0.037674643
000070 5b d0 04 3c 31 ad f4 3c d8 77 0a 3b 11 83 54 bb
       0.008106316 0.02986774 0.0021128561 -0.0032426754
000080 82 3d 88 3c 78 f0 27 bc 7e 08 27 3c f3 c2 4e bc
       0.016630892 -0.010250203 0.010194896 -0.012619722
000090 2d 46 b2 bc db f0 10 bc 77 e3 1a bd 01 5b c6 3b
       -0.021761978 -0.008846487 -0.037814584 0.006053329
0000a0 50 90 48 b9 19 16 40 3c 64 97 1e bd bf 4c ad bc
       -0.00019127247 0.0117240185 -0.038718596 -0.02115476
0000b0 2c 86 ef 3c 54 0d cf 3c 26 61 34 bd ae 88 76 bb
       0.029238783 0.02527491 -0.04403796 -0.0037618089
0000c0 a7 2b 5e 3c d5 44 fa 3c 36 21 90 bc 76 8a ae 3c
       0.013560212 0.0305504 -0.017593961 0.021306258
0000d0 64 96 34 bd f5 96 98 ba 63 a6 10 3b 77 90 10 bb
       -0.044088736 -0.0011641668 0.002207183 -0.0022058764
0000e0 42 61 13 ba 6f 1e 70 3c 39 5e 81 3c 4c f8 dd 3c
       -0.00056220975 0.014655693 0.015792 0.027095936
0000f0 97 09 4a 3c 55 84 31 bc b3 af 22 bc d0 ae b1 bc
       0.012331388 -0.010834773 -0.009929585 -0.021689802
000100 03 f1 5b 3c c5 90 af 3c 39 d6 b6 bc 13 95 48 3c
       0.013424161 0.021431336 -0.022318946 0.012242573
000110 c8 c9 4d 3d 5d 57 31 3d df 90 96 bb 2b 12 95 bc
       0.05024126 0.043296207 -0.0045949067 -0.01819714
000120 f4 42 ac bb 62 52 45 bb 81 a3 eb 3c a9 df 37 bc
       -0.005257005 -0.0030108918 0.028764488 -0.011222758
000130 0c ed 0f 3c de ab cb 3b 83 7d 6b 3c 8d b7 d6 bc
       0.008784544 0.0062155565 0.014373186 -0.02621057
000140 4a 56 83 bb d9 06 a9 3b 9d 24 8f 3c a7 5f 48 3d
       -0.004008089 0.005158287 0.017473513 0.048919346
000150 ca 13 83 3c 32 b8 f4 bb d2 96 b0 bb a8 dd 61 bc
       0.016000647 -0.007468247 -0.005389073 -0.013785757
000160 42 87 e9 3a 3c 61 75 bb d4 46 40 3c 1f c8 94 bc
       0.0017816799 -0.003744199 0.011735637 -0.018161831
000170 c7 d3 e2 bc cf 8b ea 3c 6e d5 dd bc 60 2f c6 bc
       -0.027688874 0.028631119 -0.02707931 -0.024192512
000180 36 31 37 3c d4 ee 04 3c fe 18 9a 3c 3c 4f a1 3c
       0.011181166 0.008113582 0.018810745 0.019691102
000190 8d 33 b1 bc 07 f4 20 3c cc 13 44 3c bd fb 81 3c
       -0.021631027 0.009823806 0.011967611 0.015867108
0001a0 b2 db 2e b9 d7 1f a8 3c 4c d2 c1 bc 2a 6e 9e bb
       -0.00016675776 0.020522995 -0.023659848 -0.00483491
0001b0 85 b5 7c 3b 8a f9 30 bc cc 4a e8 bc a6 d8 47 bc
       0.0038560343 -0.010801682 -0.028355978 -0.012197649
0001c0 a4 8c 4c bc ca e0 8a bb 4e 86 44 bb 7e ab 83 3b
       -0.012484703 -0.0042382227 -0.0029987278 0.004018246
0001d0 7e c5 b3 bc 8b 74 31 3d f7 b3 52 bc f8 ef c8 bc
       -0.021944758 0.043324035 -0.01286029 -0.024528489
0001e0 0d f9 82 bc 9b e8 10 bb 5a 63 c3 3b 70 9d a1 bb
       -0.015987897 -0.00221113 0.0059627714 -0.004932098
0001f0 75 68 10 3d c1 67 9f bc e3 94 d8 3c 82 66 3a bc
       0.035255868 -0.019458653 0.026438182 -0.011376979
000200 6c 3a 1f bb cb b9 db bc c4 a7 04 3c 48 f4 09 3c
       -0.0024296297 -0.026821991 0.008096639 0.008420058
000210 39 30 92 3b ed 81 e2 3b e3 51 9a 3c 16 06 de 3c
       0.004461315 0.006912461 0.018837875 0.027102511
000220 ec 65 bb bc b1 df 09 bd 0f 05 35 3c cf a6 b2 bc
       -0.022875749 -0.033660594 0.011048569 -0.021808056
000230 3c 74 1f bd 35 a2 dd 3c 3f 87 28 3c 41 ae 29 3d
       -0.03892921 0.027054885 0.010286151 0.041425947
000240 c5 6e 84 3c 89 f0 aa 3c 5c 79 06 3c 49 c7 0b bc
       0.0161661 0.02086665 0.008207645 -0.0085314
000250 d6 53 dc 3a cf b5 49 3d 48 55 5b 3b f8 d8 26 bd
       0.0016809653 0.04924565 0.003346758 -0.04073426
000260 b5 69 de bc 99 8e cb ba 8a c1 8d bc e5 4f 35 3d
       -0.027150014 -0.0015530168 -0.0173042 0.044265646
000270 3e b9 9a 3c db ad 91 bc e6 a0 7b bb 3b 2d 92 b9
       0.018887158 -0.017783096 -0.0038395463 -0.0002788099
000280 71 fb 5d bc 83 50 95 bc 04 11 a4 3b e7 02 1c bc
       -0.013548718 -0.018226868 0.0050069112 -0.009522176
000290 fd 5a 49 3c c0 7a 94 3c 73 02 fb 3b d1 12 58 bc
       0.01228976 0.018124938 0.007660204 -0.01318808
0002a0 8a 86 e9 3b 36 b5 9d bb 82 60 d6 3c 9f e6 5a bc
       0.007126634 -0.004812862 0.026169065 -0.013360648
0002b0 df bc e1 3c d5 f7 63 bb 0d fc 0b bd 1b 86 88 bc
       0.027555881 -0.003478517 -0.03417592 -0.016665509
0002c0 32 ec 37 bd 4a 53 c3 3b ec 6d 84 bc 8d 85 15 3c
       -0.044902988 0.0059608566 -0.016165696 0.009126079
0002d0 9e 28 ff bb 8e 01 87 bc 5f 3e 3f bb 0d db 08 3d
       -0.0077868244 -0.016480234 -0.0029181463 0.033412028
0002e0 49 ba d5 bb 99 9d 19 3b 1c 98 82 bc 2f 40 ce 3c
       -0.006522451 0.0023439883 -0.015941672 0.02517709
0002f0 55 38 95 3b 13 8f 1e bc 8e 2d 16 3d 67 c6 56 3c
       0.0045538344 -0.009677666 0.036664538 0.013108826
000300 6b 3d b2 bc 5f c6 ca bc 2a 06 0a bd 9d 6f 0e bc
       -0.021757802 -0.024752794 -0.033697285 -0.008693603
000310 32 e2 85 3c f5 df c1 3b f9 f0 9c bc cd 37 8c 3c
       0.01634321 0.0059165903 -0.019157873 0.017116452
000320 d0 13 7b bc 34 a8 2f 3d 29 59 f3 bc 14 53 69 3c
       -0.015324548 0.04288502 -0.0297056 0.014240999
000330 e8 92 00 bc 38 0d 80 3c aa f3 04 bc 5b 38 ec 3a
       -0.007847525 0.015631303 -0.008114735 0.0018022166
000340 6d 43 71 3c 84 2a 9e 3c 12 6c b4 3b 57 c0 01 b9
       0.014725548 0.019307382 0.005506047 -0.00012374051
000350 a5 19 7c 3c 19 58 a8 bc 4b 2b 4e bb 34 aa ff 3b
       0.0153869735 -0.02054982 -0.003145891 0.007802272
000360 cf 8d 37 bb 23 03 97 3c 6c 03 45 bd cc 56 92 3b
       -0.0028008108 0.018434113 -0.048098966 0.0044659134
000370 e9 a2 9b bc c6 9b 0b bc c9 5c 48 3c 58 5f d7 bc
       -0.01899858 -0.008521026 0.012229153 -0.02629058
000380 14 3b 55 bd 5f 66 17 3d 64 da b5 3b 71 80 20 bd
       -0.052058294 0.036962863 0.005549716 -0.03918499
000390 51 36 c6 3b d7 58 48 bc 11 fb e8 3c 99 69 9d bc
       0.0060489555 -0.012228212 0.02844003 -0.019215392
0003a0 87 56 41 3c 63 89 8a 3c d8 b6 ec bb cc b0 ca ba
       0.011800415 0.016911214 -0.007223945 -0.0015464067
0003b0 e5 93 8c 3c f7 e8 be bb b4 ac 57 3c 5b 61 ca 3c
       0.017160365 -0.0058261114 0.013163734 0.024704626
0003c0 09 ef 86 bc 77 85 8b 3a d9 81 be 3b 79 24 ab bb
       -0.016471403 0.0010644634 0.005813819 -0.0052228537
0003d0 7c 5d e2 3b 89 ff c7 3c 1d 91 b1 3c 11 1e 80 bc
       0.006908117 0.02441384 0.02167564 -0.015639337
0003e0 ad 7b 7d bc 6c 75 85 3c d2 63 9d bc 05 28 31 bc
       -0.015471381 0.016291343 -0.019212637 -0.010812764
0003f0 4f a4 2b 3c 6d 9d f1 3a e7 35 85 3c c4 5d dd bc
       0.010476186 0.0018433757 0.016261054 -0.02702225

bias f4 [20]
000000 a4 e7 ce 3c 9d 3f 4c bd 72 08 ec 3b ce f4 a2 3c
       0.02525694 -0.049865354 0.007203155 0.019892123
000010 e1 de 85 3d 15 6b 2b bd 10 61 31 bd 27 2e 1c bd
       0.065366514 -0.04185017 -0.043305457 -0.03812995
000020 92 89 93 bd 91 0f 70 3c 13 8d 86 bd 0a cd a6 bc
       -0.07203974 0.014652149 -0.065698765 -0.020361442
000030 09 39 09 bd 1b 38 41 3b 39 c9 b5 3c e0 e0 5c bd
       -0.03350166 0.0029482904 0.022190677 -0.053925395
000040 93 65 bc bc 62 cb f8 bb b6 4c 30 bd 19 5b 75 3c
       -0.022997653 -0.0075926045 -0.043041907 0.014975333

weight f4 [20]
000000 bf 3e 82 3f 31 3e 81 3f 27 68 79 3f f8 4e 83 3f
       1.0175399 1.0097104 0.9742455 1.0258474
000010 5c 4e 7c 3f 1c 53 82 3f 18 b9 78 3f 3a 18 7c 3f
       0.98557067 1.0181613 0.9715743 0.98474467
000020 3e 6d 7b 3f d9 c8 81 3f 9b 69 7b 3f 93 bf 84 3f
       0.98213565 1.0139419 0.98208016 1.0370964
000030 35 92 7f 3f 3f e9 76 3f f7 65 74 3f 2b ef 7f 3f
       0.9983247 0.96449655 0.95468086 0.99974316
000040 07 88 82 3f 39 74 7d 3f e5 52 7e 3f 41 1a 7c 3f
       1.0197762 0.99005467 0.99345237 0.9847756

bias f4 [20]
000000 ba a5 87 ba 41 f6 a0 ba bd f3 9d 3b 4a 52 c0 3a
       -0.0010349073 -0.0012280421 0.0048203156 0.0014672962
000010 76 4d 1a 3c 22 2d 19 3b af 99 82 39 3f f1 0d bb
       0.009417882 0.0023372849 0.00024910035 -0.0021658686
000020 d0 58 85 3b be 8a df 3a 97 e3 ff 3c 11 56 7f 3b
       0.004069425 0.0017054898 0.031236453 0.0038961212
000030 4f 29 4c 3c 4e 3e 0a 3d d5 f9 3f 3c b7 9b 1e 3b
       0.012461021 0.033750825 0.011717279 0.00242017
000040 be 37 a0 3b b3 b0 77 3c 17 d6 d8 3a 1a 9b 5e 3c
       0.0048894575 0.015117812 0.0016543296 0.013586784

running_mean f4 [20]
000000 64 3a e2 3b 0e 9a 88 bd d0 2e 96 3c b4 e9 4a bb
       0.0069039334 -0.066700086 0.018332869 -0.0030962052
000010 f4 32 80 3d b1 47 53 bd 00 1d 9a bd a3 ac 7e bd
       0.062597185 -0.051582042 -0.075250626 -0.062176358
000020 89 e7 cf bd e8 bb 4e 3c 3b 24 87 bd d3 99 4a bc
       -0.10151584 0.0126180425 -0.06598707 -0.012365776
000030 4a 82 1a bc 29 f2 6b 3c f9 4a 2d 3c 67 65 b5 bd
       -0.009430477 0.014400997 0.010576957 -0.088572316
000040 b4 0f 39 bd 3d 3e a6 b9 8b 01 3b bd 91 74 c4 3c
       -0.04518099 -0.00031708358 -0.04565577 0.023981364

running_var f4 [20]
000000 71 43 19 39 66 a5 16 39 12 27 88 39 a1 7a a3 39
       0.00014616341 0.0001436673 0.0002596905 0.00031181148
000010 16 65 0b 39 66 a5 59 39 c2 2d 52 3a 5a 1c c1 39
       0.0001329373 0.00020756348 0.00080176827 0.00036832952
000020 a3 91 c9 39 0e 51 1e 39 a4 a4 bf 37 b1 43 21 39
       0.00038446215 0.0001509825 2.2845641e-05 0.00015379374
000030 c4 96 06 3a a0 44 a0 37 cc 60 c3 37 91 fc 1f 3a
       0.000513416 1.9105442e-05 2.3290886e-05 0.0006103004
000040 7b 80 87 39 7e 9e e6 38 9c da 46 39 fa a9 0d 38
       0.00025844932 0.00010996776 0.0001896419 3.3775323e-05

weight f4 [20, 20, 3, 3]
000000 b1 00 f2 bb 1f 77 76 bc 95 9d 77 3c 28 92 38 bc
       -0.0073853363 -0.015043049 0.015113254 -0.011265315
000010 ba e5 05 3c eb ad 10 bd cb 2a 53 3b 82 77 0c bc
       0.008172447 -0.03532211 0.0032221552 -0.008573415
000020 ed 90 f6 3a 4c c5 f9 bb 86 11 ed bc c6 c0 2a bc
       0.0018811502 -0.0076223966 -0.02893902 -0.010421937
000030 72 d8 ec 3a c0 d7 05 bd 8d c9 6a bc 32 3e ac bb
       0.0018069877 -0.03267646 -0.01433028 -0.0052564377
000040 5c c3 8f 3c dc 85 61 bc be 62 93 3c 0c 42 48 bc
       0.01754921 -0.013764825 0.01799142 -0.012222778
000050 a6 5b b3 bc f0 f5 d0 3c 45 30 77 bb 5b 5f b2 3c
       -0.021894287 0.025507897 -0.003771798 0.021773985
000060 4b 58 2a bd a6 b5 e7 3c 69 6c 25 bd 83 df 2a 3c
       -0.04158811 0.028284859 -0.04038659 0.010429266
000070 66 fd 8c bc 0c c2 33 bc cb b6 9a 3c 1c 89 d8 3b
       -0.017210674 -0.010971557 0.01888599 0.0066081416
000080 41 e5 e6 3c 8d 19 83 bb 92 11 8e bb 81 8b b6 bc
       0.028185489 -0.0040008486 -0.0043355906 -0.022283318
000090 3e 7b 7b bc b7 9c 8d bb c0 5f 59 3d 4b 9e 8a 3b
       -0.015349207 -0.0043216604 0.05306983 0.004230296
0000a0 8f 1e 2a 3d a5 72 0e 38 19 07 17 bc 2d eb 3d bc
       0.04153305 3.396221e-05 -0.009218001 -0.011591715
0000b0 e9 29 b7 3b 15 8c 0f bc 48 10 29 3a d7 3b a4 3c
       0.005589713 -0.0087614255 0.00064492645 0.020048065
0000c0 91 e9 fa 3c 94 6b 63 bc c1 f3 d6 bc 7c ce 82 3c
       0.030628951 -0.013880629 -0.026239278 0.0159676
0000d0 18 1c 46 3c 8f d5 71 bb eb 36 89 bb ce a8 b4 bb
       0.012091659 -0.0036900972 -0.004187455 -0.005513287
0000e0 33 26 56 3b 9b dc 8c 3c 08 0a 1b 3c 8b 0a 3a 3b
       0.0032676577 0.017195037 0.009462841 0.0028387632
0000f0 32 58 87 ba 90 23 08 bc 02 97 b0 3b 32 67 4f bb
       -0.0010325967 -0.00830926 0.0053890953 -0.0031647203
000100 0f 1a 7d 3c 16 cc a0 bc 17 ca b5 bb f3 14 8e 3c
       0.015448107 -0.019628566 -0.0055477726 0.017343974
000110 cf 24 da ba c2 81 b0 3c 35 82 97 3c 68 15 63 3c
       -0.001664305 0.021546248 0.018494705 0.013860084
000120 5c b3 f2 3b be 99 02 3c c9 5a 4c 3d f5 e5 dc 3b
       0.007406635 0.007971225 0.049891267 0.00674128
000130 d7 e1 12 3c 90 35 11 bc 3e 2b 1c 3a 29 2c 9d bc
       0.008964977 -0.008862868 0.00059573713 -0.019186096
000140 0d 7a 87 ba 6b d3 43 bc ae 1b 10 bc 01 98 88 bc
       -0.0010336057 -0.011952261 -0.008795662 -0.016674044
000150 cb 1b 99 3c 50 0f 90 bc be 91 90 bc f5 9c a3 bc
       0.01869001 -0.017585427 -0.01764762 -0.019972304
000160 87 86 21 bc 1b 92 86 bb 4c 16 37 3c 9c 9d 9e bb
       -0.009858734 -0.0041067726 0.01117475 -0.004840566
000170 ff fb 03 3c 0c c6 23 bb cc 86 79 bc 96 ca 74 3c
       0.008055686 -0.0024989871 -0.015229892 0.014940878
000180 40 54 2b 3c 27 71 c4 bc a0 fe 01 ba a2 e3 29 bd
       0.0104570985 -0.023979736 -0.00049589016 -0.041476853
000190 ee 30 f3 38 c5 00 2b bd 03 65 41 3d a5 bf 36 3d
       0.00011596257 -0.04174878 0.047215473 0.04461636
0001a0 55 8f 0f 3d 5a f7 2f 3d 1c dd 39 3b 1b 9d 43 3c
       0.0350488 0.042960502 0.0028360551 0.011939312
0001b0 8a 84 9f bc f6 73 a1 3b 14 5f d4 bb db d9 50 3c
       -0.01947238 0.0049271537 -0.0064810608 0.012747253
0001c0 3e 4e a9 bb 5f 60 39 ba 7d 7c ad bc cf e0 c8 bc
       -0.005166798 -0.00070715504 -0.021177525 -0.02452126
0001d0 ca 89 68 39 a7 fd 95 bb 5f c0 17 3c 38 77 d1 bc
       0.00022176575 -0.004577357 0.009262173 -0.025569543
0001e0 05 c4 53 bb b8 ca 86 3c 3d a5 fe bc dd 76 d6 bc
       -0.0032312882 0.016454086 -0.031084651 -0.026179725
0001f0 07 8c 1b 3d f2 f8 17 bc 8f 53 24 3c 24 15 c4 3b
       0.037975337 -0.009275662 0.010029688 0.0059839655
000200 6a 5a 72 3c ac 00 13 3c 42 c3 09 3c 7e d4 10 3b
       0.014792064 0.008972328 0.0084083695 0.0022099311
000210 b9 ed 19 bc 1d 8c d5 bc 2b 7d 53 3c 32 71 92 bc
       -0.009395056 -0.026067788 0.01290826 -0.017876241
000220 f0 e2 ab b9 37 17 ce 3b f4 a4 12 bc b6 89 03 3d
       -0.00032784743 0.0062893885 -0.008950461 0.032113753
000230 ff fd 1d 3c 5e 36 1c 3d ff 38 16 3b 20 3e 5c 3b
       0.009643077 0.038137786 0.0022922156 0.0033606365
000240 17 f8 11 bd 84 4d bd 3b eb 79 03 3c 90 2e 1c 3c
       -0.035636988 0.005777063 0.008024673 0.009532586
000250 44 b7 06 3d 5d 97 0c 3d c1 8c b8 bb f0 a5 a8 bc
       0.03288962 0.03432404 -0.0056320135 -0.020586938
000260 c8 01 8d 3b dd a7 d6 3b 4c 9d e3 bc 0a cf 2d 3d
       0.004303191 0.0065507726 -0.027784966 0.042433776
000270 62 77 7b 3c 23 9e 48 3b 91 99 84 3c c1 d5 04 bd
       0.015348287 0.0030611835 0.016186507 -0.032430414
000280 14 03 57 bc 86 f0 f7 ba 68 cf e7 bc c0 43 62 bc
       -0.0131232925 -0.0018916286 -0.028297141 -0.013810098
000290 0f 0e a7 bc ba ea 28 3d db 95 c4 3c b6 bb e6 3b
       -0.020392446 0.041239478 0.023997238 0.00704142
0002a0 68 72 19 3c b5 85 4b 3d 28 b2 2e 3c 7c b7 22 3c
       0.0093656555 0.04968806 0.010662593 0.009931441
0002b0 6a 39 38 bd 66 a5 31 3b 20 80 dc bb 7e 26 87 3b
       -0.04497663 0.0027106642 -0.006729141 0.0041244617
0002c0 59 09 69 bc 25 c0 15 bc 6a 81 4b bd c3 5b fc bb
       -0.01422342 -0.009140049 -0.049683966 -0.0077013685
0002d0 22 02 bf 3c 12 aa 86 bc a4 87 ef bb 23 b2 03 bc
       0.023316447 -0.016438518 -0.007309871 -0.008038077
0002e0 c6 4e 98 3c 95 e5 bd bc 1d b0 b3 bb 0c c8 27 3d
       0.01859225 -0.023180762 -0.005483641 0.040962264
0002f0 a4 d6 ac bc a5 7c f0 bb b8 a4 24 bc f6 dd 16 bc
       -0.021098442 -0.0073390775 -0.010049038 -0.009208193
000300 38 7b e9 3b f0 37 8a bb 41 e4 0d 3c af 80 5e bc
       0.0071252845 -0.004218094 0.008660377 -0.013580485
000310 68 44 9f bc 26 a9 75 3b e0 1a 47 3c d8 68 80 3c
       -0.019441798 0.0037484854 0.012152404 0.015674993
000320 6e 01 61 3c d9 e9 8b bb 95 58 9f 3c 6f da 21 3b
       0.013733251 -0.00426982 0.019451419 0.0024696847
000330 5c e6 bd bc b6 c5 3f 3c c3 60 97 3c 18 91 b2 bb
       -0.023181133 0.011704853 0.018478757 -0.0054494254
000340 56 be c1 3c 60 e8 8a bc 05 b9 49 bc ff 12 a4 3c
       0.02365033 -0.016956508 -0.0123121785 0.02002859
000350 27 9e b2 bc f2 3c f1 bb 16 15 78 3c 1d 32 bc bc
       -0.021803929 -0.0073620016 0.015141746 -0.022973115
000360 fb 5a 44 3c 67 17 17 bc f4 01 6a bb 00 b1 96 bc
       0.011984582 -0.009221888 -0.003570673 -0.018394947
000370 e9 6b 2d 3c 03 5b 69 3d 43 47 a3 bc 6e 4e 6d 3b
       0.01058481 0.05697156 -0.019931441 0.0036210078
000380 5f fd 89 3c 95 51 b8 bc b2 2a b0 bb 4c 17 9a bc
       0.01684445 -0.022499839 -0.0053761834 -0.018809937
000390 e9 d5 3f 3c cc 54 ba 3b 96 23 e7 3c 4b cf bd bb
       0.011708715 0.005686378 0.02821521 -0.0057925335
0003a0 dc 56 26 3c 88 74 82 bb 35 16 d5 3b f5 9b 99 3c
       0.010152545 -0.0039811768 0.0065028914 0.018751124
0003b0 f2 4e a1 3c 01 cd a7 bc 5b 21 2d 3d 48 1e 0f bc
       0.019690964 -0.020483496 0.04226814 -0.008735247
0003c0 6b 62 e1 3c c9 dd 9c 3b 0b cd 66 bc 6f 2b a2 bc
       0.02751275 0.004787181 -0.014086972 -0.019796101
0003d0 42 c7 ab bc 61 9a d4 3c 80 e4 13 3d 91 2b 63 bb
       -0.020969037 0.02595252 0.036106586 -0.0034663419
0003e0 32 f2 3c 3c 5d 91 cf bc c6 2a 9c 3c 2f 95 07 3d
       0.011532353 -0.02533787 0.019063365 0.033101257
0003f0 05 c5 be bc 42 ce a5 bc 00 86 b5 3a 4d b6 c0 bc
       -0.023287306 -0.020239953 0.0013849139 -0.023524428

bias f4 [20]
000000 2b ac 49 bc 63 5c 80 3d c3 02 82 3c 9d a8 74 3c
       -0.012309114 0.06267621 0.015870458 0.014932779
000010 ed 9e 32 3d 28 db 5b 3d 4c f5 ad 3c fb f1 f6 bb
       0.043608595 0.0536758 0.02123513 -0.0075361705
000020 ba 08 07 bd e4 6e 39 bd d5 ba 18 bd 50 88 78 3d
       -0.032967307 -0.04527177 -0.037287552 0.060676873
000030 6c f9 72 3d 99 64 21 bd ad c5 80 3d 87 03 9e bc
       0.0593199 -0.039402578 0.06287704 -0.019288791
000040 5d 1b 9a bc 13 aa c1 3c 4a 4e 78 bd ad a7 34 bd
       -0.018811876 0.023640668 -0.060621537 -0.04410522

weight f4 [20]
000000 a6 53 7e 3f 0d de 81 3f 80 a3 7e 3f fc c9 81 3f
       0.9934639 1.014589 0.9946823 1.0139766
000010 54 a9 80 3f 4e 2a 80 3f de 17 81 3f 31 6e 84 3f
       1.0051675 1.001291 1.0085409 1.0346128
000020 b0 98 82 3f de 62 80 3f a7 b2 85 3f 67 4d 7a 3f
       1.0202847 1.0030172 1.0445145 0.97774357
000030 a2 52 78 3f 6f e8 83 3f e9 1d 81 3f a6 ea 7c 3f
       0.9700109 1.0305308 1.0087253 0.98795545
000040 5e 91 80 3f d1 65 86 3f 2d de 7c 3f b7 54 81 3f
       1.0044363 1.0499822 0.98776513 1.0103978

bias f4 [20]
000000 40 37 8d 3b 61 0b df 3b 12 cc 61 3b ba 12 df bb
       0.004309565 0.0068067764 0.003445391 -0.0068076523
000010 93 fe 46 3b 8c 92 22 3c 95 93 16 3b cf 2f ff bb
       0.003036414 0.009922635 0.002297615 -0.0077876817
000020 ff 36 0e bc e5 ac ff 3b 08 ee a9 bb ab 26 23 3b
       -0.008680104 0.007802593 -0.0051858462 0.0024894874
000030 a3 78 fd 3b 12 64 a6 bc 6e 15 0f bc 15 0b 62 3c
       0.0077353283 -0.02031139 -0.008733137 0.0137965875
000040 09 65 9f bb fd 16 ed bb 5c 02 fb 3b 64 bb c6 bb
       -0.0048643393 -0.0072354064 0.0076601934 -0.006064819

running_mean f4 [20]
000000 b1 f2 0c 3b 1e f8 74 3d 49 c4 a2 3b df 5e 38 3d
       0.002150696 0.059806935 0.0049672467 0.04501235
000010 19 e0 e8 3d 32 66 0b 3e 6c 98 00 3c 49 44 b0 bd
       0.11370868 0.13613203 0.00784884 -0.08606774
000020 56 6a 30 bd 0e 60 87 bc 32 dd 04 be 0a 05 11 3d
       -0.04307016 -0.016525295 -0.12975004 0.035405196
000030 db e1 30 bc 98 71 ce bd 13 34 09 3d 87 23 e0 bc
       -0.010796036 -0.1008026 0.033496927 -0.02736069
000040 7d d0 07 be 76 af d9 3a 2d 0e ca bd 2b b8 77 3c
       -0.13263126 0.0016608078 -0.09865985 0.015119593

running_var f4 [20]
000000 99 70 cc 3c 5d f7 b0 3c 7f 83 41 3d a6 02 04 3c
       0.024956034 0.021602327 0.047244545 0.008057272
000010 4e a8 a4 3c 91 d2 e0 3c 22 fd 1e 3c 17 ed e1 3b
       0.020099785 0.027444156 0.009703906 0.0068947184
000020 2f 34 f1 3c b4 a2 43 3c c6 34 74 3c fd 10 55 3c
       0.029443828 0.011940647 0.01490516 0.013004539
000030 1e 42 d3 3c a5 98 4a 3c 94 8f 23 3c c5 b4 56 3c
       0.025788363 0.012365495 0.009982962 0.013104622
000040 7b 92 da 3d b3 cc ea 3c 2f 67 ec 3c 49 30 ba 3c
       0.1067247 0.028662061 0.028857796 0.022728102

weight f4 [20, 20, 3, 3]
000000 74 bb 5b bc 66 79 69 bc b6 03 b3 bc 02 b6 dc bb
       -0.0134113915 -0.014250135 -0.021852355 -0.006735564
000010 1a 10 dc bc e5 d9 a6 bb be 81 c2 3b 7a b1 11 bc
       -0.026863147 -0.005091893 0.0059358766 -0.008892411
000020 4d 7f 73 bb 04 7a 2e bd d1 a8 20 bc 2d 47 58 bc
       -0.0037154735 -0.042596832 -0.009805874 -0.013200563
000030 59 b9 60 3b a1 b9 a2 bc a9 98 d3 3b 13 54 02 3c
       0.0034290163 -0.019863905 0.0064574075 0.007954615
000040 e9 b2 2c bb c7 5a ba bc 43 a6 81 3c 4b cf 19 3c
       -0.0026351756 -0.022748364 0.01582635 0.009387801
000050 6e 23 fe bc 57 40 52 bb 35 c6 93 3c df 5d 14 bc
       -0.031022754 -0.0032081807 0.018038848 -0.009055584
000060 9d 21 01 bd 91 e2 be 3c 95 08 10 bc a8 f4 46 3c
       -0.031526197 0.023301395 -0.008791109 0.0121432915
000070 a9 da 9f 3c 0f 39 b0 3a e2 22 b1 bb 8f d5 0b 3d
       0.019513445 0.0013444739 -0.0054057697 0.034139212
000080 54 29 3e bd 5c 59 9f bc 68 26 1c 3c 96 46 80 3c
       -0.046426132 -0.01945179 0.009530641 0.015658658
000090 aa b9 81 bc cd 9f 1a bd 4b 6b 00 bc 84 ff a3 bc
       -0.015835602 -0.037750054 -0.007838081 -0.0200193
0000a0 cd 9f 5c bc 00 c5 b9 3c 09 75 b2 3c 9b df 82 bc
       -0.013465834 0.022676945 0.021784322 -0.015975764
0000b0 dd 29 03 3d 5c 27 8b b9 54 69 03 3d 42 d9 17 bd
       0.032022346 -0.0002654147 0.03208287 -0.037072428
0000c0 7f ba 0f bc 53 68 0a bd ec f7 a4 3c 40 b6 26 bc
       -0.0087724915 -0.033790898 0.02013775 -0.010175288
0000d0 da 37 22 bd c9 20 20 3c 83 97 99 3c a3 5c fd 3c
       -0.039604045 0.009773442 0.018749004 0.030927962
0000e0 25 06 91 3c 7f eb 54 bc d5 c6 25 bc 34 61 52 3c
       0.017703125 -0.0129956 -0.010118206 0.012840558
0000f0 f8 f1 d7 3b c7 4e 36 bc 4d c6 a0 3a 65 4e cc 3b
       0.006590124 -0.01112718 0.001226613 0.0062349313
000100 c7 df e6 3b 00 d1 9a 3c 76 97 e6 bc 5e 32 b5 bc
       0.0070457193 0.018898487 -0.028148394 -0.022118744
000110 c5 70 a6 bb 22 d0 06 3d 61 e7 79 3c 83 f7 66 3c
       -0.005079361 0.032913335 0.015252919 0.014097097
000120 72 36 54 3c be 5a e9 3b 20 10 1b bc fc 57 b5 39
       0.012952434 0.007121413 -0.009464294 0.00034588564
000130 f6 19 89 3c 5a 94 2f bb 8e 46 31 3b 67 cf 9b 3c
       0.016736012 -0.0026791305 0.002705011 0.019019796
000140 b1 93 02 bd 82 5f d6 bc ff 3e 45 bc 91 ee 00 3c
       -0.03187913 -0.026168589 -0.012038945 0.007869379
000150 6c f4 37 bd bf 49 0b bc 6e c8 db 3c b5 e2 d2 39
       -0.044910833 -0.008501469 0.02682897 0.0004022323
000160 7c 2e ac bc f6 50 44 3a fa 14 38 3b dd 03 dd 3a
       -0.02101826 0.0007488871 0.0028088675 0.0016862113
000170 81 33 bc 3b c9 14 fd 3b 84 2b 88 bc 65 fe 2d bc
       0.0057434444 0.007723425 -0.016622312 -0.010619734
000180 25 1e 93 bc 22 9e 0f 3c 2e f2 31 3c 20 33 f5 bb
       -0.01795871 0.008765729 0.010860963 -0.007482901
000190 23 9d 88 3b 28 17 8e 39 19 3a e7 3b cd be 55 bc
       0.004169123 0.00027101603 0.0070564863 -0.013045979
0001a0 7f c3 59 3c 0e 57 0b bc 3b 74 f4 bc 57 42 d2 3b
       0.013291239 -0.008504642 -0.02984058 0.0064165997
0001b0 00 5c a5 bc 9a b8 a1 bc ec e9 e9 3c ea 85 b2 bc
       -0.02018547 -0.019741345 0.028553925 -0.02179237
0001c0 8f 24 0b bc 91 2f da 3c ec dd cd bc ad 24 8b 3c
       -0.008492603 0.02663401 -0.025130235 0.016985262
0001d0 32 ad 6e 3c 2a ef b8 bb cd 28 9b bc 25 8d 1e bc
       0.01456766 -0.005643745 -0.018940354 -0.009677206
0001e0 9b 9b 1c 3b e9 17 c1 3a f8 4d b6 3c ef 02 93 3c
       0.002389646 0.0014731857 0.022253975 0.017945735
0001f0 b7 4e 39 3c d7 e0 d5 3c 3d 01 16 bc 31 f0 9d 3b
       0.011310271 0.026108189 -0.009155569 0.004819893
000200 b6 52 25 bc f3 6b 44 3d 3b 4b f2 3a 39 2d 54 bb
       -0.010090521 0.04795451 0.0018485555 -0.0032375588
000210 aa c5 02 bb 01 23 ac bc 14 b4 96 bc 5c e5 83 3b
       -0.0019954243 -0.021012785 -0.018396415 0.0040251445
000220 d0 78 9f 3c 48 d7 46 3a f1 a6 0f bd 13 ef 54 bc
       0.019466788 0.000758518 -0.035071317 -0.012996453
000230 86 56 90 3c f1 97 d9 3c 8b 2b d6 3b 17 4e ff bc
       0.017619383 0.02656171 0.0065359524 -0.031165166
000240 c3 2e 9e bb 6c da 96 3c b9 d1 df 3c e5 2b f8 bc
       -0.004827352 0.018414699 0.027321683 -0.030294368
000250 cd de b1 3b c4 d8 91 bc 6b ea 72 3b 06 bb 96 bc
       0.0054281713 -0.017803557 0.0037065994 -0.018399727
000260 c6 69 b0 3c 54 df 13 3c 08 15 4b 3c c5 90 92 bb
       0.021534812 0.009025414 0.012395151 -0.0044728243
000270 c7 ba 4a bd 6b 19 9a 3c 70 b9 c6 3b 1f 15 31 3c
       -0.04949453 0.018810948 0.0060645863 0.010808258
000280 87 8c 0c bc ca 41 64 bc c0 15 cc bb 43 17 34 bd
       -0.008578426 -0.013931701 -0.0062281787 -0.043967497
000290 b0 11 8c bc 9c 24 5c bc 23 4b 17 bb c4 83 58 3c
       -0.017098278 -0.013436463 -0.0023085556 0.013215009
0002a0 67 b0 ba 3b cc ce 75 3a 77 bc ae bc 67 db e1 bc
       0.0056972983 0.00093768234 -0.021330101 -0.02757044
0002b0 a4 cb be bb 6d e4 cf bc 5e 1b 56 bc 9a 13 3b bd
       -0.0058226157 -0.025377477 -0.013068048 -0.04567299
0002c0 a5 f8 e6 bb dd 21 2e bd bf 34 f1 bc 69 71 f0 bc
       -0.0070486837 -0.042512763 -0.029444097 -0.029350953
0002d0 e5 4d 59 3c 14 dd a8 bc 0f 65 d3 bb 9a af 8b 3a
       0.0132632 -0.02061323 -0.006451256 0.0010657192
0002e0 74 e3 4f 3c 79 6a 8d 3c b1 a0 b8 bb 0e 15 4a 3c
       0.012688506 0.017262684 -0.0056343903 0.012334121
0002f0 ab e5 14 bc a7 21 14 bd e6 98 9b 3b c6 6d 9b bc
       -0.00908796 -0.036164906 0.0047484515 -0.018973242
000300 74 3f 57 bc 75 f0 b8 3c a4 c1 57 bc db bb 0f 3c
       -0.013137687 0.022575596 -0.013168726 0.008772816
000310 f0 49 47 3c 08 8d da bb 8d 9e 3c bc d6 fa d4 bc
       0.012163624 -0.0066696443 -0.011512411 -0.025998514
000320 ad 6a d0 bc c1 d6 6d bc 77 7d d1 bb 06 6f ab 3b
       -0.025441492 -0.014516533 -0.0063931304 0.005231741
000330 17 b3 06 bd 46 50 f2 bb 10 61 04 bc 2f 3f 9f 3c
       -0.032885637 -0.0073948232 -0.008079782 0.019439308
000340 99 f9 d1 bc 9e cd 04 3c 75 da c9 bc fa 28 ad bb
       -0.025631713 0.008105664 -0.024640301 -0.005284426
000350 6e f0 8b bc 4e 1d 3c 3d 23 41 1c 39 be 63 a5 bb
       -0.01708242 0.045926385 0.00014901585 -0.0050472906
000360 2d c1 6d bc 41 96 b9 bc dc 01 9c 3b 5d 65 e2 3c
       -0.014511389 -0.022654654 0.004760964 0.027636224
000370 fa 4f 93 3c 5e ea d1 bb 92 3e 6c 3c 4a d9 e3 bc
       0.017982472 -0.0064061126 0.014419215 -0.027813572
000380 cd 8e 1a 3c 9c ce 48 bc 87 52 b2 bb 71 fd 44 3c
       0.00943346 -0.012256291 -0.005441967 0.012023316
000390 73 86 42 bc 93 1a dd bb 0e e7 82 bb 8a a9 2c bc
       -0.0118728755 -0.0067475527 -0.003994829 -0.010538468
0003a0 e0 a4 db bc 3d 7b c0 bb 58 2e 1f bb 6b 90 35 bb
       -0.026812017 -0.005874066 -0.0024289098 -0.0027704488
0003b0 10 69 97 3b ee c0 d2 37 27 50 c4 bc 58 ec 0a bd
       0.0046206787 2.512379e-05 -0.023964 -0.0339168
0003c0 e8 bf 65 3d be b7 d5 bc 45 92 01 bd c4 f2 21 3b
       0.05609122 -0.026088592 -0.031633634 0.002471135
0003d0 0f ef d8 bb 85 f7 31 3b e9 ff ba bc e4 c0 0a 3d
       -0.006620295 0.002715559 -0.022827106 0.03387536
0003e0 b7 e2 11 3c 5e 51 4b 3c 95 82 1b 3c 42 5c bc 3c
       0.008904151 0.012409536 0.009491582 0.02299321
0003f0 40 1a ec bc 36 18 0a 3d 3d d1 c7 3c fc 99 46 ba
       -0.02882111 0.033714496 0.024391765 -0.0007576046

bias f4 [20]
000000 3c f9 88 3c c8 c3 6a bd 4a 40 6e bc 87 87 5f 3c
       0.016720407 -0.057315618 -0.014541695 0.013643152
000010 28 73 f6 3b 0d b7 61 3d 79 ec 24 3d 14 b1 fe 3b
       0.007521052 0.05510621 0.04026458 0.007772574
000020 42 aa 58 3d 52 2f 90 bd 8e 8e 51 3c d4 47 08 bb
       0.052896746 -0.07040276 0.012790335 -0.0020794766
000030 ab 64 42 bd e8 2c 57 bc c3 c5 ba bc 08 c4 92 bd
       -0.047459286 -0.013133265 -0.022799378 -0.07166296
000040 f2 b9 b6 3b 84 23 98 3d 12 7c 4d bd 03 6b 0c bc
       0.0055763656 0.07428649 -0.05016715 -0.008570435

weight f4 [20]
000000 21 75 81 3f ba 80 7e 3f 7e f4 6e 3f 63 68 7e 3f
       1.011387 0.9941517 0.93341815 0.9937803
000010 e3 d4 80 3f 9c 13 82 3f e7 fa 7e 3f ef e8 75 3f
       1.0064968 1.0162234 0.99601597 0.96058553
000020 77 8f 81 3f 97 43 80 3f 97 93 7b 3f 01 57 80 3f
       1.0121907 1.0020627 0.9827208 1.0026551
000030 78 a6 80 3f 01 81 79 3f 34 c3 7a 3f e1 cc 7e 3f
       1.0050802 0.9746247 0.97954106 0.9953137
000040 5d 1e 80 3f 3e bf 81 3f 56 a5 7d 3f 85 fc 7c 3f
       1.0009266 1.0136487 0.9908041 0.98822814

bias f4 [20]
000000 d6 9b 0b 3c 30 22 56 3b fd 46 14 bb df 66 32 3c
       0.008521041 0.0032674186 -0.002262532 0.010888784
000010 42 de 22 3c 3f 21 b1 39 39 ea ce 3a 56 0d b4 bb
       0.009940686 0.0003378484 0.0015786357 -0.005494754
000020 9b a1 4f 3b 6b 7e ae 3b c4 a6 16 3c 47 66 fe 3c
       0.0031682018 0.005325129 0.009195033 0.031054629
000030 fa 93 58 3b e1 dc 7d 3b b1 9c e8 ba 24 f2 be 3a
       0.0033047185 0.003873639 -0.0017746893 0.0014568013
000040 37 7d 22 3c 0b e6 de 3b 6d 06 06 3b 11 05 fe 3b
       0.009917549 0.0068023256 0.0020450607 0.007752069

running_mean f4 [20]
000000 5c 23 23 3c 0e a1 32 bd d4 a1 f0 3b 91 b8 95 3a
       0.009957161 -0.043610625 0.00734351 0.0011422803
000010 7a 47 d8 bb 25 4e 57 3d b7 93 0a 3d 3c b8 9f 3c
       -0.0066003175 0.05256476 0.033832278 0.01949703
000020 44 b2 8d 3d 12 ae b8 bd 8e d0 b3 bc 02 69 dc bc
       0.06918767 -0.09017576 -0.021950033 -0.02690554
000030 14 e0 ed bc 85 19 47 bd 2f 18 a5 bd d2 dd 95 bd
       -0.029037513 -0.04860832 -0.08061253 -0.073176995
000040 9d c5 8d bc 1a 31 4e 3d eb 06 16 bd d3 a4 07 bc
       -0.017306143 0.050339796 -0.03662769 -0.008279043

running_var f4 [20]
000000 2b 5c 28 3e 09 3f 06 3e 26 48 6f 3d 44 88 98 3d
       0.1644141 0.13109984 0.058418415 0.074478656
000010 ec 84 84 3d 32 7b 59 3d 1e 84 cf 3d e4 71 97 3d
       0.06470665 0.053096004 0.10132621 0.0739477
000020 92 26 a8 3e 00 01 00 3e 7c e2 bd 3d fa 27 1b 3d
       0.32841927 0.12500381 0.09271714 0.03787992
000030 6e 91 b5 3d 0a 86 b7 3d 42 e7 8c 3d 36 9c b7 3d
       0.08865629 0.08961113 0.068800464 0.08965342
000040 57 61 c4 3d ef a4 a1 3d af 72 0e 3e e9 30 9f 3d
       0.095888786 0.07892787 0.13910936 0.07773001

weight f4 [20, 20, 3, 3]
000000 6c 57 36 bd b8 3a ac bc c1 62 fd bc 55 8b 67 bb
       -0.044516966 -0.021024093 -0.030930879 -0.003533085
000010 95 20 d0 3c 11 53 01 3c 21 f1 e4 3b 0a 34 e6 3c
       0.025406161 0.00789334 0.0069867526 0.028100986
000020 f1 2e 96 3c fa 09 cb 3c da 74 d6 bb a8 16 c8 bc
       0.01833293 0.02478503 -0.0065446915 -0.024424866
000030 7c 22 1d 3a 03 6e 06 3d 23 1a 7b bb ad 7d e6 3a
       0.0005994213 0.03281976 -0.003831514 0.0017585062
000040 38 85 01 bd b5 8d 76 3c 6b 99 ba bc 00 63 ad bc
       -0.031621188 0.015048434 -0.022778234 -0.021165371
000050 95 18 c7 3b 11 8e 33 bb e4 81 82 3c 96 67 13 bc
       0.0060759285 -0.002739791 0.015931077 -0.008996865
000060 e5 90 e2 bc 54 f5 df bc 14 2f c1 3c df 5c 24 3c
       -0.027656982 -0.027338661 0.023582019 0.010031908
000070 12 7c 87 bc 97 f3 0d bc 2b 00 fb bc 66 21 19 bd
       -0.016538654 -0.008664033 -0.030639729 -0.037385367
000080 b3 fc d0 3c b2 70 9c bb 3b 05 b9 3c 7d 5d 84 bc
       0.025511121 -0.0047741765 0.022585502 -0.01615786
000090 9d 12 f2 3c 67 fd 29 bc 7f 12 43 bc b4 ea 7c bc
       0.029549891 -0.010375357 -0.011906265 -0.015436817
0000a0 97 9c 01 3d 26 8a f2 3c 46 38 1c bc 2a b2 30 bc
       0.031643476 0.02960689 -0.009534901 -0.010784665
0000b0 ec 9c 12 bc 85 42 0f 3c 85 d2 e6 3a cf 6e 28 bd
       -0.008948546 0.008743887 0.0017610347 -0.0411213
0000c0 66 ef be 3b f0 66 24 bd b4 95 84 bc ba 51 1e bc
       0.0058268784 -0.04013723 -0.016184665 -0.00966304
0000d0 e6 92 69 bc 79 fa 80 3c c6 e6 64 3c 03 28 29 bc
       -0.014256215 0.015744435 0.013971036 -0.010324481
0000e0 c2 df 1a bc 1a cd e7 bc eb 86 01 3d 37 7e 3e bc
       -0.009452762 -0.028296042 0.03162281 -0.011626772
0000f0 5d 65 ba bc 4e 40 85 3c ef 3f df bc 1f a1 94 bc
       -0.022753412 0.016266014 -0.027252166 -0.018143235
000100 16 e6 f3 3b 66 c6 92 bc d8 00 d9 bc db 91 95 3c
       0.0074432 -0.01791687 -0.02648966 0.018258026
000110 c4 2e b9 3b 00 a9 e8 3a d8 fd c6 3b e6 0d 93 3c
       0.005651327 0.0017750561 0.006072741 0.017950963
000120 75 aa 7e bc 45 2b c4 bc be fa 0a 3c 8a 81 21 3c
       -0.01554357 -0.023946414 0.008482633 0.009857545
000130 e0 d3 b2 bb 59 ca ae bc e8 55 18 3c e3 ac cb bc
       -0.0054573864 -0.021336721 0.009297825 -0.024862712
000140 cf 4a 7b 3c 2e af 79 3c a2 9b e4 3b c8 b7 80 bb
       0.01533766 0.01523952 0.0069765607 -0.0039281584
000150 a8 ff 09 bc 17 77 88 3c 20 72 ef 3b 4c b9 d9 b8
       -0.00842277 0.016658349 0.007307306 -0.000103818806
000160 6d e3 2c bd 50 ac 27 3d b9 69 02 bd a7 73 ef bc
       -0.042209078 0.040935814 -0.031839106 -0.029229952
000170 f7 cb 9f bb 9a c6 06 b9 e1 29 4c bb c5 37 4b 3d
       -0.0048766094 -0.0001285322 -0.0031152891 0.049613733
000180 ec a1 22 bb cb ec 01 bd c2 e5 89 3c 36 1f 42 bc
       -0.0024815751 -0.031719964 0.01683319 -0.011848262
000190 b9 e7 19 bb 2d 54 fe bc 3d ca db bc fd 86 9f 3c
       -0.0023484065 -0.031045998 -0.026829833 0.019473547
0001a0 91 0a 6b 39 ee ba 57 3c 98 8e dd bb 25 04 d4 3c
       0.00022415283 0.013167126 -0.0067613833 0.025880883
0001b0 1d d4 28 ba af 3a c9 3c 50 03 0d 3d e8 6e 39 38
       -0.0006440299 0.024564115 0.034426987 4.4210727e-05
0001c0 51 01 84 3c 1b 0d 19 3c 09 c8 e9 bb 96 69 af bc
       0.016113909 0.0093415035 -0.0071344418 -0.021412652
0001d0 2e d1 35 3c 6a 72 c8 bb c9 36 02 3d 66 02 9c bb
       0.011097236 -0.006117155 0.03179053 -0.004761028
0001e0 3b b5 55 bc 21 8e 51 3c 6b 85 c4 3c e7 f0 32 3c
       -0.013043697 0.012790234 0.0239894 0.010921693
0001f0 1b 00 04 3c 90 64 0d bc cc 1a be bb d4 00 19 3c
       0.008056666 -0.008629933 -0.0058015343 0.009338576
000200 5a 79 61 bc 19 a7 2e 3c 44 63 9e ba 7a 6c 21 bc
       -0.013761843 0.010659956 -0.0012084027 -0.009852523
000210 8a ad 62 bc bc 3c 0f 3d 86 2f f3 3a ea ba a1 bc
       -0.01383532 0.03497003 0.0018553592 -0.019742448
000220 46 f7 85 bc 45 39 6f 3c 6b 61 35 3c 56 3d 87 3c
       -0.01635326 0.014601056 0.01107059 0.01650874
000230 33 dc fd bb 68 31 f5 bc f2 0a 05 bd 73 36 82 bb
       -0.007747197 -0.029930785 -0.03248114 -0.003973776
000240 1a 10 58 bc 50 27 df bc 36 bc 3a 3c 42 df 22 bd
       -0.013187433 -0.027240425 0.011397412 -0.039763696
000250 2d 0f e5 3c 02 d3 8c 3c b8 0a 8d bb 7e 85 1e 3d
       0.027961338 0.01719046 -0.0043042563 0.038701527
000260 07 1e 0c bc 28 67 05 bd 9a db 20 bb c4 76 0a b7
       -0.008552081 -0.03256908 -0.0024544955 -8.253093e-06
000270 3e db c6 bc cf 8e 1e 3c a5 1b a7 3b 0b d4 e8 3c
       -0.024274465 0.009677603 0.005099731 0.028421422
000280 c9 99 cf 3a df 2e 96 bb 20 84 a1 3b 5a ad ca 3c
       0.0015838678 -0.004583224 0.0049290806 0.024740864
000290 31 38 55 bc 9b 87 fd bc 41 11 8e 3c 4c 08 a4 3c
       -0.013013885 -0.03094845 0.017342212 0.020023488
0002a0 40 0a 86 bc 67 da 49 3a 08 8b 8c bc 7a 9c b6 3c
       -0.01636231 0.0007700086 -0.017156139 0.02229141
0002b0 6d 3f 25 3c d0 38 89 bb e9 68 67 bc c5 57 b4 3c
       0.010085923 -0.004187681 -0.014124134 0.022014508
0002c0 fa ca 61 3c de 3b 9f bb 81 a3 2e 3d ba a7 7b bc
       0.013781304 -0.0048594316 0.0426364 -0.015359813
0002d0 d1 b5 b7 3b fd 3b 53 bc cb 1d ce bb 91 16 b1 3c
       0.005606391 -0.01289272 -0.0062901727 0.021617206
0002e0 1a b1 db bb bb 3e 67 bb b2 6f c2 bc 87 ec 28 3b
       -0.0067044618 -0.0035285193 -0.023734901 0.0025775747
0002f0 d2 49 74 3b 90 56 aa bc 5e 7f dd 3c 3a bc ef bb
       0.0037275446 -0.02079323 0.027038272 -0.0073161395
000300 ae 48 b9 3b 75 27 56 3c 5b 0b 01 3d 45 3c 32 bb
       0.005654416 0.013070931 0.03150497 -0.0027196568
000310 d7 5b a8 3c 27 6b 3b 3c be 5b ae 3b 5a 9c 23 bd
       0.020551605 0.011439121 0.005320995 -0.03994403
000320 37 4f dc 3c 2b 57 52 bd 94 18 f8 3b 37 a7 52 bb
       0.026893241 -0.05135266 0.0075712893 -0.0032143125
000330 1e 47 18 3d 3d 16 80 3c b0 0e f5 bc 39 0a 8e bc
       0.037177198 0.015635604 -0.02991423 -0.017338859
000340 90 96 f1 3b dc ab b0 3c fc df b8 3c d3 93 4f 3c
       0.007372685 0.021566324 0.022567742 0.012669521
000350 9c 23 90 3c 0e e2 16 bc 26 e8 e7 3c 70 4b e6 3c
       0.017595105 -0.009209169 0.02830894 0.028112143
000360 91 b3 08 3d 09 d8 0f bd 88 c5 b0 3c 05 da ae bb
       0.033374373 -0.035118137 0.021578565 -0.0053360485
000370 e9 43 0d 3c e0 dc 03 bd b9 fc 33 3d 66 20 8c ba
       0.008622148 -0.032193065 0.043942187 -0.0010690808
000380 d5 e8 cd 3c ea 63 42 3d d1 02 47 3b 5d ba 8c bc
       0.025135437 0.047458567 0.003036667 -0.017178709
000390 cc ff 3f 3c 08 82 12 bc a9 98 84 3c 97 6f 25 3c
       0.011718702 -0.008942135 0.016186075 0.010097406
0003a0 a4 00 4e bc e8 33 92 bc 43 1a 34 3c 06 2d ba 3c
       -0.012573395 -0.017847016 0.010992589 0.022726547
0003b0 c9 ba e3 3b de f2 63 bd 90 fe e5 bb 33 bb 08 3d
       0.0069497568 -0.055651538 -0.0070188716 0.033381652
0003c0 f5 8a e8 ba d8 12 4d 3c cd 81 01 bd b6 c5 18 bd
       -0.0017741608 0.0125167 -0.03161793 -0.037297927
0003d0 a3 3a a7 bc b3 e2 29 b9 0f c5 5b 3b 69 64 9f 3c
       -0.020413702 -0.00016201548 0.0033534204 0.019457059
0003e0 38 01 52 3c b5 7a 08 bd b5 c3 08 ba 76 3e a1 bc
       0.012817673 -0.033320148 -0.0005217151 -0.019683104
0003f0 ad 76 b0 3c 8e c2 51 bc e3 1a 33 3c db 2a ec bb
       0.021540964 -0.012802733 0.010931703 -0.007207257

bias f4 [20]
000000 24 fb 32 3d 72 6d 85 bd ee 65 7c bd 04 bb 05 3d
       0.043696538 -0.06515016 -0.061620645 0.032649055
000010 c4 9f 6b bd 41 ae 9c bc 8d 05 7c bc e8 9d 80 3d
       -0.05752541 -0.01912606 -0.015382183 0.06280118
000020 ad b0 63 bd f6 9a 3a bc 7b 1c 6f 3d c5 27 57 3d
       -0.055588413 -0.011389485 0.05837677 0.05252816
000030 0b 88 94 bd c1 33 6b bd 92 a4 16 3d c5 a9 ef bc
       -0.07252511 -0.057422403 0.03677804 -0.029255757
000040 44 35 59 3d b9 ca b0 3c c8 1f 5c 3d fc 97 07 bd
       0.053029314 0.02158104 0.053741246 -0.033103928

weight f4 [20]
000000 31 90 7b 3f 09 86 76 3f a3 97 7f 3f 8b 6a 80 3f
       0.98266894 0.9629827 0.99840754 1.0032514
000010 05 c0 84 3f ad 2c 7e 3f 7e 92 82 3f 03 18 77 3f
       1.03711 0.9928692 1.0200956 0.96521014
000020 82 3a 7d 3f d3 98 7f 3f ef 3e 7d 3f b1 f5 7f 3f
       0.989174 0.99842566 0.98924154 0.9998427
000030 e9 bf 84 3f 08 4e 83 3f 38 a5 81 3f c4 ed 82 3f
       1.0371066 1.0258188 1.0128546 1.022881
000040 b0 d7 7d 3f d1 f2 7c 3f 4d 1b 7e 3f 2b 8e 7d 3f
       0.9915724 0.9880801 0.9926041 0.99045056

bias f4 [20]
000000 43 92 c8 3a f0 97 13 bc 35 8b 11 ba ff 90 77 bc
       0.0015302378 -0.009008393 -0.00055520545 -0.015110253
000010 73 5f 8e bc a8 a8 27 3b 7d 72 21 bb dc 78 d5 bb
       -0.017379498 0.0025582705 -0.002463489 -0.0065146517
000020 92 61 2e bc 2d 2d 33 3b 4b 94 c7 39 6b 01 d2 b6
       -0.01064338 0.002734016 0.00038066725 -6.258653e-06
000030 5a dd 31 3b 0d 93 96 bc 36 a5 06 bc 23 9e ca 3b
       0.0027139992 -0.018380666 -0.0082181 0.006183402
000040 35 bf 59 bb 81 a7 26 bc 02 07 b9 3a 39 3a 2e bc
       -0.003322554 -0.010171772 0.0014116468 -0.010633999

running_mean f4 [20]
000000 0a 1a 11 3c 89 7f 70 3c 19 54 50 be cb c3 f7 3c
       0.008856306 0.014678844 -0.2034458 0.030244729
000010 c4 5f 41 bd ea 34 fd 3b fb a9 12 bd f1 38 82 3e
       -0.04721047 0.007727255 -0.035806637 0.25434068
000020 22 13 3f 3c b9 da 3e 3b 15 0e ca 3c ea 2a 97 bc
       0.011662276 0.0029122068 0.024664918 -0.01845308
000030 c6 d8 17 3d 0d 78 19 be 19 2a 17 3e 19 49 03 bd
       0.037071966 -0.14987202 0.14762153 -0.032052133
000040 4a 63 41 bd bb c9 be bb 1e 93 e0 3d 50 89 2f 3c
       -0.04721383 -0.005822388 0.109655604 0.01071389

running_var f4 [20]
000000 1f e4 37 3c 24 72 4b 3c db 76 c0 3c 91 cf 40 3c
       0.011223822 0.01241735 0.023494175 0.011768238
000010 5b a6 c4 3c e1 4a 7d 3c 32 2e f4 3c 54 a7 40 3d
       0.024005106 0.015459747 0.029807184 0.047034577
000020 28 e4 e8 3c ae 41 e1 3c d2 44 a2 3c 31 0d e6 3c
       0.028429106 0.027497139 0.019808207 0.028082462
000030 97 0c 3b 3c 9c d9 02 3d d1 67 53 3c 62 62 44 3c
       0.011416576 0.03194581 0.01290317 0.011986347
000040 c2 f0 81 3d 2a 1b 42 3d 5a 2d 6b 3d c3 dd f3 3c
       0.06344749 0.047389187 0.057416297 0.02976883
